{
  "nodes": [
    {
      "op": "null", 
      "name": "data", 
      "inputs": []
    }, 
    {
      "op": "null", 
      "name": "convolution600_weight", 
      "attr": {
        "kernel": "3", 
        "num_filter": "16", 
        "pad": "1", 
        "stride": "1"
      }, 
      "inputs": []
    }, 
    {
      "op": "null", 
      "name": "convolution600_bias", 
      "attr": {
        "kernel": "3", 
        "num_filter": "16", 
        "pad": "1", 
        "stride": "1"
      }, 
      "inputs": []
    }, 
    {
      "op": "Convolution", 
      "name": "convolution600", 
      "attr": {
        "kernel": "3", 
        "num_filter": "16", 
        "pad": "1", 
        "stride": "1"
      }, 
      "inputs": [[0, 0, 0], [1, 0, 0], [2, 0, 0]]
    }, 
    {
      "op": "null", 
      "name": "batchnorm600_gamma", 
      "inputs": []
    }, 
    {
      "op": "null", 
      "name": "batchnorm600_beta", 
      "inputs": []
    }, 
    {
      "op": "null", 
      "name": "batchnorm600_moving_mean", 
      "attr": {"__init__": "[\"zero\", {}]"}, 
      "inputs": []
    }, 
    {
      "op": "null", 
      "name": "batchnorm600_moving_var", 
      "attr": {"__init__": "[\"one\", {}]"}, 
      "inputs": []
    }, 
    {
      "op": "BatchNorm", 
      "name": "batchnorm600", 
      "inputs": [[3, 0, 0], [4, 0, 0], [5, 0, 0], [6, 0, 1], [7, 0, 1]]
    }, 
    {
      "op": "LeakyReLU", 
      "name": "leakyrelu584", 
      "inputs": [[8, 0, 0]]
    }, 
    {
      "op": "null", 
      "name": "convolution601_weight", 
      "attr": {
        "kernel": "3", 
        "num_filter": "16", 
        "pad": "1", 
        "stride": "1"
      }, 
      "inputs": []
    }, 
    {
      "op": "null", 
      "name": "convolution601_bias", 
      "attr": {
        "kernel": "3", 
        "num_filter": "16", 
        "pad": "1", 
        "stride": "1"
      }, 
      "inputs": []
    }, 
    {
      "op": "Convolution", 
      "name": "convolution601", 
      "attr": {
        "kernel": "3", 
        "num_filter": "16", 
        "pad": "1", 
        "stride": "1"
      }, 
      "inputs": [[9, 0, 0], [10, 0, 0], [11, 0, 0]]
    }, 
    {
      "op": "null", 
      "name": "batchnorm601_gamma", 
      "inputs": []
    }, 
    {
      "op": "null", 
      "name": "batchnorm601_beta", 
      "inputs": []
    }, 
    {
      "op": "null", 
      "name": "batchnorm601_moving_mean", 
      "attr": {"__init__": "[\"zero\", {}]"}, 
      "inputs": []
    }, 
    {
      "op": "null", 
      "name": "batchnorm601_moving_var", 
      "attr": {"__init__": "[\"one\", {}]"}, 
      "inputs": []
    }, 
    {
      "op": "BatchNorm", 
      "name": "batchnorm601", 
      "inputs": [[12, 0, 0], [13, 0, 0], [14, 0, 0], [15, 0, 1], [16, 0, 1]]
    }, 
    {
      "op": "LeakyReLU", 
      "name": "leakyrelu585", 
      "inputs": [[17, 0, 0]]
    }, 
    {
      "op": "null", 
      "name": "convolution602_weight", 
      "attr": {
        "kernel": "3", 
        "num_filter": "16", 
        "pad": "1", 
        "stride": "1"
      }, 
      "inputs": []
    }, 
    {
      "op": "null", 
      "name": "convolution602_bias", 
      "attr": {
        "kernel": "3", 
        "num_filter": "16", 
        "pad": "1", 
        "stride": "1"
      }, 
      "inputs": []
    }, 
    {
      "op": "Convolution", 
      "name": "convolution602", 
      "attr": {
        "kernel": "3", 
        "num_filter": "16", 
        "pad": "1", 
        "stride": "1"
      }, 
      "inputs": [[18, 0, 0], [19, 0, 0], [20, 0, 0]]
    }, 
    {
      "op": "null", 
      "name": "batchnorm602_gamma", 
      "inputs": []
    }, 
    {
      "op": "null", 
      "name": "batchnorm602_beta", 
      "inputs": []
    }, 
    {
      "op": "null", 
      "name": "batchnorm602_moving_mean", 
      "attr": {"__init__": "[\"zero\", {}]"}, 
      "inputs": []
    }, 
    {
      "op": "null", 
      "name": "batchnorm602_moving_var", 
      "attr": {"__init__": "[\"one\", {}]"}, 
      "inputs": []
    }, 
    {
      "op": "BatchNorm", 
      "name": "batchnorm602", 
      "inputs": [[21, 0, 0], [22, 0, 0], [23, 0, 0], [24, 0, 1], [25, 0, 1]]
    }, 
    {
      "op": "elemwise_add", 
      "name": "_plus288", 
      "inputs": [[9, 0, 0], [26, 0, 0]]
    }, 
    {
      "op": "LeakyReLU", 
      "name": "leakyrelu586", 
      "inputs": [[27, 0, 0]]
    }, 
    {
      "op": "null", 
      "name": "convolution603_weight", 
      "attr": {
        "kernel": "3", 
        "num_filter": "16", 
        "pad": "1", 
        "stride": "1"
      }, 
      "inputs": []
    }, 
    {
      "op": "null", 
      "name": "convolution603_bias", 
      "attr": {
        "kernel": "3", 
        "num_filter": "16", 
        "pad": "1", 
        "stride": "1"
      }, 
      "inputs": []
    }, 
    {
      "op": "Convolution", 
      "name": "convolution603", 
      "attr": {
        "kernel": "3", 
        "num_filter": "16", 
        "pad": "1", 
        "stride": "1"
      }, 
      "inputs": [[28, 0, 0], [29, 0, 0], [30, 0, 0]]
    }, 
    {
      "op": "null", 
      "name": "batchnorm603_gamma", 
      "inputs": []
    }, 
    {
      "op": "null", 
      "name": "batchnorm603_beta", 
      "inputs": []
    }, 
    {
      "op": "null", 
      "name": "batchnorm603_moving_mean", 
      "attr": {"__init__": "[\"zero\", {}]"}, 
      "inputs": []
    }, 
    {
      "op": "null", 
      "name": "batchnorm603_moving_var", 
      "attr": {"__init__": "[\"one\", {}]"}, 
      "inputs": []
    }, 
    {
      "op": "BatchNorm", 
      "name": "batchnorm603", 
      "inputs": [[31, 0, 0], [32, 0, 0], [33, 0, 0], [34, 0, 1], [35, 0, 1]]
    }, 
    {
      "op": "LeakyReLU", 
      "name": "leakyrelu587", 
      "inputs": [[36, 0, 0]]
    }, 
    {
      "op": "null", 
      "name": "convolution604_weight", 
      "attr": {
        "kernel": "3", 
        "num_filter": "16", 
        "pad": "1", 
        "stride": "1"
      }, 
      "inputs": []
    }, 
    {
      "op": "null", 
      "name": "convolution604_bias", 
      "attr": {
        "kernel": "3", 
        "num_filter": "16", 
        "pad": "1", 
        "stride": "1"
      }, 
      "inputs": []
    }, 
    {
      "op": "Convolution", 
      "name": "convolution604", 
      "attr": {
        "kernel": "3", 
        "num_filter": "16", 
        "pad": "1", 
        "stride": "1"
      }, 
      "inputs": [[37, 0, 0], [38, 0, 0], [39, 0, 0]]
    }, 
    {
      "op": "null", 
      "name": "batchnorm604_gamma", 
      "inputs": []
    }, 
    {
      "op": "null", 
      "name": "batchnorm604_beta", 
      "inputs": []
    }, 
    {
      "op": "null", 
      "name": "batchnorm604_moving_mean", 
      "attr": {"__init__": "[\"zero\", {}]"}, 
      "inputs": []
    }, 
    {
      "op": "null", 
      "name": "batchnorm604_moving_var", 
      "attr": {"__init__": "[\"one\", {}]"}, 
      "inputs": []
    }, 
    {
      "op": "BatchNorm", 
      "name": "batchnorm604", 
      "inputs": [[40, 0, 0], [41, 0, 0], [42, 0, 0], [43, 0, 1], [44, 0, 1]]
    }, 
    {
      "op": "elemwise_add", 
      "name": "_plus289", 
      "inputs": [[28, 0, 0], [45, 0, 0]]
    }, 
    {
      "op": "LeakyReLU", 
      "name": "leakyrelu588", 
      "inputs": [[46, 0, 0]]
    }, 
    {
      "op": "null", 
      "name": "convolution605_weight", 
      "attr": {
        "kernel": "3", 
        "num_filter": "16", 
        "pad": "1", 
        "stride": "1"
      }, 
      "inputs": []
    }, 
    {
      "op": "null", 
      "name": "convolution605_bias", 
      "attr": {
        "kernel": "3", 
        "num_filter": "16", 
        "pad": "1", 
        "stride": "1"
      }, 
      "inputs": []
    }, 
    {
      "op": "Convolution", 
      "name": "convolution605", 
      "attr": {
        "kernel": "3", 
        "num_filter": "16", 
        "pad": "1", 
        "stride": "1"
      }, 
      "inputs": [[47, 0, 0], [48, 0, 0], [49, 0, 0]]
    }, 
    {
      "op": "null", 
      "name": "batchnorm605_gamma", 
      "inputs": []
    }, 
    {
      "op": "null", 
      "name": "batchnorm605_beta", 
      "inputs": []
    }, 
    {
      "op": "null", 
      "name": "batchnorm605_moving_mean", 
      "attr": {"__init__": "[\"zero\", {}]"}, 
      "inputs": []
    }, 
    {
      "op": "null", 
      "name": "batchnorm605_moving_var", 
      "attr": {"__init__": "[\"one\", {}]"}, 
      "inputs": []
    }, 
    {
      "op": "BatchNorm", 
      "name": "batchnorm605", 
      "inputs": [[50, 0, 0], [51, 0, 0], [52, 0, 0], [53, 0, 1], [54, 0, 1]]
    }, 
    {
      "op": "LeakyReLU", 
      "name": "leakyrelu589", 
      "inputs": [[55, 0, 0]]
    }, 
    {
      "op": "null", 
      "name": "convolution606_weight", 
      "attr": {
        "kernel": "3", 
        "num_filter": "16", 
        "pad": "1", 
        "stride": "1"
      }, 
      "inputs": []
    }, 
    {
      "op": "null", 
      "name": "convolution606_bias", 
      "attr": {
        "kernel": "3", 
        "num_filter": "16", 
        "pad": "1", 
        "stride": "1"
      }, 
      "inputs": []
    }, 
    {
      "op": "Convolution", 
      "name": "convolution606", 
      "attr": {
        "kernel": "3", 
        "num_filter": "16", 
        "pad": "1", 
        "stride": "1"
      }, 
      "inputs": [[56, 0, 0], [57, 0, 0], [58, 0, 0]]
    }, 
    {
      "op": "null", 
      "name": "batchnorm606_gamma", 
      "inputs": []
    }, 
    {
      "op": "null", 
      "name": "batchnorm606_beta", 
      "inputs": []
    }, 
    {
      "op": "null", 
      "name": "batchnorm606_moving_mean", 
      "attr": {"__init__": "[\"zero\", {}]"}, 
      "inputs": []
    }, 
    {
      "op": "null", 
      "name": "batchnorm606_moving_var", 
      "attr": {"__init__": "[\"one\", {}]"}, 
      "inputs": []
    }, 
    {
      "op": "BatchNorm", 
      "name": "batchnorm606", 
      "inputs": [[59, 0, 0], [60, 0, 0], [61, 0, 0], [62, 0, 1], [63, 0, 1]]
    }, 
    {
      "op": "elemwise_add", 
      "name": "_plus290", 
      "inputs": [[47, 0, 0], [64, 0, 0]]
    }, 
    {
      "op": "LeakyReLU", 
      "name": "leakyrelu590", 
      "inputs": [[65, 0, 0]]
    }, 
    {
      "op": "null", 
      "name": "convolution607_weight", 
      "attr": {
        "kernel": "3", 
        "num_filter": "16", 
        "pad": "1", 
        "stride": "1"
      }, 
      "inputs": []
    }, 
    {
      "op": "null", 
      "name": "convolution607_bias", 
      "attr": {
        "kernel": "3", 
        "num_filter": "16", 
        "pad": "1", 
        "stride": "1"
      }, 
      "inputs": []
    }, 
    {
      "op": "Convolution", 
      "name": "convolution607", 
      "attr": {
        "kernel": "3", 
        "num_filter": "16", 
        "pad": "1", 
        "stride": "1"
      }, 
      "inputs": [[66, 0, 0], [67, 0, 0], [68, 0, 0]]
    }, 
    {
      "op": "null", 
      "name": "batchnorm607_gamma", 
      "inputs": []
    }, 
    {
      "op": "null", 
      "name": "batchnorm607_beta", 
      "inputs": []
    }, 
    {
      "op": "null", 
      "name": "batchnorm607_moving_mean", 
      "attr": {"__init__": "[\"zero\", {}]"}, 
      "inputs": []
    }, 
    {
      "op": "null", 
      "name": "batchnorm607_moving_var", 
      "attr": {"__init__": "[\"one\", {}]"}, 
      "inputs": []
    }, 
    {
      "op": "BatchNorm", 
      "name": "batchnorm607", 
      "inputs": [[69, 0, 0], [70, 0, 0], [71, 0, 0], [72, 0, 1], [73, 0, 1]]
    }, 
    {
      "op": "LeakyReLU", 
      "name": "leakyrelu591", 
      "inputs": [[74, 0, 0]]
    }, 
    {
      "op": "null", 
      "name": "convolution608_weight", 
      "attr": {
        "kernel": "3", 
        "num_filter": "16", 
        "pad": "1", 
        "stride": "1"
      }, 
      "inputs": []
    }, 
    {
      "op": "null", 
      "name": "convolution608_bias", 
      "attr": {
        "kernel": "3", 
        "num_filter": "16", 
        "pad": "1", 
        "stride": "1"
      }, 
      "inputs": []
    }, 
    {
      "op": "Convolution", 
      "name": "convolution608", 
      "attr": {
        "kernel": "3", 
        "num_filter": "16", 
        "pad": "1", 
        "stride": "1"
      }, 
      "inputs": [[75, 0, 0], [76, 0, 0], [77, 0, 0]]
    }, 
    {
      "op": "null", 
      "name": "batchnorm608_gamma", 
      "inputs": []
    }, 
    {
      "op": "null", 
      "name": "batchnorm608_beta", 
      "inputs": []
    }, 
    {
      "op": "null", 
      "name": "batchnorm608_moving_mean", 
      "attr": {"__init__": "[\"zero\", {}]"}, 
      "inputs": []
    }, 
    {
      "op": "null", 
      "name": "batchnorm608_moving_var", 
      "attr": {"__init__": "[\"one\", {}]"}, 
      "inputs": []
    }, 
    {
      "op": "BatchNorm", 
      "name": "batchnorm608", 
      "inputs": [[78, 0, 0], [79, 0, 0], [80, 0, 0], [81, 0, 1], [82, 0, 1]]
    }, 
    {
      "op": "elemwise_add", 
      "name": "_plus291", 
      "inputs": [[66, 0, 0], [83, 0, 0]]
    }, 
    {
      "op": "LeakyReLU", 
      "name": "leakyrelu592", 
      "inputs": [[84, 0, 0]]
    }, 
    {
      "op": "null", 
      "name": "convolution609_weight", 
      "attr": {
        "kernel": "3", 
        "num_filter": "16", 
        "pad": "1", 
        "stride": "1"
      }, 
      "inputs": []
    }, 
    {
      "op": "null", 
      "name": "convolution609_bias", 
      "attr": {
        "kernel": "3", 
        "num_filter": "16", 
        "pad": "1", 
        "stride": "1"
      }, 
      "inputs": []
    }, 
    {
      "op": "Convolution", 
      "name": "convolution609", 
      "attr": {
        "kernel": "3", 
        "num_filter": "16", 
        "pad": "1", 
        "stride": "1"
      }, 
      "inputs": [[85, 0, 0], [86, 0, 0], [87, 0, 0]]
    }, 
    {
      "op": "null", 
      "name": "batchnorm609_gamma", 
      "inputs": []
    }, 
    {
      "op": "null", 
      "name": "batchnorm609_beta", 
      "inputs": []
    }, 
    {
      "op": "null", 
      "name": "batchnorm609_moving_mean", 
      "attr": {"__init__": "[\"zero\", {}]"}, 
      "inputs": []
    }, 
    {
      "op": "null", 
      "name": "batchnorm609_moving_var", 
      "attr": {"__init__": "[\"one\", {}]"}, 
      "inputs": []
    }, 
    {
      "op": "BatchNorm", 
      "name": "batchnorm609", 
      "inputs": [[88, 0, 0], [89, 0, 0], [90, 0, 0], [91, 0, 1], [92, 0, 1]]
    }, 
    {
      "op": "LeakyReLU", 
      "name": "leakyrelu593", 
      "inputs": [[93, 0, 0]]
    }, 
    {
      "op": "null", 
      "name": "convolution610_weight", 
      "attr": {
        "kernel": "3", 
        "num_filter": "16", 
        "pad": "1", 
        "stride": "1"
      }, 
      "inputs": []
    }, 
    {
      "op": "null", 
      "name": "convolution610_bias", 
      "attr": {
        "kernel": "3", 
        "num_filter": "16", 
        "pad": "1", 
        "stride": "1"
      }, 
      "inputs": []
    }, 
    {
      "op": "Convolution", 
      "name": "convolution610", 
      "attr": {
        "kernel": "3", 
        "num_filter": "16", 
        "pad": "1", 
        "stride": "1"
      }, 
      "inputs": [[94, 0, 0], [95, 0, 0], [96, 0, 0]]
    }, 
    {
      "op": "null", 
      "name": "batchnorm610_gamma", 
      "inputs": []
    }, 
    {
      "op": "null", 
      "name": "batchnorm610_beta", 
      "inputs": []
    }, 
    {
      "op": "null", 
      "name": "batchnorm610_moving_mean", 
      "attr": {"__init__": "[\"zero\", {}]"}, 
      "inputs": []
    }, 
    {
      "op": "null", 
      "name": "batchnorm610_moving_var", 
      "attr": {"__init__": "[\"one\", {}]"}, 
      "inputs": []
    }, 
    {
      "op": "BatchNorm", 
      "name": "batchnorm610", 
      "inputs": [[97, 0, 0], [98, 0, 0], [99, 0, 0], [100, 0, 1], [101, 0, 1]]
    }, 
    {
      "op": "elemwise_add", 
      "name": "_plus292", 
      "inputs": [[85, 0, 0], [102, 0, 0]]
    }, 
    {
      "op": "LeakyReLU", 
      "name": "leakyrelu594", 
      "inputs": [[103, 0, 0]]
    }, 
    {
      "op": "null", 
      "name": "convolution611_weight", 
      "attr": {
        "kernel": "3", 
        "num_filter": "16", 
        "pad": "1", 
        "stride": "1"
      }, 
      "inputs": []
    }, 
    {
      "op": "null", 
      "name": "convolution611_bias", 
      "attr": {
        "kernel": "3", 
        "num_filter": "16", 
        "pad": "1", 
        "stride": "1"
      }, 
      "inputs": []
    }, 
    {
      "op": "Convolution", 
      "name": "convolution611", 
      "attr": {
        "kernel": "3", 
        "num_filter": "16", 
        "pad": "1", 
        "stride": "1"
      }, 
      "inputs": [[104, 0, 0], [105, 0, 0], [106, 0, 0]]
    }, 
    {
      "op": "null", 
      "name": "batchnorm611_gamma", 
      "inputs": []
    }, 
    {
      "op": "null", 
      "name": "batchnorm611_beta", 
      "inputs": []
    }, 
    {
      "op": "null", 
      "name": "batchnorm611_moving_mean", 
      "attr": {"__init__": "[\"zero\", {}]"}, 
      "inputs": []
    }, 
    {
      "op": "null", 
      "name": "batchnorm611_moving_var", 
      "attr": {"__init__": "[\"one\", {}]"}, 
      "inputs": []
    }, 
    {
      "op": "BatchNorm", 
      "name": "batchnorm611", 
      "inputs": [[107, 0, 0], [108, 0, 0], [109, 0, 0], [110, 0, 1], [111, 0, 1]]
    }, 
    {
      "op": "LeakyReLU", 
      "name": "leakyrelu595", 
      "inputs": [[112, 0, 0]]
    }, 
    {
      "op": "null", 
      "name": "convolution612_weight", 
      "attr": {
        "kernel": "3", 
        "num_filter": "16", 
        "pad": "1", 
        "stride": "1"
      }, 
      "inputs": []
    }, 
    {
      "op": "null", 
      "name": "convolution612_bias", 
      "attr": {
        "kernel": "3", 
        "num_filter": "16", 
        "pad": "1", 
        "stride": "1"
      }, 
      "inputs": []
    }, 
    {
      "op": "Convolution", 
      "name": "convolution612", 
      "attr": {
        "kernel": "3", 
        "num_filter": "16", 
        "pad": "1", 
        "stride": "1"
      }, 
      "inputs": [[113, 0, 0], [114, 0, 0], [115, 0, 0]]
    }, 
    {
      "op": "null", 
      "name": "batchnorm612_gamma", 
      "inputs": []
    }, 
    {
      "op": "null", 
      "name": "batchnorm612_beta", 
      "inputs": []
    }, 
    {
      "op": "null", 
      "name": "batchnorm612_moving_mean", 
      "attr": {"__init__": "[\"zero\", {}]"}, 
      "inputs": []
    }, 
    {
      "op": "null", 
      "name": "batchnorm612_moving_var", 
      "attr": {"__init__": "[\"one\", {}]"}, 
      "inputs": []
    }, 
    {
      "op": "BatchNorm", 
      "name": "batchnorm612", 
      "inputs": [[116, 0, 0], [117, 0, 0], [118, 0, 0], [119, 0, 1], [120, 0, 1]]
    }, 
    {
      "op": "elemwise_add", 
      "name": "_plus293", 
      "inputs": [[104, 0, 0], [121, 0, 0]]
    }, 
    {
      "op": "LeakyReLU", 
      "name": "leakyrelu596", 
      "inputs": [[122, 0, 0]]
    }, 
    {
      "op": "null", 
      "name": "convolution613_weight", 
      "attr": {
        "kernel": "3", 
        "num_filter": "16", 
        "pad": "1", 
        "stride": "1"
      }, 
      "inputs": []
    }, 
    {
      "op": "null", 
      "name": "convolution613_bias", 
      "attr": {
        "kernel": "3", 
        "num_filter": "16", 
        "pad": "1", 
        "stride": "1"
      }, 
      "inputs": []
    }, 
    {
      "op": "Convolution", 
      "name": "convolution613", 
      "attr": {
        "kernel": "3", 
        "num_filter": "16", 
        "pad": "1", 
        "stride": "1"
      }, 
      "inputs": [[123, 0, 0], [124, 0, 0], [125, 0, 0]]
    }, 
    {
      "op": "null", 
      "name": "batchnorm613_gamma", 
      "inputs": []
    }, 
    {
      "op": "null", 
      "name": "batchnorm613_beta", 
      "inputs": []
    }, 
    {
      "op": "null", 
      "name": "batchnorm613_moving_mean", 
      "attr": {"__init__": "[\"zero\", {}]"}, 
      "inputs": []
    }, 
    {
      "op": "null", 
      "name": "batchnorm613_moving_var", 
      "attr": {"__init__": "[\"one\", {}]"}, 
      "inputs": []
    }, 
    {
      "op": "BatchNorm", 
      "name": "batchnorm613", 
      "inputs": [[126, 0, 0], [127, 0, 0], [128, 0, 0], [129, 0, 1], [130, 0, 1]]
    }, 
    {
      "op": "LeakyReLU", 
      "name": "leakyrelu597", 
      "inputs": [[131, 0, 0]]
    }, 
    {
      "op": "null", 
      "name": "convolution614_weight", 
      "attr": {
        "kernel": "3", 
        "num_filter": "16", 
        "pad": "1", 
        "stride": "1"
      }, 
      "inputs": []
    }, 
    {
      "op": "null", 
      "name": "convolution614_bias", 
      "attr": {
        "kernel": "3", 
        "num_filter": "16", 
        "pad": "1", 
        "stride": "1"
      }, 
      "inputs": []
    }, 
    {
      "op": "Convolution", 
      "name": "convolution614", 
      "attr": {
        "kernel": "3", 
        "num_filter": "16", 
        "pad": "1", 
        "stride": "1"
      }, 
      "inputs": [[132, 0, 0], [133, 0, 0], [134, 0, 0]]
    }, 
    {
      "op": "null", 
      "name": "batchnorm614_gamma", 
      "inputs": []
    }, 
    {
      "op": "null", 
      "name": "batchnorm614_beta", 
      "inputs": []
    }, 
    {
      "op": "null", 
      "name": "batchnorm614_moving_mean", 
      "attr": {"__init__": "[\"zero\", {}]"}, 
      "inputs": []
    }, 
    {
      "op": "null", 
      "name": "batchnorm614_moving_var", 
      "attr": {"__init__": "[\"one\", {}]"}, 
      "inputs": []
    }, 
    {
      "op": "BatchNorm", 
      "name": "batchnorm614", 
      "inputs": [[135, 0, 0], [136, 0, 0], [137, 0, 0], [138, 0, 1], [139, 0, 1]]
    }, 
    {
      "op": "elemwise_add", 
      "name": "_plus294", 
      "inputs": [[123, 0, 0], [140, 0, 0]]
    }, 
    {
      "op": "LeakyReLU", 
      "name": "leakyrelu598", 
      "inputs": [[141, 0, 0]]
    }, 
    {
      "op": "null", 
      "name": "convolution615_weight", 
      "attr": {
        "kernel": "3", 
        "num_filter": "16", 
        "pad": "1", 
        "stride": "1"
      }, 
      "inputs": []
    }, 
    {
      "op": "null", 
      "name": "convolution615_bias", 
      "attr": {
        "kernel": "3", 
        "num_filter": "16", 
        "pad": "1", 
        "stride": "1"
      }, 
      "inputs": []
    }, 
    {
      "op": "Convolution", 
      "name": "convolution615", 
      "attr": {
        "kernel": "3", 
        "num_filter": "16", 
        "pad": "1", 
        "stride": "1"
      }, 
      "inputs": [[142, 0, 0], [143, 0, 0], [144, 0, 0]]
    }, 
    {
      "op": "null", 
      "name": "batchnorm615_gamma", 
      "inputs": []
    }, 
    {
      "op": "null", 
      "name": "batchnorm615_beta", 
      "inputs": []
    }, 
    {
      "op": "null", 
      "name": "batchnorm615_moving_mean", 
      "attr": {"__init__": "[\"zero\", {}]"}, 
      "inputs": []
    }, 
    {
      "op": "null", 
      "name": "batchnorm615_moving_var", 
      "attr": {"__init__": "[\"one\", {}]"}, 
      "inputs": []
    }, 
    {
      "op": "BatchNorm", 
      "name": "batchnorm615", 
      "inputs": [[145, 0, 0], [146, 0, 0], [147, 0, 0], [148, 0, 1], [149, 0, 1]]
    }, 
    {
      "op": "LeakyReLU", 
      "name": "leakyrelu599", 
      "inputs": [[150, 0, 0]]
    }, 
    {
      "op": "null", 
      "name": "convolution616_weight", 
      "attr": {
        "kernel": "3", 
        "num_filter": "16", 
        "pad": "1", 
        "stride": "1"
      }, 
      "inputs": []
    }, 
    {
      "op": "null", 
      "name": "convolution616_bias", 
      "attr": {
        "kernel": "3", 
        "num_filter": "16", 
        "pad": "1", 
        "stride": "1"
      }, 
      "inputs": []
    }, 
    {
      "op": "Convolution", 
      "name": "convolution616", 
      "attr": {
        "kernel": "3", 
        "num_filter": "16", 
        "pad": "1", 
        "stride": "1"
      }, 
      "inputs": [[151, 0, 0], [152, 0, 0], [153, 0, 0]]
    }, 
    {
      "op": "null", 
      "name": "batchnorm616_gamma", 
      "inputs": []
    }, 
    {
      "op": "null", 
      "name": "batchnorm616_beta", 
      "inputs": []
    }, 
    {
      "op": "null", 
      "name": "batchnorm616_moving_mean", 
      "attr": {"__init__": "[\"zero\", {}]"}, 
      "inputs": []
    }, 
    {
      "op": "null", 
      "name": "batchnorm616_moving_var", 
      "attr": {"__init__": "[\"one\", {}]"}, 
      "inputs": []
    }, 
    {
      "op": "BatchNorm", 
      "name": "batchnorm616", 
      "inputs": [[154, 0, 0], [155, 0, 0], [156, 0, 0], [157, 0, 1], [158, 0, 1]]
    }, 
    {
      "op": "elemwise_add", 
      "name": "_plus295", 
      "inputs": [[142, 0, 0], [159, 0, 0]]
    }, 
    {
      "op": "LeakyReLU", 
      "name": "leakyrelu600", 
      "inputs": [[160, 0, 0]]
    }, 
    {
      "op": "null", 
      "name": "convolution617_weight", 
      "attr": {
        "kernel": "3", 
        "num_filter": "16", 
        "pad": "1", 
        "stride": "1"
      }, 
      "inputs": []
    }, 
    {
      "op": "null", 
      "name": "convolution617_bias", 
      "attr": {
        "kernel": "3", 
        "num_filter": "16", 
        "pad": "1", 
        "stride": "1"
      }, 
      "inputs": []
    }, 
    {
      "op": "Convolution", 
      "name": "convolution617", 
      "attr": {
        "kernel": "3", 
        "num_filter": "16", 
        "pad": "1", 
        "stride": "1"
      }, 
      "inputs": [[161, 0, 0], [162, 0, 0], [163, 0, 0]]
    }, 
    {
      "op": "null", 
      "name": "batchnorm617_gamma", 
      "inputs": []
    }, 
    {
      "op": "null", 
      "name": "batchnorm617_beta", 
      "inputs": []
    }, 
    {
      "op": "null", 
      "name": "batchnorm617_moving_mean", 
      "attr": {"__init__": "[\"zero\", {}]"}, 
      "inputs": []
    }, 
    {
      "op": "null", 
      "name": "batchnorm617_moving_var", 
      "attr": {"__init__": "[\"one\", {}]"}, 
      "inputs": []
    }, 
    {
      "op": "BatchNorm", 
      "name": "batchnorm617", 
      "inputs": [[164, 0, 0], [165, 0, 0], [166, 0, 0], [167, 0, 1], [168, 0, 1]]
    }, 
    {
      "op": "LeakyReLU", 
      "name": "leakyrelu601", 
      "inputs": [[169, 0, 0]]
    }, 
    {
      "op": "null", 
      "name": "convolution618_weight", 
      "attr": {
        "kernel": "3", 
        "num_filter": "16", 
        "pad": "1", 
        "stride": "1"
      }, 
      "inputs": []
    }, 
    {
      "op": "null", 
      "name": "convolution618_bias", 
      "attr": {
        "kernel": "3", 
        "num_filter": "16", 
        "pad": "1", 
        "stride": "1"
      }, 
      "inputs": []
    }, 
    {
      "op": "Convolution", 
      "name": "convolution618", 
      "attr": {
        "kernel": "3", 
        "num_filter": "16", 
        "pad": "1", 
        "stride": "1"
      }, 
      "inputs": [[170, 0, 0], [171, 0, 0], [172, 0, 0]]
    }, 
    {
      "op": "null", 
      "name": "batchnorm618_gamma", 
      "inputs": []
    }, 
    {
      "op": "null", 
      "name": "batchnorm618_beta", 
      "inputs": []
    }, 
    {
      "op": "null", 
      "name": "batchnorm618_moving_mean", 
      "attr": {"__init__": "[\"zero\", {}]"}, 
      "inputs": []
    }, 
    {
      "op": "null", 
      "name": "batchnorm618_moving_var", 
      "attr": {"__init__": "[\"one\", {}]"}, 
      "inputs": []
    }, 
    {
      "op": "BatchNorm", 
      "name": "batchnorm618", 
      "inputs": [[173, 0, 0], [174, 0, 0], [175, 0, 0], [176, 0, 1], [177, 0, 1]]
    }, 
    {
      "op": "elemwise_add", 
      "name": "_plus296", 
      "inputs": [[161, 0, 0], [178, 0, 0]]
    }, 
    {
      "op": "LeakyReLU", 
      "name": "leakyrelu602", 
      "inputs": [[179, 0, 0]]
    }, 
    {
      "op": "null", 
      "name": "convolution619_weight", 
      "attr": {
        "kernel": "3", 
        "num_filter": "16", 
        "pad": "1", 
        "stride": "1"
      }, 
      "inputs": []
    }, 
    {
      "op": "null", 
      "name": "convolution619_bias", 
      "attr": {
        "kernel": "3", 
        "num_filter": "16", 
        "pad": "1", 
        "stride": "1"
      }, 
      "inputs": []
    }, 
    {
      "op": "Convolution", 
      "name": "convolution619", 
      "attr": {
        "kernel": "3", 
        "num_filter": "16", 
        "pad": "1", 
        "stride": "1"
      }, 
      "inputs": [[180, 0, 0], [181, 0, 0], [182, 0, 0]]
    }, 
    {
      "op": "null", 
      "name": "batchnorm619_gamma", 
      "inputs": []
    }, 
    {
      "op": "null", 
      "name": "batchnorm619_beta", 
      "inputs": []
    }, 
    {
      "op": "null", 
      "name": "batchnorm619_moving_mean", 
      "attr": {"__init__": "[\"zero\", {}]"}, 
      "inputs": []
    }, 
    {
      "op": "null", 
      "name": "batchnorm619_moving_var", 
      "attr": {"__init__": "[\"one\", {}]"}, 
      "inputs": []
    }, 
    {
      "op": "BatchNorm", 
      "name": "batchnorm619", 
      "inputs": [[183, 0, 0], [184, 0, 0], [185, 0, 0], [186, 0, 1], [187, 0, 1]]
    }, 
    {
      "op": "LeakyReLU", 
      "name": "leakyrelu603", 
      "inputs": [[188, 0, 0]]
    }, 
    {
      "op": "null", 
      "name": "convolution620_weight", 
      "attr": {
        "kernel": "3", 
        "num_filter": "16", 
        "pad": "1", 
        "stride": "1"
      }, 
      "inputs": []
    }, 
    {
      "op": "null", 
      "name": "convolution620_bias", 
      "attr": {
        "kernel": "3", 
        "num_filter": "16", 
        "pad": "1", 
        "stride": "1"
      }, 
      "inputs": []
    }, 
    {
      "op": "Convolution", 
      "name": "convolution620", 
      "attr": {
        "kernel": "3", 
        "num_filter": "16", 
        "pad": "1", 
        "stride": "1"
      }, 
      "inputs": [[189, 0, 0], [190, 0, 0], [191, 0, 0]]
    }, 
    {
      "op": "null", 
      "name": "batchnorm620_gamma", 
      "inputs": []
    }, 
    {
      "op": "null", 
      "name": "batchnorm620_beta", 
      "inputs": []
    }, 
    {
      "op": "null", 
      "name": "batchnorm620_moving_mean", 
      "attr": {"__init__": "[\"zero\", {}]"}, 
      "inputs": []
    }, 
    {
      "op": "null", 
      "name": "batchnorm620_moving_var", 
      "attr": {"__init__": "[\"one\", {}]"}, 
      "inputs": []
    }, 
    {
      "op": "BatchNorm", 
      "name": "batchnorm620", 
      "inputs": [[192, 0, 0], [193, 0, 0], [194, 0, 0], [195, 0, 1], [196, 0, 1]]
    }, 
    {
      "op": "elemwise_add", 
      "name": "_plus297", 
      "inputs": [[180, 0, 0], [197, 0, 0]]
    }, 
    {
      "op": "LeakyReLU", 
      "name": "leakyrelu604", 
      "inputs": [[198, 0, 0]]
    }, 
    {
      "op": "null", 
      "name": "convolution621_weight", 
      "attr": {
        "kernel": "3", 
        "num_filter": "16", 
        "pad": "1", 
        "stride": "1"
      }, 
      "inputs": []
    }, 
    {
      "op": "null", 
      "name": "convolution621_bias", 
      "attr": {
        "kernel": "3", 
        "num_filter": "16", 
        "pad": "1", 
        "stride": "1"
      }, 
      "inputs": []
    }, 
    {
      "op": "Convolution", 
      "name": "convolution621", 
      "attr": {
        "kernel": "3", 
        "num_filter": "16", 
        "pad": "1", 
        "stride": "1"
      }, 
      "inputs": [[199, 0, 0], [200, 0, 0], [201, 0, 0]]
    }, 
    {
      "op": "null", 
      "name": "batchnorm621_gamma", 
      "inputs": []
    }, 
    {
      "op": "null", 
      "name": "batchnorm621_beta", 
      "inputs": []
    }, 
    {
      "op": "null", 
      "name": "batchnorm621_moving_mean", 
      "attr": {"__init__": "[\"zero\", {}]"}, 
      "inputs": []
    }, 
    {
      "op": "null", 
      "name": "batchnorm621_moving_var", 
      "attr": {"__init__": "[\"one\", {}]"}, 
      "inputs": []
    }, 
    {
      "op": "BatchNorm", 
      "name": "batchnorm621", 
      "inputs": [[202, 0, 0], [203, 0, 0], [204, 0, 0], [205, 0, 1], [206, 0, 1]]
    }, 
    {
      "op": "LeakyReLU", 
      "name": "leakyrelu605", 
      "inputs": [[207, 0, 0]]
    }, 
    {
      "op": "null", 
      "name": "convolution622_weight", 
      "attr": {
        "kernel": "3", 
        "num_filter": "16", 
        "pad": "1", 
        "stride": "1"
      }, 
      "inputs": []
    }, 
    {
      "op": "null", 
      "name": "convolution622_bias", 
      "attr": {
        "kernel": "3", 
        "num_filter": "16", 
        "pad": "1", 
        "stride": "1"
      }, 
      "inputs": []
    }, 
    {
      "op": "Convolution", 
      "name": "convolution622", 
      "attr": {
        "kernel": "3", 
        "num_filter": "16", 
        "pad": "1", 
        "stride": "1"
      }, 
      "inputs": [[208, 0, 0], [209, 0, 0], [210, 0, 0]]
    }, 
    {
      "op": "null", 
      "name": "batchnorm622_gamma", 
      "inputs": []
    }, 
    {
      "op": "null", 
      "name": "batchnorm622_beta", 
      "inputs": []
    }, 
    {
      "op": "null", 
      "name": "batchnorm622_moving_mean", 
      "attr": {"__init__": "[\"zero\", {}]"}, 
      "inputs": []
    }, 
    {
      "op": "null", 
      "name": "batchnorm622_moving_var", 
      "attr": {"__init__": "[\"one\", {}]"}, 
      "inputs": []
    }, 
    {
      "op": "BatchNorm", 
      "name": "batchnorm622", 
      "inputs": [[211, 0, 0], [212, 0, 0], [213, 0, 0], [214, 0, 1], [215, 0, 1]]
    }, 
    {
      "op": "elemwise_add", 
      "name": "_plus298", 
      "inputs": [[199, 0, 0], [216, 0, 0]]
    }, 
    {
      "op": "LeakyReLU", 
      "name": "leakyrelu606", 
      "inputs": [[217, 0, 0]]
    }, 
    {
      "op": "null", 
      "name": "convolution623_weight", 
      "attr": {
        "kernel": "3", 
        "num_filter": "16", 
        "pad": "1", 
        "stride": "1"
      }, 
      "inputs": []
    }, 
    {
      "op": "null", 
      "name": "convolution623_bias", 
      "attr": {
        "kernel": "3", 
        "num_filter": "16", 
        "pad": "1", 
        "stride": "1"
      }, 
      "inputs": []
    }, 
    {
      "op": "Convolution", 
      "name": "convolution623", 
      "attr": {
        "kernel": "3", 
        "num_filter": "16", 
        "pad": "1", 
        "stride": "1"
      }, 
      "inputs": [[218, 0, 0], [219, 0, 0], [220, 0, 0]]
    }, 
    {
      "op": "null", 
      "name": "batchnorm623_gamma", 
      "inputs": []
    }, 
    {
      "op": "null", 
      "name": "batchnorm623_beta", 
      "inputs": []
    }, 
    {
      "op": "null", 
      "name": "batchnorm623_moving_mean", 
      "attr": {"__init__": "[\"zero\", {}]"}, 
      "inputs": []
    }, 
    {
      "op": "null", 
      "name": "batchnorm623_moving_var", 
      "attr": {"__init__": "[\"one\", {}]"}, 
      "inputs": []
    }, 
    {
      "op": "BatchNorm", 
      "name": "batchnorm623", 
      "inputs": [[221, 0, 0], [222, 0, 0], [223, 0, 0], [224, 0, 1], [225, 0, 1]]
    }, 
    {
      "op": "LeakyReLU", 
      "name": "leakyrelu607", 
      "inputs": [[226, 0, 0]]
    }, 
    {
      "op": "null", 
      "name": "convolution624_weight", 
      "attr": {
        "kernel": "3", 
        "num_filter": "16", 
        "pad": "1", 
        "stride": "1"
      }, 
      "inputs": []
    }, 
    {
      "op": "null", 
      "name": "convolution624_bias", 
      "attr": {
        "kernel": "3", 
        "num_filter": "16", 
        "pad": "1", 
        "stride": "1"
      }, 
      "inputs": []
    }, 
    {
      "op": "Convolution", 
      "name": "convolution624", 
      "attr": {
        "kernel": "3", 
        "num_filter": "16", 
        "pad": "1", 
        "stride": "1"
      }, 
      "inputs": [[227, 0, 0], [228, 0, 0], [229, 0, 0]]
    }, 
    {
      "op": "null", 
      "name": "batchnorm624_gamma", 
      "inputs": []
    }, 
    {
      "op": "null", 
      "name": "batchnorm624_beta", 
      "inputs": []
    }, 
    {
      "op": "null", 
      "name": "batchnorm624_moving_mean", 
      "attr": {"__init__": "[\"zero\", {}]"}, 
      "inputs": []
    }, 
    {
      "op": "null", 
      "name": "batchnorm624_moving_var", 
      "attr": {"__init__": "[\"one\", {}]"}, 
      "inputs": []
    }, 
    {
      "op": "BatchNorm", 
      "name": "batchnorm624", 
      "inputs": [[230, 0, 0], [231, 0, 0], [232, 0, 0], [233, 0, 1], [234, 0, 1]]
    }, 
    {
      "op": "elemwise_add", 
      "name": "_plus299", 
      "inputs": [[218, 0, 0], [235, 0, 0]]
    }, 
    {
      "op": "LeakyReLU", 
      "name": "leakyrelu608", 
      "inputs": [[236, 0, 0]]
    }, 
    {
      "op": "null", 
      "name": "convolution627_weight", 
      "attr": {
        "kernel": "1", 
        "num_filter": "32", 
        "pad": "0", 
        "stride": "2"
      }, 
      "inputs": []
    }, 
    {
      "op": "null", 
      "name": "convolution627_bias", 
      "attr": {
        "kernel": "1", 
        "num_filter": "32", 
        "pad": "0", 
        "stride": "2"
      }, 
      "inputs": []
    }, 
    {
      "op": "Convolution", 
      "name": "convolution627", 
      "attr": {
        "kernel": "1", 
        "num_filter": "32", 
        "pad": "0", 
        "stride": "2"
      }, 
      "inputs": [[237, 0, 0], [238, 0, 0], [239, 0, 0]]
    }, 
    {
      "op": "null", 
      "name": "batchnorm627_gamma", 
      "inputs": []
    }, 
    {
      "op": "null", 
      "name": "batchnorm627_beta", 
      "inputs": []
    }, 
    {
      "op": "null", 
      "name": "batchnorm627_moving_mean", 
      "attr": {"__init__": "[\"zero\", {}]"}, 
      "inputs": []
    }, 
    {
      "op": "null", 
      "name": "batchnorm627_moving_var", 
      "attr": {"__init__": "[\"one\", {}]"}, 
      "inputs": []
    }, 
    {
      "op": "BatchNorm", 
      "name": "batchnorm627", 
      "inputs": [[240, 0, 0], [241, 0, 0], [242, 0, 0], [243, 0, 1], [244, 0, 1]]
    }, 
    {
      "op": "null", 
      "name": "convolution625_weight", 
      "attr": {
        "kernel": "3", 
        "num_filter": "32", 
        "pad": "1", 
        "stride": "2"
      }, 
      "inputs": []
    }, 
    {
      "op": "null", 
      "name": "convolution625_bias", 
      "attr": {
        "kernel": "3", 
        "num_filter": "32", 
        "pad": "1", 
        "stride": "2"
      }, 
      "inputs": []
    }, 
    {
      "op": "Convolution", 
      "name": "convolution625", 
      "attr": {
        "kernel": "3", 
        "num_filter": "32", 
        "pad": "1", 
        "stride": "2"
      }, 
      "inputs": [[237, 0, 0], [246, 0, 0], [247, 0, 0]]
    }, 
    {
      "op": "null", 
      "name": "batchnorm625_gamma", 
      "inputs": []
    }, 
    {
      "op": "null", 
      "name": "batchnorm625_beta", 
      "inputs": []
    }, 
    {
      "op": "null", 
      "name": "batchnorm625_moving_mean", 
      "attr": {"__init__": "[\"zero\", {}]"}, 
      "inputs": []
    }, 
    {
      "op": "null", 
      "name": "batchnorm625_moving_var", 
      "attr": {"__init__": "[\"one\", {}]"}, 
      "inputs": []
    }, 
    {
      "op": "BatchNorm", 
      "name": "batchnorm625", 
      "inputs": [[248, 0, 0], [249, 0, 0], [250, 0, 0], [251, 0, 1], [252, 0, 1]]
    }, 
    {
      "op": "LeakyReLU", 
      "name": "leakyrelu609", 
      "inputs": [[253, 0, 0]]
    }, 
    {
      "op": "null", 
      "name": "convolution626_weight", 
      "attr": {
        "kernel": "3", 
        "num_filter": "32", 
        "pad": "1", 
        "stride": "1"
      }, 
      "inputs": []
    }, 
    {
      "op": "null", 
      "name": "convolution626_bias", 
      "attr": {
        "kernel": "3", 
        "num_filter": "32", 
        "pad": "1", 
        "stride": "1"
      }, 
      "inputs": []
    }, 
    {
      "op": "Convolution", 
      "name": "convolution626", 
      "attr": {
        "kernel": "3", 
        "num_filter": "32", 
        "pad": "1", 
        "stride": "1"
      }, 
      "inputs": [[254, 0, 0], [255, 0, 0], [256, 0, 0]]
    }, 
    {
      "op": "null", 
      "name": "batchnorm626_gamma", 
      "inputs": []
    }, 
    {
      "op": "null", 
      "name": "batchnorm626_beta", 
      "inputs": []
    }, 
    {
      "op": "null", 
      "name": "batchnorm626_moving_mean", 
      "attr": {"__init__": "[\"zero\", {}]"}, 
      "inputs": []
    }, 
    {
      "op": "null", 
      "name": "batchnorm626_moving_var", 
      "attr": {"__init__": "[\"one\", {}]"}, 
      "inputs": []
    }, 
    {
      "op": "BatchNorm", 
      "name": "batchnorm626", 
      "inputs": [[257, 0, 0], [258, 0, 0], [259, 0, 0], [260, 0, 1], [261, 0, 1]]
    }, 
    {
      "op": "elemwise_add", 
      "name": "_plus300", 
      "inputs": [[245, 0, 0], [262, 0, 0]]
    }, 
    {
      "op": "LeakyReLU", 
      "name": "leakyrelu610", 
      "inputs": [[263, 0, 0]]
    }, 
    {
      "op": "null", 
      "name": "convolution628_weight", 
      "attr": {
        "kernel": "3", 
        "num_filter": "32", 
        "pad": "1", 
        "stride": "1"
      }, 
      "inputs": []
    }, 
    {
      "op": "null", 
      "name": "convolution628_bias", 
      "attr": {
        "kernel": "3", 
        "num_filter": "32", 
        "pad": "1", 
        "stride": "1"
      }, 
      "inputs": []
    }, 
    {
      "op": "Convolution", 
      "name": "convolution628", 
      "attr": {
        "kernel": "3", 
        "num_filter": "32", 
        "pad": "1", 
        "stride": "1"
      }, 
      "inputs": [[264, 0, 0], [265, 0, 0], [266, 0, 0]]
    }, 
    {
      "op": "null", 
      "name": "batchnorm628_gamma", 
      "inputs": []
    }, 
    {
      "op": "null", 
      "name": "batchnorm628_beta", 
      "inputs": []
    }, 
    {
      "op": "null", 
      "name": "batchnorm628_moving_mean", 
      "attr": {"__init__": "[\"zero\", {}]"}, 
      "inputs": []
    }, 
    {
      "op": "null", 
      "name": "batchnorm628_moving_var", 
      "attr": {"__init__": "[\"one\", {}]"}, 
      "inputs": []
    }, 
    {
      "op": "BatchNorm", 
      "name": "batchnorm628", 
      "inputs": [[267, 0, 0], [268, 0, 0], [269, 0, 0], [270, 0, 1], [271, 0, 1]]
    }, 
    {
      "op": "LeakyReLU", 
      "name": "leakyrelu611", 
      "inputs": [[272, 0, 0]]
    }, 
    {
      "op": "null", 
      "name": "convolution629_weight", 
      "attr": {
        "kernel": "3", 
        "num_filter": "32", 
        "pad": "1", 
        "stride": "1"
      }, 
      "inputs": []
    }, 
    {
      "op": "null", 
      "name": "convolution629_bias", 
      "attr": {
        "kernel": "3", 
        "num_filter": "32", 
        "pad": "1", 
        "stride": "1"
      }, 
      "inputs": []
    }, 
    {
      "op": "Convolution", 
      "name": "convolution629", 
      "attr": {
        "kernel": "3", 
        "num_filter": "32", 
        "pad": "1", 
        "stride": "1"
      }, 
      "inputs": [[273, 0, 0], [274, 0, 0], [275, 0, 0]]
    }, 
    {
      "op": "null", 
      "name": "batchnorm629_gamma", 
      "inputs": []
    }, 
    {
      "op": "null", 
      "name": "batchnorm629_beta", 
      "inputs": []
    }, 
    {
      "op": "null", 
      "name": "batchnorm629_moving_mean", 
      "attr": {"__init__": "[\"zero\", {}]"}, 
      "inputs": []
    }, 
    {
      "op": "null", 
      "name": "batchnorm629_moving_var", 
      "attr": {"__init__": "[\"one\", {}]"}, 
      "inputs": []
    }, 
    {
      "op": "BatchNorm", 
      "name": "batchnorm629", 
      "inputs": [[276, 0, 0], [277, 0, 0], [278, 0, 0], [279, 0, 1], [280, 0, 1]]
    }, 
    {
      "op": "elemwise_add", 
      "name": "_plus301", 
      "inputs": [[264, 0, 0], [281, 0, 0]]
    }, 
    {
      "op": "LeakyReLU", 
      "name": "leakyrelu612", 
      "inputs": [[282, 0, 0]]
    }, 
    {
      "op": "null", 
      "name": "convolution630_weight", 
      "attr": {
        "kernel": "3", 
        "num_filter": "32", 
        "pad": "1", 
        "stride": "1"
      }, 
      "inputs": []
    }, 
    {
      "op": "null", 
      "name": "convolution630_bias", 
      "attr": {
        "kernel": "3", 
        "num_filter": "32", 
        "pad": "1", 
        "stride": "1"
      }, 
      "inputs": []
    }, 
    {
      "op": "Convolution", 
      "name": "convolution630", 
      "attr": {
        "kernel": "3", 
        "num_filter": "32", 
        "pad": "1", 
        "stride": "1"
      }, 
      "inputs": [[283, 0, 0], [284, 0, 0], [285, 0, 0]]
    }, 
    {
      "op": "null", 
      "name": "batchnorm630_gamma", 
      "inputs": []
    }, 
    {
      "op": "null", 
      "name": "batchnorm630_beta", 
      "inputs": []
    }, 
    {
      "op": "null", 
      "name": "batchnorm630_moving_mean", 
      "attr": {"__init__": "[\"zero\", {}]"}, 
      "inputs": []
    }, 
    {
      "op": "null", 
      "name": "batchnorm630_moving_var", 
      "attr": {"__init__": "[\"one\", {}]"}, 
      "inputs": []
    }, 
    {
      "op": "BatchNorm", 
      "name": "batchnorm630", 
      "inputs": [[286, 0, 0], [287, 0, 0], [288, 0, 0], [289, 0, 1], [290, 0, 1]]
    }, 
    {
      "op": "LeakyReLU", 
      "name": "leakyrelu613", 
      "inputs": [[291, 0, 0]]
    }, 
    {
      "op": "null", 
      "name": "convolution631_weight", 
      "attr": {
        "kernel": "3", 
        "num_filter": "32", 
        "pad": "1", 
        "stride": "1"
      }, 
      "inputs": []
    }, 
    {
      "op": "null", 
      "name": "convolution631_bias", 
      "attr": {
        "kernel": "3", 
        "num_filter": "32", 
        "pad": "1", 
        "stride": "1"
      }, 
      "inputs": []
    }, 
    {
      "op": "Convolution", 
      "name": "convolution631", 
      "attr": {
        "kernel": "3", 
        "num_filter": "32", 
        "pad": "1", 
        "stride": "1"
      }, 
      "inputs": [[292, 0, 0], [293, 0, 0], [294, 0, 0]]
    }, 
    {
      "op": "null", 
      "name": "batchnorm631_gamma", 
      "inputs": []
    }, 
    {
      "op": "null", 
      "name": "batchnorm631_beta", 
      "inputs": []
    }, 
    {
      "op": "null", 
      "name": "batchnorm631_moving_mean", 
      "attr": {"__init__": "[\"zero\", {}]"}, 
      "inputs": []
    }, 
    {
      "op": "null", 
      "name": "batchnorm631_moving_var", 
      "attr": {"__init__": "[\"one\", {}]"}, 
      "inputs": []
    }, 
    {
      "op": "BatchNorm", 
      "name": "batchnorm631", 
      "inputs": [[295, 0, 0], [296, 0, 0], [297, 0, 0], [298, 0, 1], [299, 0, 1]]
    }, 
    {
      "op": "elemwise_add", 
      "name": "_plus302", 
      "inputs": [[283, 0, 0], [300, 0, 0]]
    }, 
    {
      "op": "LeakyReLU", 
      "name": "leakyrelu614", 
      "inputs": [[301, 0, 0]]
    }, 
    {
      "op": "null", 
      "name": "convolution632_weight", 
      "attr": {
        "kernel": "3", 
        "num_filter": "32", 
        "pad": "1", 
        "stride": "1"
      }, 
      "inputs": []
    }, 
    {
      "op": "null", 
      "name": "convolution632_bias", 
      "attr": {
        "kernel": "3", 
        "num_filter": "32", 
        "pad": "1", 
        "stride": "1"
      }, 
      "inputs": []
    }, 
    {
      "op": "Convolution", 
      "name": "convolution632", 
      "attr": {
        "kernel": "3", 
        "num_filter": "32", 
        "pad": "1", 
        "stride": "1"
      }, 
      "inputs": [[302, 0, 0], [303, 0, 0], [304, 0, 0]]
    }, 
    {
      "op": "null", 
      "name": "batchnorm632_gamma", 
      "inputs": []
    }, 
    {
      "op": "null", 
      "name": "batchnorm632_beta", 
      "inputs": []
    }, 
    {
      "op": "null", 
      "name": "batchnorm632_moving_mean", 
      "attr": {"__init__": "[\"zero\", {}]"}, 
      "inputs": []
    }, 
    {
      "op": "null", 
      "name": "batchnorm632_moving_var", 
      "attr": {"__init__": "[\"one\", {}]"}, 
      "inputs": []
    }, 
    {
      "op": "BatchNorm", 
      "name": "batchnorm632", 
      "inputs": [[305, 0, 0], [306, 0, 0], [307, 0, 0], [308, 0, 1], [309, 0, 1]]
    }, 
    {
      "op": "LeakyReLU", 
      "name": "leakyrelu615", 
      "inputs": [[310, 0, 0]]
    }, 
    {
      "op": "null", 
      "name": "convolution633_weight", 
      "attr": {
        "kernel": "3", 
        "num_filter": "32", 
        "pad": "1", 
        "stride": "1"
      }, 
      "inputs": []
    }, 
    {
      "op": "null", 
      "name": "convolution633_bias", 
      "attr": {
        "kernel": "3", 
        "num_filter": "32", 
        "pad": "1", 
        "stride": "1"
      }, 
      "inputs": []
    }, 
    {
      "op": "Convolution", 
      "name": "convolution633", 
      "attr": {
        "kernel": "3", 
        "num_filter": "32", 
        "pad": "1", 
        "stride": "1"
      }, 
      "inputs": [[311, 0, 0], [312, 0, 0], [313, 0, 0]]
    }, 
    {
      "op": "null", 
      "name": "batchnorm633_gamma", 
      "inputs": []
    }, 
    {
      "op": "null", 
      "name": "batchnorm633_beta", 
      "inputs": []
    }, 
    {
      "op": "null", 
      "name": "batchnorm633_moving_mean", 
      "attr": {"__init__": "[\"zero\", {}]"}, 
      "inputs": []
    }, 
    {
      "op": "null", 
      "name": "batchnorm633_moving_var", 
      "attr": {"__init__": "[\"one\", {}]"}, 
      "inputs": []
    }, 
    {
      "op": "BatchNorm", 
      "name": "batchnorm633", 
      "inputs": [[314, 0, 0], [315, 0, 0], [316, 0, 0], [317, 0, 1], [318, 0, 1]]
    }, 
    {
      "op": "elemwise_add", 
      "name": "_plus303", 
      "inputs": [[302, 0, 0], [319, 0, 0]]
    }, 
    {
      "op": "LeakyReLU", 
      "name": "leakyrelu616", 
      "inputs": [[320, 0, 0]]
    }, 
    {
      "op": "null", 
      "name": "convolution634_weight", 
      "attr": {
        "kernel": "3", 
        "num_filter": "32", 
        "pad": "1", 
        "stride": "1"
      }, 
      "inputs": []
    }, 
    {
      "op": "null", 
      "name": "convolution634_bias", 
      "attr": {
        "kernel": "3", 
        "num_filter": "32", 
        "pad": "1", 
        "stride": "1"
      }, 
      "inputs": []
    }, 
    {
      "op": "Convolution", 
      "name": "convolution634", 
      "attr": {
        "kernel": "3", 
        "num_filter": "32", 
        "pad": "1", 
        "stride": "1"
      }, 
      "inputs": [[321, 0, 0], [322, 0, 0], [323, 0, 0]]
    }, 
    {
      "op": "null", 
      "name": "batchnorm634_gamma", 
      "inputs": []
    }, 
    {
      "op": "null", 
      "name": "batchnorm634_beta", 
      "inputs": []
    }, 
    {
      "op": "null", 
      "name": "batchnorm634_moving_mean", 
      "attr": {"__init__": "[\"zero\", {}]"}, 
      "inputs": []
    }, 
    {
      "op": "null", 
      "name": "batchnorm634_moving_var", 
      "attr": {"__init__": "[\"one\", {}]"}, 
      "inputs": []
    }, 
    {
      "op": "BatchNorm", 
      "name": "batchnorm634", 
      "inputs": [[324, 0, 0], [325, 0, 0], [326, 0, 0], [327, 0, 1], [328, 0, 1]]
    }, 
    {
      "op": "LeakyReLU", 
      "name": "leakyrelu617", 
      "inputs": [[329, 0, 0]]
    }, 
    {
      "op": "null", 
      "name": "convolution635_weight", 
      "attr": {
        "kernel": "3", 
        "num_filter": "32", 
        "pad": "1", 
        "stride": "1"
      }, 
      "inputs": []
    }, 
    {
      "op": "null", 
      "name": "convolution635_bias", 
      "attr": {
        "kernel": "3", 
        "num_filter": "32", 
        "pad": "1", 
        "stride": "1"
      }, 
      "inputs": []
    }, 
    {
      "op": "Convolution", 
      "name": "convolution635", 
      "attr": {
        "kernel": "3", 
        "num_filter": "32", 
        "pad": "1", 
        "stride": "1"
      }, 
      "inputs": [[330, 0, 0], [331, 0, 0], [332, 0, 0]]
    }, 
    {
      "op": "null", 
      "name": "batchnorm635_gamma", 
      "inputs": []
    }, 
    {
      "op": "null", 
      "name": "batchnorm635_beta", 
      "inputs": []
    }, 
    {
      "op": "null", 
      "name": "batchnorm635_moving_mean", 
      "attr": {"__init__": "[\"zero\", {}]"}, 
      "inputs": []
    }, 
    {
      "op": "null", 
      "name": "batchnorm635_moving_var", 
      "attr": {"__init__": "[\"one\", {}]"}, 
      "inputs": []
    }, 
    {
      "op": "BatchNorm", 
      "name": "batchnorm635", 
      "inputs": [[333, 0, 0], [334, 0, 0], [335, 0, 0], [336, 0, 1], [337, 0, 1]]
    }, 
    {
      "op": "elemwise_add", 
      "name": "_plus304", 
      "inputs": [[321, 0, 0], [338, 0, 0]]
    }, 
    {
      "op": "LeakyReLU", 
      "name": "leakyrelu618", 
      "inputs": [[339, 0, 0]]
    }, 
    {
      "op": "null", 
      "name": "convolution636_weight", 
      "attr": {
        "kernel": "3", 
        "num_filter": "32", 
        "pad": "1", 
        "stride": "1"
      }, 
      "inputs": []
    }, 
    {
      "op": "null", 
      "name": "convolution636_bias", 
      "attr": {
        "kernel": "3", 
        "num_filter": "32", 
        "pad": "1", 
        "stride": "1"
      }, 
      "inputs": []
    }, 
    {
      "op": "Convolution", 
      "name": "convolution636", 
      "attr": {
        "kernel": "3", 
        "num_filter": "32", 
        "pad": "1", 
        "stride": "1"
      }, 
      "inputs": [[340, 0, 0], [341, 0, 0], [342, 0, 0]]
    }, 
    {
      "op": "null", 
      "name": "batchnorm636_gamma", 
      "inputs": []
    }, 
    {
      "op": "null", 
      "name": "batchnorm636_beta", 
      "inputs": []
    }, 
    {
      "op": "null", 
      "name": "batchnorm636_moving_mean", 
      "attr": {"__init__": "[\"zero\", {}]"}, 
      "inputs": []
    }, 
    {
      "op": "null", 
      "name": "batchnorm636_moving_var", 
      "attr": {"__init__": "[\"one\", {}]"}, 
      "inputs": []
    }, 
    {
      "op": "BatchNorm", 
      "name": "batchnorm636", 
      "inputs": [[343, 0, 0], [344, 0, 0], [345, 0, 0], [346, 0, 1], [347, 0, 1]]
    }, 
    {
      "op": "LeakyReLU", 
      "name": "leakyrelu619", 
      "inputs": [[348, 0, 0]]
    }, 
    {
      "op": "null", 
      "name": "convolution637_weight", 
      "attr": {
        "kernel": "3", 
        "num_filter": "32", 
        "pad": "1", 
        "stride": "1"
      }, 
      "inputs": []
    }, 
    {
      "op": "null", 
      "name": "convolution637_bias", 
      "attr": {
        "kernel": "3", 
        "num_filter": "32", 
        "pad": "1", 
        "stride": "1"
      }, 
      "inputs": []
    }, 
    {
      "op": "Convolution", 
      "name": "convolution637", 
      "attr": {
        "kernel": "3", 
        "num_filter": "32", 
        "pad": "1", 
        "stride": "1"
      }, 
      "inputs": [[349, 0, 0], [350, 0, 0], [351, 0, 0]]
    }, 
    {
      "op": "null", 
      "name": "batchnorm637_gamma", 
      "inputs": []
    }, 
    {
      "op": "null", 
      "name": "batchnorm637_beta", 
      "inputs": []
    }, 
    {
      "op": "null", 
      "name": "batchnorm637_moving_mean", 
      "attr": {"__init__": "[\"zero\", {}]"}, 
      "inputs": []
    }, 
    {
      "op": "null", 
      "name": "batchnorm637_moving_var", 
      "attr": {"__init__": "[\"one\", {}]"}, 
      "inputs": []
    }, 
    {
      "op": "BatchNorm", 
      "name": "batchnorm637", 
      "inputs": [[352, 0, 0], [353, 0, 0], [354, 0, 0], [355, 0, 1], [356, 0, 1]]
    }, 
    {
      "op": "elemwise_add", 
      "name": "_plus305", 
      "inputs": [[340, 0, 0], [357, 0, 0]]
    }, 
    {
      "op": "LeakyReLU", 
      "name": "leakyrelu620", 
      "inputs": [[358, 0, 0]]
    }, 
    {
      "op": "null", 
      "name": "convolution638_weight", 
      "attr": {
        "kernel": "3", 
        "num_filter": "32", 
        "pad": "1", 
        "stride": "1"
      }, 
      "inputs": []
    }, 
    {
      "op": "null", 
      "name": "convolution638_bias", 
      "attr": {
        "kernel": "3", 
        "num_filter": "32", 
        "pad": "1", 
        "stride": "1"
      }, 
      "inputs": []
    }, 
    {
      "op": "Convolution", 
      "name": "convolution638", 
      "attr": {
        "kernel": "3", 
        "num_filter": "32", 
        "pad": "1", 
        "stride": "1"
      }, 
      "inputs": [[359, 0, 0], [360, 0, 0], [361, 0, 0]]
    }, 
    {
      "op": "null", 
      "name": "batchnorm638_gamma", 
      "inputs": []
    }, 
    {
      "op": "null", 
      "name": "batchnorm638_beta", 
      "inputs": []
    }, 
    {
      "op": "null", 
      "name": "batchnorm638_moving_mean", 
      "attr": {"__init__": "[\"zero\", {}]"}, 
      "inputs": []
    }, 
    {
      "op": "null", 
      "name": "batchnorm638_moving_var", 
      "attr": {"__init__": "[\"one\", {}]"}, 
      "inputs": []
    }, 
    {
      "op": "BatchNorm", 
      "name": "batchnorm638", 
      "inputs": [[362, 0, 0], [363, 0, 0], [364, 0, 0], [365, 0, 1], [366, 0, 1]]
    }, 
    {
      "op": "LeakyReLU", 
      "name": "leakyrelu621", 
      "inputs": [[367, 0, 0]]
    }, 
    {
      "op": "null", 
      "name": "convolution639_weight", 
      "attr": {
        "kernel": "3", 
        "num_filter": "32", 
        "pad": "1", 
        "stride": "1"
      }, 
      "inputs": []
    }, 
    {
      "op": "null", 
      "name": "convolution639_bias", 
      "attr": {
        "kernel": "3", 
        "num_filter": "32", 
        "pad": "1", 
        "stride": "1"
      }, 
      "inputs": []
    }, 
    {
      "op": "Convolution", 
      "name": "convolution639", 
      "attr": {
        "kernel": "3", 
        "num_filter": "32", 
        "pad": "1", 
        "stride": "1"
      }, 
      "inputs": [[368, 0, 0], [369, 0, 0], [370, 0, 0]]
    }, 
    {
      "op": "null", 
      "name": "batchnorm639_gamma", 
      "inputs": []
    }, 
    {
      "op": "null", 
      "name": "batchnorm639_beta", 
      "inputs": []
    }, 
    {
      "op": "null", 
      "name": "batchnorm639_moving_mean", 
      "attr": {"__init__": "[\"zero\", {}]"}, 
      "inputs": []
    }, 
    {
      "op": "null", 
      "name": "batchnorm639_moving_var", 
      "attr": {"__init__": "[\"one\", {}]"}, 
      "inputs": []
    }, 
    {
      "op": "BatchNorm", 
      "name": "batchnorm639", 
      "inputs": [[371, 0, 0], [372, 0, 0], [373, 0, 0], [374, 0, 1], [375, 0, 1]]
    }, 
    {
      "op": "elemwise_add", 
      "name": "_plus306", 
      "inputs": [[359, 0, 0], [376, 0, 0]]
    }, 
    {
      "op": "LeakyReLU", 
      "name": "leakyrelu622", 
      "inputs": [[377, 0, 0]]
    }, 
    {
      "op": "null", 
      "name": "convolution640_weight", 
      "attr": {
        "kernel": "3", 
        "num_filter": "32", 
        "pad": "1", 
        "stride": "1"
      }, 
      "inputs": []
    }, 
    {
      "op": "null", 
      "name": "convolution640_bias", 
      "attr": {
        "kernel": "3", 
        "num_filter": "32", 
        "pad": "1", 
        "stride": "1"
      }, 
      "inputs": []
    }, 
    {
      "op": "Convolution", 
      "name": "convolution640", 
      "attr": {
        "kernel": "3", 
        "num_filter": "32", 
        "pad": "1", 
        "stride": "1"
      }, 
      "inputs": [[378, 0, 0], [379, 0, 0], [380, 0, 0]]
    }, 
    {
      "op": "null", 
      "name": "batchnorm640_gamma", 
      "inputs": []
    }, 
    {
      "op": "null", 
      "name": "batchnorm640_beta", 
      "inputs": []
    }, 
    {
      "op": "null", 
      "name": "batchnorm640_moving_mean", 
      "attr": {"__init__": "[\"zero\", {}]"}, 
      "inputs": []
    }, 
    {
      "op": "null", 
      "name": "batchnorm640_moving_var", 
      "attr": {"__init__": "[\"one\", {}]"}, 
      "inputs": []
    }, 
    {
      "op": "BatchNorm", 
      "name": "batchnorm640", 
      "inputs": [[381, 0, 0], [382, 0, 0], [383, 0, 0], [384, 0, 1], [385, 0, 1]]
    }, 
    {
      "op": "LeakyReLU", 
      "name": "leakyrelu623", 
      "inputs": [[386, 0, 0]]
    }, 
    {
      "op": "null", 
      "name": "convolution641_weight", 
      "attr": {
        "kernel": "3", 
        "num_filter": "32", 
        "pad": "1", 
        "stride": "1"
      }, 
      "inputs": []
    }, 
    {
      "op": "null", 
      "name": "convolution641_bias", 
      "attr": {
        "kernel": "3", 
        "num_filter": "32", 
        "pad": "1", 
        "stride": "1"
      }, 
      "inputs": []
    }, 
    {
      "op": "Convolution", 
      "name": "convolution641", 
      "attr": {
        "kernel": "3", 
        "num_filter": "32", 
        "pad": "1", 
        "stride": "1"
      }, 
      "inputs": [[387, 0, 0], [388, 0, 0], [389, 0, 0]]
    }, 
    {
      "op": "null", 
      "name": "batchnorm641_gamma", 
      "inputs": []
    }, 
    {
      "op": "null", 
      "name": "batchnorm641_beta", 
      "inputs": []
    }, 
    {
      "op": "null", 
      "name": "batchnorm641_moving_mean", 
      "attr": {"__init__": "[\"zero\", {}]"}, 
      "inputs": []
    }, 
    {
      "op": "null", 
      "name": "batchnorm641_moving_var", 
      "attr": {"__init__": "[\"one\", {}]"}, 
      "inputs": []
    }, 
    {
      "op": "BatchNorm", 
      "name": "batchnorm641", 
      "inputs": [[390, 0, 0], [391, 0, 0], [392, 0, 0], [393, 0, 1], [394, 0, 1]]
    }, 
    {
      "op": "elemwise_add", 
      "name": "_plus307", 
      "inputs": [[378, 0, 0], [395, 0, 0]]
    }, 
    {
      "op": "LeakyReLU", 
      "name": "leakyrelu624", 
      "inputs": [[396, 0, 0]]
    }, 
    {
      "op": "null", 
      "name": "convolution642_weight", 
      "attr": {
        "kernel": "3", 
        "num_filter": "32", 
        "pad": "1", 
        "stride": "1"
      }, 
      "inputs": []
    }, 
    {
      "op": "null", 
      "name": "convolution642_bias", 
      "attr": {
        "kernel": "3", 
        "num_filter": "32", 
        "pad": "1", 
        "stride": "1"
      }, 
      "inputs": []
    }, 
    {
      "op": "Convolution", 
      "name": "convolution642", 
      "attr": {
        "kernel": "3", 
        "num_filter": "32", 
        "pad": "1", 
        "stride": "1"
      }, 
      "inputs": [[397, 0, 0], [398, 0, 0], [399, 0, 0]]
    }, 
    {
      "op": "null", 
      "name": "batchnorm642_gamma", 
      "inputs": []
    }, 
    {
      "op": "null", 
      "name": "batchnorm642_beta", 
      "inputs": []
    }, 
    {
      "op": "null", 
      "name": "batchnorm642_moving_mean", 
      "attr": {"__init__": "[\"zero\", {}]"}, 
      "inputs": []
    }, 
    {
      "op": "null", 
      "name": "batchnorm642_moving_var", 
      "attr": {"__init__": "[\"one\", {}]"}, 
      "inputs": []
    }, 
    {
      "op": "BatchNorm", 
      "name": "batchnorm642", 
      "inputs": [[400, 0, 0], [401, 0, 0], [402, 0, 0], [403, 0, 1], [404, 0, 1]]
    }, 
    {
      "op": "LeakyReLU", 
      "name": "leakyrelu625", 
      "inputs": [[405, 0, 0]]
    }, 
    {
      "op": "null", 
      "name": "convolution643_weight", 
      "attr": {
        "kernel": "3", 
        "num_filter": "32", 
        "pad": "1", 
        "stride": "1"
      }, 
      "inputs": []
    }, 
    {
      "op": "null", 
      "name": "convolution643_bias", 
      "attr": {
        "kernel": "3", 
        "num_filter": "32", 
        "pad": "1", 
        "stride": "1"
      }, 
      "inputs": []
    }, 
    {
      "op": "Convolution", 
      "name": "convolution643", 
      "attr": {
        "kernel": "3", 
        "num_filter": "32", 
        "pad": "1", 
        "stride": "1"
      }, 
      "inputs": [[406, 0, 0], [407, 0, 0], [408, 0, 0]]
    }, 
    {
      "op": "null", 
      "name": "batchnorm643_gamma", 
      "inputs": []
    }, 
    {
      "op": "null", 
      "name": "batchnorm643_beta", 
      "inputs": []
    }, 
    {
      "op": "null", 
      "name": "batchnorm643_moving_mean", 
      "attr": {"__init__": "[\"zero\", {}]"}, 
      "inputs": []
    }, 
    {
      "op": "null", 
      "name": "batchnorm643_moving_var", 
      "attr": {"__init__": "[\"one\", {}]"}, 
      "inputs": []
    }, 
    {
      "op": "BatchNorm", 
      "name": "batchnorm643", 
      "inputs": [[409, 0, 0], [410, 0, 0], [411, 0, 0], [412, 0, 1], [413, 0, 1]]
    }, 
    {
      "op": "elemwise_add", 
      "name": "_plus308", 
      "inputs": [[397, 0, 0], [414, 0, 0]]
    }, 
    {
      "op": "LeakyReLU", 
      "name": "leakyrelu626", 
      "inputs": [[415, 0, 0]]
    }, 
    {
      "op": "null", 
      "name": "convolution644_weight", 
      "attr": {
        "kernel": "3", 
        "num_filter": "32", 
        "pad": "1", 
        "stride": "1"
      }, 
      "inputs": []
    }, 
    {
      "op": "null", 
      "name": "convolution644_bias", 
      "attr": {
        "kernel": "3", 
        "num_filter": "32", 
        "pad": "1", 
        "stride": "1"
      }, 
      "inputs": []
    }, 
    {
      "op": "Convolution", 
      "name": "convolution644", 
      "attr": {
        "kernel": "3", 
        "num_filter": "32", 
        "pad": "1", 
        "stride": "1"
      }, 
      "inputs": [[416, 0, 0], [417, 0, 0], [418, 0, 0]]
    }, 
    {
      "op": "null", 
      "name": "batchnorm644_gamma", 
      "inputs": []
    }, 
    {
      "op": "null", 
      "name": "batchnorm644_beta", 
      "inputs": []
    }, 
    {
      "op": "null", 
      "name": "batchnorm644_moving_mean", 
      "attr": {"__init__": "[\"zero\", {}]"}, 
      "inputs": []
    }, 
    {
      "op": "null", 
      "name": "batchnorm644_moving_var", 
      "attr": {"__init__": "[\"one\", {}]"}, 
      "inputs": []
    }, 
    {
      "op": "BatchNorm", 
      "name": "batchnorm644", 
      "inputs": [[419, 0, 0], [420, 0, 0], [421, 0, 0], [422, 0, 1], [423, 0, 1]]
    }, 
    {
      "op": "LeakyReLU", 
      "name": "leakyrelu627", 
      "inputs": [[424, 0, 0]]
    }, 
    {
      "op": "null", 
      "name": "convolution645_weight", 
      "attr": {
        "kernel": "3", 
        "num_filter": "32", 
        "pad": "1", 
        "stride": "1"
      }, 
      "inputs": []
    }, 
    {
      "op": "null", 
      "name": "convolution645_bias", 
      "attr": {
        "kernel": "3", 
        "num_filter": "32", 
        "pad": "1", 
        "stride": "1"
      }, 
      "inputs": []
    }, 
    {
      "op": "Convolution", 
      "name": "convolution645", 
      "attr": {
        "kernel": "3", 
        "num_filter": "32", 
        "pad": "1", 
        "stride": "1"
      }, 
      "inputs": [[425, 0, 0], [426, 0, 0], [427, 0, 0]]
    }, 
    {
      "op": "null", 
      "name": "batchnorm645_gamma", 
      "inputs": []
    }, 
    {
      "op": "null", 
      "name": "batchnorm645_beta", 
      "inputs": []
    }, 
    {
      "op": "null", 
      "name": "batchnorm645_moving_mean", 
      "attr": {"__init__": "[\"zero\", {}]"}, 
      "inputs": []
    }, 
    {
      "op": "null", 
      "name": "batchnorm645_moving_var", 
      "attr": {"__init__": "[\"one\", {}]"}, 
      "inputs": []
    }, 
    {
      "op": "BatchNorm", 
      "name": "batchnorm645", 
      "inputs": [[428, 0, 0], [429, 0, 0], [430, 0, 0], [431, 0, 1], [432, 0, 1]]
    }, 
    {
      "op": "elemwise_add", 
      "name": "_plus309", 
      "inputs": [[416, 0, 0], [433, 0, 0]]
    }, 
    {
      "op": "LeakyReLU", 
      "name": "leakyrelu628", 
      "inputs": [[434, 0, 0]]
    }, 
    {
      "op": "null", 
      "name": "convolution646_weight", 
      "attr": {
        "kernel": "3", 
        "num_filter": "32", 
        "pad": "1", 
        "stride": "1"
      }, 
      "inputs": []
    }, 
    {
      "op": "null", 
      "name": "convolution646_bias", 
      "attr": {
        "kernel": "3", 
        "num_filter": "32", 
        "pad": "1", 
        "stride": "1"
      }, 
      "inputs": []
    }, 
    {
      "op": "Convolution", 
      "name": "convolution646", 
      "attr": {
        "kernel": "3", 
        "num_filter": "32", 
        "pad": "1", 
        "stride": "1"
      }, 
      "inputs": [[435, 0, 0], [436, 0, 0], [437, 0, 0]]
    }, 
    {
      "op": "null", 
      "name": "batchnorm646_gamma", 
      "inputs": []
    }, 
    {
      "op": "null", 
      "name": "batchnorm646_beta", 
      "inputs": []
    }, 
    {
      "op": "null", 
      "name": "batchnorm646_moving_mean", 
      "attr": {"__init__": "[\"zero\", {}]"}, 
      "inputs": []
    }, 
    {
      "op": "null", 
      "name": "batchnorm646_moving_var", 
      "attr": {"__init__": "[\"one\", {}]"}, 
      "inputs": []
    }, 
    {
      "op": "BatchNorm", 
      "name": "batchnorm646", 
      "inputs": [[438, 0, 0], [439, 0, 0], [440, 0, 0], [441, 0, 1], [442, 0, 1]]
    }, 
    {
      "op": "LeakyReLU", 
      "name": "leakyrelu629", 
      "inputs": [[443, 0, 0]]
    }, 
    {
      "op": "null", 
      "name": "convolution647_weight", 
      "attr": {
        "kernel": "3", 
        "num_filter": "32", 
        "pad": "1", 
        "stride": "1"
      }, 
      "inputs": []
    }, 
    {
      "op": "null", 
      "name": "convolution647_bias", 
      "attr": {
        "kernel": "3", 
        "num_filter": "32", 
        "pad": "1", 
        "stride": "1"
      }, 
      "inputs": []
    }, 
    {
      "op": "Convolution", 
      "name": "convolution647", 
      "attr": {
        "kernel": "3", 
        "num_filter": "32", 
        "pad": "1", 
        "stride": "1"
      }, 
      "inputs": [[444, 0, 0], [445, 0, 0], [446, 0, 0]]
    }, 
    {
      "op": "null", 
      "name": "batchnorm647_gamma", 
      "inputs": []
    }, 
    {
      "op": "null", 
      "name": "batchnorm647_beta", 
      "inputs": []
    }, 
    {
      "op": "null", 
      "name": "batchnorm647_moving_mean", 
      "attr": {"__init__": "[\"zero\", {}]"}, 
      "inputs": []
    }, 
    {
      "op": "null", 
      "name": "batchnorm647_moving_var", 
      "attr": {"__init__": "[\"one\", {}]"}, 
      "inputs": []
    }, 
    {
      "op": "BatchNorm", 
      "name": "batchnorm647", 
      "inputs": [[447, 0, 0], [448, 0, 0], [449, 0, 0], [450, 0, 1], [451, 0, 1]]
    }, 
    {
      "op": "elemwise_add", 
      "name": "_plus310", 
      "inputs": [[435, 0, 0], [452, 0, 0]]
    }, 
    {
      "op": "LeakyReLU", 
      "name": "leakyrelu630", 
      "inputs": [[453, 0, 0]]
    }, 
    {
      "op": "null", 
      "name": "convolution648_weight", 
      "attr": {
        "kernel": "3", 
        "num_filter": "32", 
        "pad": "1", 
        "stride": "1"
      }, 
      "inputs": []
    }, 
    {
      "op": "null", 
      "name": "convolution648_bias", 
      "attr": {
        "kernel": "3", 
        "num_filter": "32", 
        "pad": "1", 
        "stride": "1"
      }, 
      "inputs": []
    }, 
    {
      "op": "Convolution", 
      "name": "convolution648", 
      "attr": {
        "kernel": "3", 
        "num_filter": "32", 
        "pad": "1", 
        "stride": "1"
      }, 
      "inputs": [[454, 0, 0], [455, 0, 0], [456, 0, 0]]
    }, 
    {
      "op": "null", 
      "name": "batchnorm648_gamma", 
      "inputs": []
    }, 
    {
      "op": "null", 
      "name": "batchnorm648_beta", 
      "inputs": []
    }, 
    {
      "op": "null", 
      "name": "batchnorm648_moving_mean", 
      "attr": {"__init__": "[\"zero\", {}]"}, 
      "inputs": []
    }, 
    {
      "op": "null", 
      "name": "batchnorm648_moving_var", 
      "attr": {"__init__": "[\"one\", {}]"}, 
      "inputs": []
    }, 
    {
      "op": "BatchNorm", 
      "name": "batchnorm648", 
      "inputs": [[457, 0, 0], [458, 0, 0], [459, 0, 0], [460, 0, 1], [461, 0, 1]]
    }, 
    {
      "op": "LeakyReLU", 
      "name": "leakyrelu631", 
      "inputs": [[462, 0, 0]]
    }, 
    {
      "op": "null", 
      "name": "convolution649_weight", 
      "attr": {
        "kernel": "3", 
        "num_filter": "32", 
        "pad": "1", 
        "stride": "1"
      }, 
      "inputs": []
    }, 
    {
      "op": "null", 
      "name": "convolution649_bias", 
      "attr": {
        "kernel": "3", 
        "num_filter": "32", 
        "pad": "1", 
        "stride": "1"
      }, 
      "inputs": []
    }, 
    {
      "op": "Convolution", 
      "name": "convolution649", 
      "attr": {
        "kernel": "3", 
        "num_filter": "32", 
        "pad": "1", 
        "stride": "1"
      }, 
      "inputs": [[463, 0, 0], [464, 0, 0], [465, 0, 0]]
    }, 
    {
      "op": "null", 
      "name": "batchnorm649_gamma", 
      "inputs": []
    }, 
    {
      "op": "null", 
      "name": "batchnorm649_beta", 
      "inputs": []
    }, 
    {
      "op": "null", 
      "name": "batchnorm649_moving_mean", 
      "attr": {"__init__": "[\"zero\", {}]"}, 
      "inputs": []
    }, 
    {
      "op": "null", 
      "name": "batchnorm649_moving_var", 
      "attr": {"__init__": "[\"one\", {}]"}, 
      "inputs": []
    }, 
    {
      "op": "BatchNorm", 
      "name": "batchnorm649", 
      "inputs": [[466, 0, 0], [467, 0, 0], [468, 0, 0], [469, 0, 1], [470, 0, 1]]
    }, 
    {
      "op": "elemwise_add", 
      "name": "_plus311", 
      "inputs": [[454, 0, 0], [471, 0, 0]]
    }, 
    {
      "op": "LeakyReLU", 
      "name": "leakyrelu632", 
      "inputs": [[472, 0, 0]]
    }, 
    {
      "op": "null", 
      "name": "convolution652_weight", 
      "attr": {
        "kernel": "1", 
        "num_filter": "64", 
        "pad": "0", 
        "stride": "2"
      }, 
      "inputs": []
    }, 
    {
      "op": "null", 
      "name": "convolution652_bias", 
      "attr": {
        "kernel": "1", 
        "num_filter": "64", 
        "pad": "0", 
        "stride": "2"
      }, 
      "inputs": []
    }, 
    {
      "op": "Convolution", 
      "name": "convolution652", 
      "attr": {
        "kernel": "1", 
        "num_filter": "64", 
        "pad": "0", 
        "stride": "2"
      }, 
      "inputs": [[473, 0, 0], [474, 0, 0], [475, 0, 0]]
    }, 
    {
      "op": "null", 
      "name": "batchnorm652_gamma", 
      "inputs": []
    }, 
    {
      "op": "null", 
      "name": "batchnorm652_beta", 
      "inputs": []
    }, 
    {
      "op": "null", 
      "name": "batchnorm652_moving_mean", 
      "attr": {"__init__": "[\"zero\", {}]"}, 
      "inputs": []
    }, 
    {
      "op": "null", 
      "name": "batchnorm652_moving_var", 
      "attr": {"__init__": "[\"one\", {}]"}, 
      "inputs": []
    }, 
    {
      "op": "BatchNorm", 
      "name": "batchnorm652", 
      "inputs": [[476, 0, 0], [477, 0, 0], [478, 0, 0], [479, 0, 1], [480, 0, 1]]
    }, 
    {
      "op": "null", 
      "name": "convolution650_weight", 
      "attr": {
        "kernel": "3", 
        "num_filter": "64", 
        "pad": "1", 
        "stride": "2"
      }, 
      "inputs": []
    }, 
    {
      "op": "null", 
      "name": "convolution650_bias", 
      "attr": {
        "kernel": "3", 
        "num_filter": "64", 
        "pad": "1", 
        "stride": "2"
      }, 
      "inputs": []
    }, 
    {
      "op": "Convolution", 
      "name": "convolution650", 
      "attr": {
        "kernel": "3", 
        "num_filter": "64", 
        "pad": "1", 
        "stride": "2"
      }, 
      "inputs": [[473, 0, 0], [482, 0, 0], [483, 0, 0]]
    }, 
    {
      "op": "null", 
      "name": "batchnorm650_gamma", 
      "inputs": []
    }, 
    {
      "op": "null", 
      "name": "batchnorm650_beta", 
      "inputs": []
    }, 
    {
      "op": "null", 
      "name": "batchnorm650_moving_mean", 
      "attr": {"__init__": "[\"zero\", {}]"}, 
      "inputs": []
    }, 
    {
      "op": "null", 
      "name": "batchnorm650_moving_var", 
      "attr": {"__init__": "[\"one\", {}]"}, 
      "inputs": []
    }, 
    {
      "op": "BatchNorm", 
      "name": "batchnorm650", 
      "inputs": [[484, 0, 0], [485, 0, 0], [486, 0, 0], [487, 0, 1], [488, 0, 1]]
    }, 
    {
      "op": "LeakyReLU", 
      "name": "leakyrelu633", 
      "inputs": [[489, 0, 0]]
    }, 
    {
      "op": "null", 
      "name": "convolution651_weight", 
      "attr": {
        "kernel": "3", 
        "num_filter": "64", 
        "pad": "1", 
        "stride": "1"
      }, 
      "inputs": []
    }, 
    {
      "op": "null", 
      "name": "convolution651_bias", 
      "attr": {
        "kernel": "3", 
        "num_filter": "64", 
        "pad": "1", 
        "stride": "1"
      }, 
      "inputs": []
    }, 
    {
      "op": "Convolution", 
      "name": "convolution651", 
      "attr": {
        "kernel": "3", 
        "num_filter": "64", 
        "pad": "1", 
        "stride": "1"
      }, 
      "inputs": [[490, 0, 0], [491, 0, 0], [492, 0, 0]]
    }, 
    {
      "op": "null", 
      "name": "batchnorm651_gamma", 
      "inputs": []
    }, 
    {
      "op": "null", 
      "name": "batchnorm651_beta", 
      "inputs": []
    }, 
    {
      "op": "null", 
      "name": "batchnorm651_moving_mean", 
      "attr": {"__init__": "[\"zero\", {}]"}, 
      "inputs": []
    }, 
    {
      "op": "null", 
      "name": "batchnorm651_moving_var", 
      "attr": {"__init__": "[\"one\", {}]"}, 
      "inputs": []
    }, 
    {
      "op": "BatchNorm", 
      "name": "batchnorm651", 
      "inputs": [[493, 0, 0], [494, 0, 0], [495, 0, 0], [496, 0, 1], [497, 0, 1]]
    }, 
    {
      "op": "elemwise_add", 
      "name": "_plus312", 
      "inputs": [[481, 0, 0], [498, 0, 0]]
    }, 
    {
      "op": "LeakyReLU", 
      "name": "leakyrelu634", 
      "inputs": [[499, 0, 0]]
    }, 
    {
      "op": "null", 
      "name": "convolution653_weight", 
      "attr": {
        "kernel": "3", 
        "num_filter": "64", 
        "pad": "1", 
        "stride": "1"
      }, 
      "inputs": []
    }, 
    {
      "op": "null", 
      "name": "convolution653_bias", 
      "attr": {
        "kernel": "3", 
        "num_filter": "64", 
        "pad": "1", 
        "stride": "1"
      }, 
      "inputs": []
    }, 
    {
      "op": "Convolution", 
      "name": "convolution653", 
      "attr": {
        "kernel": "3", 
        "num_filter": "64", 
        "pad": "1", 
        "stride": "1"
      }, 
      "inputs": [[500, 0, 0], [501, 0, 0], [502, 0, 0]]
    }, 
    {
      "op": "null", 
      "name": "batchnorm653_gamma", 
      "inputs": []
    }, 
    {
      "op": "null", 
      "name": "batchnorm653_beta", 
      "inputs": []
    }, 
    {
      "op": "null", 
      "name": "batchnorm653_moving_mean", 
      "attr": {"__init__": "[\"zero\", {}]"}, 
      "inputs": []
    }, 
    {
      "op": "null", 
      "name": "batchnorm653_moving_var", 
      "attr": {"__init__": "[\"one\", {}]"}, 
      "inputs": []
    }, 
    {
      "op": "BatchNorm", 
      "name": "batchnorm653", 
      "inputs": [[503, 0, 0], [504, 0, 0], [505, 0, 0], [506, 0, 1], [507, 0, 1]]
    }, 
    {
      "op": "LeakyReLU", 
      "name": "leakyrelu635", 
      "inputs": [[508, 0, 0]]
    }, 
    {
      "op": "null", 
      "name": "convolution654_weight", 
      "attr": {
        "kernel": "3", 
        "num_filter": "64", 
        "pad": "1", 
        "stride": "1"
      }, 
      "inputs": []
    }, 
    {
      "op": "null", 
      "name": "convolution654_bias", 
      "attr": {
        "kernel": "3", 
        "num_filter": "64", 
        "pad": "1", 
        "stride": "1"
      }, 
      "inputs": []
    }, 
    {
      "op": "Convolution", 
      "name": "convolution654", 
      "attr": {
        "kernel": "3", 
        "num_filter": "64", 
        "pad": "1", 
        "stride": "1"
      }, 
      "inputs": [[509, 0, 0], [510, 0, 0], [511, 0, 0]]
    }, 
    {
      "op": "null", 
      "name": "batchnorm654_gamma", 
      "inputs": []
    }, 
    {
      "op": "null", 
      "name": "batchnorm654_beta", 
      "inputs": []
    }, 
    {
      "op": "null", 
      "name": "batchnorm654_moving_mean", 
      "attr": {"__init__": "[\"zero\", {}]"}, 
      "inputs": []
    }, 
    {
      "op": "null", 
      "name": "batchnorm654_moving_var", 
      "attr": {"__init__": "[\"one\", {}]"}, 
      "inputs": []
    }, 
    {
      "op": "BatchNorm", 
      "name": "batchnorm654", 
      "inputs": [[512, 0, 0], [513, 0, 0], [514, 0, 0], [515, 0, 1], [516, 0, 1]]
    }, 
    {
      "op": "elemwise_add", 
      "name": "_plus313", 
      "inputs": [[500, 0, 0], [517, 0, 0]]
    }, 
    {
      "op": "LeakyReLU", 
      "name": "leakyrelu636", 
      "inputs": [[518, 0, 0]]
    }, 
    {
      "op": "null", 
      "name": "convolution655_weight", 
      "attr": {
        "kernel": "3", 
        "num_filter": "64", 
        "pad": "1", 
        "stride": "1"
      }, 
      "inputs": []
    }, 
    {
      "op": "null", 
      "name": "convolution655_bias", 
      "attr": {
        "kernel": "3", 
        "num_filter": "64", 
        "pad": "1", 
        "stride": "1"
      }, 
      "inputs": []
    }, 
    {
      "op": "Convolution", 
      "name": "convolution655", 
      "attr": {
        "kernel": "3", 
        "num_filter": "64", 
        "pad": "1", 
        "stride": "1"
      }, 
      "inputs": [[519, 0, 0], [520, 0, 0], [521, 0, 0]]
    }, 
    {
      "op": "null", 
      "name": "batchnorm655_gamma", 
      "inputs": []
    }, 
    {
      "op": "null", 
      "name": "batchnorm655_beta", 
      "inputs": []
    }, 
    {
      "op": "null", 
      "name": "batchnorm655_moving_mean", 
      "attr": {"__init__": "[\"zero\", {}]"}, 
      "inputs": []
    }, 
    {
      "op": "null", 
      "name": "batchnorm655_moving_var", 
      "attr": {"__init__": "[\"one\", {}]"}, 
      "inputs": []
    }, 
    {
      "op": "BatchNorm", 
      "name": "batchnorm655", 
      "inputs": [[522, 0, 0], [523, 0, 0], [524, 0, 0], [525, 0, 1], [526, 0, 1]]
    }, 
    {
      "op": "LeakyReLU", 
      "name": "leakyrelu637", 
      "inputs": [[527, 0, 0]]
    }, 
    {
      "op": "null", 
      "name": "convolution656_weight", 
      "attr": {
        "kernel": "3", 
        "num_filter": "64", 
        "pad": "1", 
        "stride": "1"
      }, 
      "inputs": []
    }, 
    {
      "op": "null", 
      "name": "convolution656_bias", 
      "attr": {
        "kernel": "3", 
        "num_filter": "64", 
        "pad": "1", 
        "stride": "1"
      }, 
      "inputs": []
    }, 
    {
      "op": "Convolution", 
      "name": "convolution656", 
      "attr": {
        "kernel": "3", 
        "num_filter": "64", 
        "pad": "1", 
        "stride": "1"
      }, 
      "inputs": [[528, 0, 0], [529, 0, 0], [530, 0, 0]]
    }, 
    {
      "op": "null", 
      "name": "batchnorm656_gamma", 
      "inputs": []
    }, 
    {
      "op": "null", 
      "name": "batchnorm656_beta", 
      "inputs": []
    }, 
    {
      "op": "null", 
      "name": "batchnorm656_moving_mean", 
      "attr": {"__init__": "[\"zero\", {}]"}, 
      "inputs": []
    }, 
    {
      "op": "null", 
      "name": "batchnorm656_moving_var", 
      "attr": {"__init__": "[\"one\", {}]"}, 
      "inputs": []
    }, 
    {
      "op": "BatchNorm", 
      "name": "batchnorm656", 
      "inputs": [[531, 0, 0], [532, 0, 0], [533, 0, 0], [534, 0, 1], [535, 0, 1]]
    }, 
    {
      "op": "elemwise_add", 
      "name": "_plus314", 
      "inputs": [[519, 0, 0], [536, 0, 0]]
    }, 
    {
      "op": "LeakyReLU", 
      "name": "leakyrelu638", 
      "inputs": [[537, 0, 0]]
    }, 
    {
      "op": "null", 
      "name": "convolution657_weight", 
      "attr": {
        "kernel": "3", 
        "num_filter": "64", 
        "pad": "1", 
        "stride": "1"
      }, 
      "inputs": []
    }, 
    {
      "op": "null", 
      "name": "convolution657_bias", 
      "attr": {
        "kernel": "3", 
        "num_filter": "64", 
        "pad": "1", 
        "stride": "1"
      }, 
      "inputs": []
    }, 
    {
      "op": "Convolution", 
      "name": "convolution657", 
      "attr": {
        "kernel": "3", 
        "num_filter": "64", 
        "pad": "1", 
        "stride": "1"
      }, 
      "inputs": [[538, 0, 0], [539, 0, 0], [540, 0, 0]]
    }, 
    {
      "op": "null", 
      "name": "batchnorm657_gamma", 
      "inputs": []
    }, 
    {
      "op": "null", 
      "name": "batchnorm657_beta", 
      "inputs": []
    }, 
    {
      "op": "null", 
      "name": "batchnorm657_moving_mean", 
      "attr": {"__init__": "[\"zero\", {}]"}, 
      "inputs": []
    }, 
    {
      "op": "null", 
      "name": "batchnorm657_moving_var", 
      "attr": {"__init__": "[\"one\", {}]"}, 
      "inputs": []
    }, 
    {
      "op": "BatchNorm", 
      "name": "batchnorm657", 
      "inputs": [[541, 0, 0], [542, 0, 0], [543, 0, 0], [544, 0, 1], [545, 0, 1]]
    }, 
    {
      "op": "LeakyReLU", 
      "name": "leakyrelu639", 
      "inputs": [[546, 0, 0]]
    }, 
    {
      "op": "null", 
      "name": "convolution658_weight", 
      "attr": {
        "kernel": "3", 
        "num_filter": "64", 
        "pad": "1", 
        "stride": "1"
      }, 
      "inputs": []
    }, 
    {
      "op": "null", 
      "name": "convolution658_bias", 
      "attr": {
        "kernel": "3", 
        "num_filter": "64", 
        "pad": "1", 
        "stride": "1"
      }, 
      "inputs": []
    }, 
    {
      "op": "Convolution", 
      "name": "convolution658", 
      "attr": {
        "kernel": "3", 
        "num_filter": "64", 
        "pad": "1", 
        "stride": "1"
      }, 
      "inputs": [[547, 0, 0], [548, 0, 0], [549, 0, 0]]
    }, 
    {
      "op": "null", 
      "name": "batchnorm658_gamma", 
      "inputs": []
    }, 
    {
      "op": "null", 
      "name": "batchnorm658_beta", 
      "inputs": []
    }, 
    {
      "op": "null", 
      "name": "batchnorm658_moving_mean", 
      "attr": {"__init__": "[\"zero\", {}]"}, 
      "inputs": []
    }, 
    {
      "op": "null", 
      "name": "batchnorm658_moving_var", 
      "attr": {"__init__": "[\"one\", {}]"}, 
      "inputs": []
    }, 
    {
      "op": "BatchNorm", 
      "name": "batchnorm658", 
      "inputs": [[550, 0, 0], [551, 0, 0], [552, 0, 0], [553, 0, 1], [554, 0, 1]]
    }, 
    {
      "op": "elemwise_add", 
      "name": "_plus315", 
      "inputs": [[538, 0, 0], [555, 0, 0]]
    }, 
    {
      "op": "LeakyReLU", 
      "name": "leakyrelu640", 
      "inputs": [[556, 0, 0]]
    }, 
    {
      "op": "null", 
      "name": "convolution659_weight", 
      "attr": {
        "kernel": "3", 
        "num_filter": "64", 
        "pad": "1", 
        "stride": "1"
      }, 
      "inputs": []
    }, 
    {
      "op": "null", 
      "name": "convolution659_bias", 
      "attr": {
        "kernel": "3", 
        "num_filter": "64", 
        "pad": "1", 
        "stride": "1"
      }, 
      "inputs": []
    }, 
    {
      "op": "Convolution", 
      "name": "convolution659", 
      "attr": {
        "kernel": "3", 
        "num_filter": "64", 
        "pad": "1", 
        "stride": "1"
      }, 
      "inputs": [[557, 0, 0], [558, 0, 0], [559, 0, 0]]
    }, 
    {
      "op": "null", 
      "name": "batchnorm659_gamma", 
      "inputs": []
    }, 
    {
      "op": "null", 
      "name": "batchnorm659_beta", 
      "inputs": []
    }, 
    {
      "op": "null", 
      "name": "batchnorm659_moving_mean", 
      "attr": {"__init__": "[\"zero\", {}]"}, 
      "inputs": []
    }, 
    {
      "op": "null", 
      "name": "batchnorm659_moving_var", 
      "attr": {"__init__": "[\"one\", {}]"}, 
      "inputs": []
    }, 
    {
      "op": "BatchNorm", 
      "name": "batchnorm659", 
      "inputs": [[560, 0, 0], [561, 0, 0], [562, 0, 0], [563, 0, 1], [564, 0, 1]]
    }, 
    {
      "op": "LeakyReLU", 
      "name": "leakyrelu641", 
      "inputs": [[565, 0, 0]]
    }, 
    {
      "op": "null", 
      "name": "convolution660_weight", 
      "attr": {
        "kernel": "3", 
        "num_filter": "64", 
        "pad": "1", 
        "stride": "1"
      }, 
      "inputs": []
    }, 
    {
      "op": "null", 
      "name": "convolution660_bias", 
      "attr": {
        "kernel": "3", 
        "num_filter": "64", 
        "pad": "1", 
        "stride": "1"
      }, 
      "inputs": []
    }, 
    {
      "op": "Convolution", 
      "name": "convolution660", 
      "attr": {
        "kernel": "3", 
        "num_filter": "64", 
        "pad": "1", 
        "stride": "1"
      }, 
      "inputs": [[566, 0, 0], [567, 0, 0], [568, 0, 0]]
    }, 
    {
      "op": "null", 
      "name": "batchnorm660_gamma", 
      "inputs": []
    }, 
    {
      "op": "null", 
      "name": "batchnorm660_beta", 
      "inputs": []
    }, 
    {
      "op": "null", 
      "name": "batchnorm660_moving_mean", 
      "attr": {"__init__": "[\"zero\", {}]"}, 
      "inputs": []
    }, 
    {
      "op": "null", 
      "name": "batchnorm660_moving_var", 
      "attr": {"__init__": "[\"one\", {}]"}, 
      "inputs": []
    }, 
    {
      "op": "BatchNorm", 
      "name": "batchnorm660", 
      "inputs": [[569, 0, 0], [570, 0, 0], [571, 0, 0], [572, 0, 1], [573, 0, 1]]
    }, 
    {
      "op": "elemwise_add", 
      "name": "_plus316", 
      "inputs": [[557, 0, 0], [574, 0, 0]]
    }, 
    {
      "op": "LeakyReLU", 
      "name": "leakyrelu642", 
      "inputs": [[575, 0, 0]]
    }, 
    {
      "op": "null", 
      "name": "convolution661_weight", 
      "attr": {
        "kernel": "3", 
        "num_filter": "64", 
        "pad": "1", 
        "stride": "1"
      }, 
      "inputs": []
    }, 
    {
      "op": "null", 
      "name": "convolution661_bias", 
      "attr": {
        "kernel": "3", 
        "num_filter": "64", 
        "pad": "1", 
        "stride": "1"
      }, 
      "inputs": []
    }, 
    {
      "op": "Convolution", 
      "name": "convolution661", 
      "attr": {
        "kernel": "3", 
        "num_filter": "64", 
        "pad": "1", 
        "stride": "1"
      }, 
      "inputs": [[576, 0, 0], [577, 0, 0], [578, 0, 0]]
    }, 
    {
      "op": "null", 
      "name": "batchnorm661_gamma", 
      "inputs": []
    }, 
    {
      "op": "null", 
      "name": "batchnorm661_beta", 
      "inputs": []
    }, 
    {
      "op": "null", 
      "name": "batchnorm661_moving_mean", 
      "attr": {"__init__": "[\"zero\", {}]"}, 
      "inputs": []
    }, 
    {
      "op": "null", 
      "name": "batchnorm661_moving_var", 
      "attr": {"__init__": "[\"one\", {}]"}, 
      "inputs": []
    }, 
    {
      "op": "BatchNorm", 
      "name": "batchnorm661", 
      "inputs": [[579, 0, 0], [580, 0, 0], [581, 0, 0], [582, 0, 1], [583, 0, 1]]
    }, 
    {
      "op": "LeakyReLU", 
      "name": "leakyrelu643", 
      "inputs": [[584, 0, 0]]
    }, 
    {
      "op": "null", 
      "name": "convolution662_weight", 
      "attr": {
        "kernel": "3", 
        "num_filter": "64", 
        "pad": "1", 
        "stride": "1"
      }, 
      "inputs": []
    }, 
    {
      "op": "null", 
      "name": "convolution662_bias", 
      "attr": {
        "kernel": "3", 
        "num_filter": "64", 
        "pad": "1", 
        "stride": "1"
      }, 
      "inputs": []
    }, 
    {
      "op": "Convolution", 
      "name": "convolution662", 
      "attr": {
        "kernel": "3", 
        "num_filter": "64", 
        "pad": "1", 
        "stride": "1"
      }, 
      "inputs": [[585, 0, 0], [586, 0, 0], [587, 0, 0]]
    }, 
    {
      "op": "null", 
      "name": "batchnorm662_gamma", 
      "inputs": []
    }, 
    {
      "op": "null", 
      "name": "batchnorm662_beta", 
      "inputs": []
    }, 
    {
      "op": "null", 
      "name": "batchnorm662_moving_mean", 
      "attr": {"__init__": "[\"zero\", {}]"}, 
      "inputs": []
    }, 
    {
      "op": "null", 
      "name": "batchnorm662_moving_var", 
      "attr": {"__init__": "[\"one\", {}]"}, 
      "inputs": []
    }, 
    {
      "op": "BatchNorm", 
      "name": "batchnorm662", 
      "inputs": [[588, 0, 0], [589, 0, 0], [590, 0, 0], [591, 0, 1], [592, 0, 1]]
    }, 
    {
      "op": "elemwise_add", 
      "name": "_plus317", 
      "inputs": [[576, 0, 0], [593, 0, 0]]
    }, 
    {
      "op": "LeakyReLU", 
      "name": "leakyrelu644", 
      "inputs": [[594, 0, 0]]
    }, 
    {
      "op": "null", 
      "name": "convolution663_weight", 
      "attr": {
        "kernel": "3", 
        "num_filter": "64", 
        "pad": "1", 
        "stride": "1"
      }, 
      "inputs": []
    }, 
    {
      "op": "null", 
      "name": "convolution663_bias", 
      "attr": {
        "kernel": "3", 
        "num_filter": "64", 
        "pad": "1", 
        "stride": "1"
      }, 
      "inputs": []
    }, 
    {
      "op": "Convolution", 
      "name": "convolution663", 
      "attr": {
        "kernel": "3", 
        "num_filter": "64", 
        "pad": "1", 
        "stride": "1"
      }, 
      "inputs": [[595, 0, 0], [596, 0, 0], [597, 0, 0]]
    }, 
    {
      "op": "null", 
      "name": "batchnorm663_gamma", 
      "inputs": []
    }, 
    {
      "op": "null", 
      "name": "batchnorm663_beta", 
      "inputs": []
    }, 
    {
      "op": "null", 
      "name": "batchnorm663_moving_mean", 
      "attr": {"__init__": "[\"zero\", {}]"}, 
      "inputs": []
    }, 
    {
      "op": "null", 
      "name": "batchnorm663_moving_var", 
      "attr": {"__init__": "[\"one\", {}]"}, 
      "inputs": []
    }, 
    {
      "op": "BatchNorm", 
      "name": "batchnorm663", 
      "inputs": [[598, 0, 0], [599, 0, 0], [600, 0, 0], [601, 0, 1], [602, 0, 1]]
    }, 
    {
      "op": "LeakyReLU", 
      "name": "leakyrelu645", 
      "inputs": [[603, 0, 0]]
    }, 
    {
      "op": "null", 
      "name": "convolution664_weight", 
      "attr": {
        "kernel": "3", 
        "num_filter": "64", 
        "pad": "1", 
        "stride": "1"
      }, 
      "inputs": []
    }, 
    {
      "op": "null", 
      "name": "convolution664_bias", 
      "attr": {
        "kernel": "3", 
        "num_filter": "64", 
        "pad": "1", 
        "stride": "1"
      }, 
      "inputs": []
    }, 
    {
      "op": "Convolution", 
      "name": "convolution664", 
      "attr": {
        "kernel": "3", 
        "num_filter": "64", 
        "pad": "1", 
        "stride": "1"
      }, 
      "inputs": [[604, 0, 0], [605, 0, 0], [606, 0, 0]]
    }, 
    {
      "op": "null", 
      "name": "batchnorm664_gamma", 
      "inputs": []
    }, 
    {
      "op": "null", 
      "name": "batchnorm664_beta", 
      "inputs": []
    }, 
    {
      "op": "null", 
      "name": "batchnorm664_moving_mean", 
      "attr": {"__init__": "[\"zero\", {}]"}, 
      "inputs": []
    }, 
    {
      "op": "null", 
      "name": "batchnorm664_moving_var", 
      "attr": {"__init__": "[\"one\", {}]"}, 
      "inputs": []
    }, 
    {
      "op": "BatchNorm", 
      "name": "batchnorm664", 
      "inputs": [[607, 0, 0], [608, 0, 0], [609, 0, 0], [610, 0, 1], [611, 0, 1]]
    }, 
    {
      "op": "elemwise_add", 
      "name": "_plus318", 
      "inputs": [[595, 0, 0], [612, 0, 0]]
    }, 
    {
      "op": "LeakyReLU", 
      "name": "leakyrelu646", 
      "inputs": [[613, 0, 0]]
    }, 
    {
      "op": "null", 
      "name": "convolution665_weight", 
      "attr": {
        "kernel": "3", 
        "num_filter": "64", 
        "pad": "1", 
        "stride": "1"
      }, 
      "inputs": []
    }, 
    {
      "op": "null", 
      "name": "convolution665_bias", 
      "attr": {
        "kernel": "3", 
        "num_filter": "64", 
        "pad": "1", 
        "stride": "1"
      }, 
      "inputs": []
    }, 
    {
      "op": "Convolution", 
      "name": "convolution665", 
      "attr": {
        "kernel": "3", 
        "num_filter": "64", 
        "pad": "1", 
        "stride": "1"
      }, 
      "inputs": [[614, 0, 0], [615, 0, 0], [616, 0, 0]]
    }, 
    {
      "op": "null", 
      "name": "batchnorm665_gamma", 
      "inputs": []
    }, 
    {
      "op": "null", 
      "name": "batchnorm665_beta", 
      "inputs": []
    }, 
    {
      "op": "null", 
      "name": "batchnorm665_moving_mean", 
      "attr": {"__init__": "[\"zero\", {}]"}, 
      "inputs": []
    }, 
    {
      "op": "null", 
      "name": "batchnorm665_moving_var", 
      "attr": {"__init__": "[\"one\", {}]"}, 
      "inputs": []
    }, 
    {
      "op": "BatchNorm", 
      "name": "batchnorm665", 
      "inputs": [[617, 0, 0], [618, 0, 0], [619, 0, 0], [620, 0, 1], [621, 0, 1]]
    }, 
    {
      "op": "LeakyReLU", 
      "name": "leakyrelu647", 
      "inputs": [[622, 0, 0]]
    }, 
    {
      "op": "null", 
      "name": "convolution666_weight", 
      "attr": {
        "kernel": "3", 
        "num_filter": "64", 
        "pad": "1", 
        "stride": "1"
      }, 
      "inputs": []
    }, 
    {
      "op": "null", 
      "name": "convolution666_bias", 
      "attr": {
        "kernel": "3", 
        "num_filter": "64", 
        "pad": "1", 
        "stride": "1"
      }, 
      "inputs": []
    }, 
    {
      "op": "Convolution", 
      "name": "convolution666", 
      "attr": {
        "kernel": "3", 
        "num_filter": "64", 
        "pad": "1", 
        "stride": "1"
      }, 
      "inputs": [[623, 0, 0], [624, 0, 0], [625, 0, 0]]
    }, 
    {
      "op": "null", 
      "name": "batchnorm666_gamma", 
      "inputs": []
    }, 
    {
      "op": "null", 
      "name": "batchnorm666_beta", 
      "inputs": []
    }, 
    {
      "op": "null", 
      "name": "batchnorm666_moving_mean", 
      "attr": {"__init__": "[\"zero\", {}]"}, 
      "inputs": []
    }, 
    {
      "op": "null", 
      "name": "batchnorm666_moving_var", 
      "attr": {"__init__": "[\"one\", {}]"}, 
      "inputs": []
    }, 
    {
      "op": "BatchNorm", 
      "name": "batchnorm666", 
      "inputs": [[626, 0, 0], [627, 0, 0], [628, 0, 0], [629, 0, 1], [630, 0, 1]]
    }, 
    {
      "op": "elemwise_add", 
      "name": "_plus319", 
      "inputs": [[614, 0, 0], [631, 0, 0]]
    }, 
    {
      "op": "LeakyReLU", 
      "name": "leakyrelu648", 
      "inputs": [[632, 0, 0]]
    }, 
    {
      "op": "null", 
      "name": "convolution667_weight", 
      "attr": {
        "kernel": "3", 
        "num_filter": "64", 
        "pad": "1", 
        "stride": "1"
      }, 
      "inputs": []
    }, 
    {
      "op": "null", 
      "name": "convolution667_bias", 
      "attr": {
        "kernel": "3", 
        "num_filter": "64", 
        "pad": "1", 
        "stride": "1"
      }, 
      "inputs": []
    }, 
    {
      "op": "Convolution", 
      "name": "convolution667", 
      "attr": {
        "kernel": "3", 
        "num_filter": "64", 
        "pad": "1", 
        "stride": "1"
      }, 
      "inputs": [[633, 0, 0], [634, 0, 0], [635, 0, 0]]
    }, 
    {
      "op": "null", 
      "name": "batchnorm667_gamma", 
      "inputs": []
    }, 
    {
      "op": "null", 
      "name": "batchnorm667_beta", 
      "inputs": []
    }, 
    {
      "op": "null", 
      "name": "batchnorm667_moving_mean", 
      "attr": {"__init__": "[\"zero\", {}]"}, 
      "inputs": []
    }, 
    {
      "op": "null", 
      "name": "batchnorm667_moving_var", 
      "attr": {"__init__": "[\"one\", {}]"}, 
      "inputs": []
    }, 
    {
      "op": "BatchNorm", 
      "name": "batchnorm667", 
      "inputs": [[636, 0, 0], [637, 0, 0], [638, 0, 0], [639, 0, 1], [640, 0, 1]]
    }, 
    {
      "op": "LeakyReLU", 
      "name": "leakyrelu649", 
      "inputs": [[641, 0, 0]]
    }, 
    {
      "op": "null", 
      "name": "convolution668_weight", 
      "attr": {
        "kernel": "3", 
        "num_filter": "64", 
        "pad": "1", 
        "stride": "1"
      }, 
      "inputs": []
    }, 
    {
      "op": "null", 
      "name": "convolution668_bias", 
      "attr": {
        "kernel": "3", 
        "num_filter": "64", 
        "pad": "1", 
        "stride": "1"
      }, 
      "inputs": []
    }, 
    {
      "op": "Convolution", 
      "name": "convolution668", 
      "attr": {
        "kernel": "3", 
        "num_filter": "64", 
        "pad": "1", 
        "stride": "1"
      }, 
      "inputs": [[642, 0, 0], [643, 0, 0], [644, 0, 0]]
    }, 
    {
      "op": "null", 
      "name": "batchnorm668_gamma", 
      "inputs": []
    }, 
    {
      "op": "null", 
      "name": "batchnorm668_beta", 
      "inputs": []
    }, 
    {
      "op": "null", 
      "name": "batchnorm668_moving_mean", 
      "attr": {"__init__": "[\"zero\", {}]"}, 
      "inputs": []
    }, 
    {
      "op": "null", 
      "name": "batchnorm668_moving_var", 
      "attr": {"__init__": "[\"one\", {}]"}, 
      "inputs": []
    }, 
    {
      "op": "BatchNorm", 
      "name": "batchnorm668", 
      "inputs": [[645, 0, 0], [646, 0, 0], [647, 0, 0], [648, 0, 1], [649, 0, 1]]
    }, 
    {
      "op": "elemwise_add", 
      "name": "_plus320", 
      "inputs": [[633, 0, 0], [650, 0, 0]]
    }, 
    {
      "op": "LeakyReLU", 
      "name": "leakyrelu650", 
      "inputs": [[651, 0, 0]]
    }, 
    {
      "op": "null", 
      "name": "convolution669_weight", 
      "attr": {
        "kernel": "3", 
        "num_filter": "64", 
        "pad": "1", 
        "stride": "1"
      }, 
      "inputs": []
    }, 
    {
      "op": "null", 
      "name": "convolution669_bias", 
      "attr": {
        "kernel": "3", 
        "num_filter": "64", 
        "pad": "1", 
        "stride": "1"
      }, 
      "inputs": []
    }, 
    {
      "op": "Convolution", 
      "name": "convolution669", 
      "attr": {
        "kernel": "3", 
        "num_filter": "64", 
        "pad": "1", 
        "stride": "1"
      }, 
      "inputs": [[652, 0, 0], [653, 0, 0], [654, 0, 0]]
    }, 
    {
      "op": "null", 
      "name": "batchnorm669_gamma", 
      "inputs": []
    }, 
    {
      "op": "null", 
      "name": "batchnorm669_beta", 
      "inputs": []
    }, 
    {
      "op": "null", 
      "name": "batchnorm669_moving_mean", 
      "attr": {"__init__": "[\"zero\", {}]"}, 
      "inputs": []
    }, 
    {
      "op": "null", 
      "name": "batchnorm669_moving_var", 
      "attr": {"__init__": "[\"one\", {}]"}, 
      "inputs": []
    }, 
    {
      "op": "BatchNorm", 
      "name": "batchnorm669", 
      "inputs": [[655, 0, 0], [656, 0, 0], [657, 0, 0], [658, 0, 1], [659, 0, 1]]
    }, 
    {
      "op": "LeakyReLU", 
      "name": "leakyrelu651", 
      "inputs": [[660, 0, 0]]
    }, 
    {
      "op": "null", 
      "name": "convolution670_weight", 
      "attr": {
        "kernel": "3", 
        "num_filter": "64", 
        "pad": "1", 
        "stride": "1"
      }, 
      "inputs": []
    }, 
    {
      "op": "null", 
      "name": "convolution670_bias", 
      "attr": {
        "kernel": "3", 
        "num_filter": "64", 
        "pad": "1", 
        "stride": "1"
      }, 
      "inputs": []
    }, 
    {
      "op": "Convolution", 
      "name": "convolution670", 
      "attr": {
        "kernel": "3", 
        "num_filter": "64", 
        "pad": "1", 
        "stride": "1"
      }, 
      "inputs": [[661, 0, 0], [662, 0, 0], [663, 0, 0]]
    }, 
    {
      "op": "null", 
      "name": "batchnorm670_gamma", 
      "inputs": []
    }, 
    {
      "op": "null", 
      "name": "batchnorm670_beta", 
      "inputs": []
    }, 
    {
      "op": "null", 
      "name": "batchnorm670_moving_mean", 
      "attr": {"__init__": "[\"zero\", {}]"}, 
      "inputs": []
    }, 
    {
      "op": "null", 
      "name": "batchnorm670_moving_var", 
      "attr": {"__init__": "[\"one\", {}]"}, 
      "inputs": []
    }, 
    {
      "op": "BatchNorm", 
      "name": "batchnorm670", 
      "inputs": [[664, 0, 0], [665, 0, 0], [666, 0, 0], [667, 0, 1], [668, 0, 1]]
    }, 
    {
      "op": "elemwise_add", 
      "name": "_plus321", 
      "inputs": [[652, 0, 0], [669, 0, 0]]
    }, 
    {
      "op": "LeakyReLU", 
      "name": "leakyrelu652", 
      "inputs": [[670, 0, 0]]
    }, 
    {
      "op": "null", 
      "name": "convolution671_weight", 
      "attr": {
        "kernel": "3", 
        "num_filter": "64", 
        "pad": "1", 
        "stride": "1"
      }, 
      "inputs": []
    }, 
    {
      "op": "null", 
      "name": "convolution671_bias", 
      "attr": {
        "kernel": "3", 
        "num_filter": "64", 
        "pad": "1", 
        "stride": "1"
      }, 
      "inputs": []
    }, 
    {
      "op": "Convolution", 
      "name": "convolution671", 
      "attr": {
        "kernel": "3", 
        "num_filter": "64", 
        "pad": "1", 
        "stride": "1"
      }, 
      "inputs": [[671, 0, 0], [672, 0, 0], [673, 0, 0]]
    }, 
    {
      "op": "null", 
      "name": "batchnorm671_gamma", 
      "inputs": []
    }, 
    {
      "op": "null", 
      "name": "batchnorm671_beta", 
      "inputs": []
    }, 
    {
      "op": "null", 
      "name": "batchnorm671_moving_mean", 
      "attr": {"__init__": "[\"zero\", {}]"}, 
      "inputs": []
    }, 
    {
      "op": "null", 
      "name": "batchnorm671_moving_var", 
      "attr": {"__init__": "[\"one\", {}]"}, 
      "inputs": []
    }, 
    {
      "op": "BatchNorm", 
      "name": "batchnorm671", 
      "inputs": [[674, 0, 0], [675, 0, 0], [676, 0, 0], [677, 0, 1], [678, 0, 1]]
    }, 
    {
      "op": "LeakyReLU", 
      "name": "leakyrelu653", 
      "inputs": [[679, 0, 0]]
    }, 
    {
      "op": "null", 
      "name": "convolution672_weight", 
      "attr": {
        "kernel": "3", 
        "num_filter": "64", 
        "pad": "1", 
        "stride": "1"
      }, 
      "inputs": []
    }, 
    {
      "op": "null", 
      "name": "convolution672_bias", 
      "attr": {
        "kernel": "3", 
        "num_filter": "64", 
        "pad": "1", 
        "stride": "1"
      }, 
      "inputs": []
    }, 
    {
      "op": "Convolution", 
      "name": "convolution672", 
      "attr": {
        "kernel": "3", 
        "num_filter": "64", 
        "pad": "1", 
        "stride": "1"
      }, 
      "inputs": [[680, 0, 0], [681, 0, 0], [682, 0, 0]]
    }, 
    {
      "op": "null", 
      "name": "batchnorm672_gamma", 
      "inputs": []
    }, 
    {
      "op": "null", 
      "name": "batchnorm672_beta", 
      "inputs": []
    }, 
    {
      "op": "null", 
      "name": "batchnorm672_moving_mean", 
      "attr": {"__init__": "[\"zero\", {}]"}, 
      "inputs": []
    }, 
    {
      "op": "null", 
      "name": "batchnorm672_moving_var", 
      "attr": {"__init__": "[\"one\", {}]"}, 
      "inputs": []
    }, 
    {
      "op": "BatchNorm", 
      "name": "batchnorm672", 
      "inputs": [[683, 0, 0], [684, 0, 0], [685, 0, 0], [686, 0, 1], [687, 0, 1]]
    }, 
    {
      "op": "elemwise_add", 
      "name": "_plus322", 
      "inputs": [[671, 0, 0], [688, 0, 0]]
    }, 
    {
      "op": "LeakyReLU", 
      "name": "leakyrelu654", 
      "inputs": [[689, 0, 0]]
    }, 
    {
      "op": "null", 
      "name": "convolution673_weight", 
      "attr": {
        "kernel": "3", 
        "num_filter": "64", 
        "pad": "1", 
        "stride": "1"
      }, 
      "inputs": []
    }, 
    {
      "op": "null", 
      "name": "convolution673_bias", 
      "attr": {
        "kernel": "3", 
        "num_filter": "64", 
        "pad": "1", 
        "stride": "1"
      }, 
      "inputs": []
    }, 
    {
      "op": "Convolution", 
      "name": "convolution673", 
      "attr": {
        "kernel": "3", 
        "num_filter": "64", 
        "pad": "1", 
        "stride": "1"
      }, 
      "inputs": [[690, 0, 0], [691, 0, 0], [692, 0, 0]]
    }, 
    {
      "op": "null", 
      "name": "batchnorm673_gamma", 
      "inputs": []
    }, 
    {
      "op": "null", 
      "name": "batchnorm673_beta", 
      "inputs": []
    }, 
    {
      "op": "null", 
      "name": "batchnorm673_moving_mean", 
      "attr": {"__init__": "[\"zero\", {}]"}, 
      "inputs": []
    }, 
    {
      "op": "null", 
      "name": "batchnorm673_moving_var", 
      "attr": {"__init__": "[\"one\", {}]"}, 
      "inputs": []
    }, 
    {
      "op": "BatchNorm", 
      "name": "batchnorm673", 
      "inputs": [[693, 0, 0], [694, 0, 0], [695, 0, 0], [696, 0, 1], [697, 0, 1]]
    }, 
    {
      "op": "LeakyReLU", 
      "name": "leakyrelu655", 
      "inputs": [[698, 0, 0]]
    }, 
    {
      "op": "null", 
      "name": "convolution674_weight", 
      "attr": {
        "kernel": "3", 
        "num_filter": "64", 
        "pad": "1", 
        "stride": "1"
      }, 
      "inputs": []
    }, 
    {
      "op": "null", 
      "name": "convolution674_bias", 
      "attr": {
        "kernel": "3", 
        "num_filter": "64", 
        "pad": "1", 
        "stride": "1"
      }, 
      "inputs": []
    }, 
    {
      "op": "Convolution", 
      "name": "convolution674", 
      "attr": {
        "kernel": "3", 
        "num_filter": "64", 
        "pad": "1", 
        "stride": "1"
      }, 
      "inputs": [[699, 0, 0], [700, 0, 0], [701, 0, 0]]
    }, 
    {
      "op": "null", 
      "name": "batchnorm674_gamma", 
      "inputs": []
    }, 
    {
      "op": "null", 
      "name": "batchnorm674_beta", 
      "inputs": []
    }, 
    {
      "op": "null", 
      "name": "batchnorm674_moving_mean", 
      "attr": {"__init__": "[\"zero\", {}]"}, 
      "inputs": []
    }, 
    {
      "op": "null", 
      "name": "batchnorm674_moving_var", 
      "attr": {"__init__": "[\"one\", {}]"}, 
      "inputs": []
    }, 
    {
      "op": "BatchNorm", 
      "name": "batchnorm674", 
      "inputs": [[702, 0, 0], [703, 0, 0], [704, 0, 0], [705, 0, 1], [706, 0, 1]]
    }, 
    {
      "op": "elemwise_add", 
      "name": "_plus323", 
      "inputs": [[690, 0, 0], [707, 0, 0]]
    }, 
    {
      "op": "LeakyReLU", 
      "name": "leakyrelu656", 
      "inputs": [[708, 0, 0]]
    }, 
    {
      "op": "Flatten", 
      "name": "flatten", 
      "inputs": [[709, 0, 0]]
    }, 
    {
      "op": "null", 
      "name": "fcFinal_weight", 
      "attr": {"num_hidden": "64"}, 
      "inputs": []
    }, 
    {
      "op": "null", 
      "name": "fcFinal_bias", 
      "attr": {"num_hidden": "64"}, 
      "inputs": []
    }, 
    {
      "op": "FullyConnected", 
      "name": "fcFinal", 
      "attr": {"num_hidden": "64"}, 
      "inputs": [[710, 0, 0], [711, 0, 0], [712, 0, 0]]
    }, 
    {
      "op": "L2Normalization", 
      "name": "anchor", 
      "inputs": [[713, 0, 0]]
    }
  ], 
  "arg_nodes": [
    0, 
    1, 
    2, 
    4, 
    5, 
    6, 
    7, 
    10, 
    11, 
    13, 
    14, 
    15, 
    16, 
    19, 
    20, 
    22, 
    23, 
    24, 
    25, 
    29, 
    30, 
    32, 
    33, 
    34, 
    35, 
    38, 
    39, 
    41, 
    42, 
    43, 
    44, 
    48, 
    49, 
    51, 
    52, 
    53, 
    54, 
    57, 
    58, 
    60, 
    61, 
    62, 
    63, 
    67, 
    68, 
    70, 
    71, 
    72, 
    73, 
    76, 
    77, 
    79, 
    80, 
    81, 
    82, 
    86, 
    87, 
    89, 
    90, 
    91, 
    92, 
    95, 
    96, 
    98, 
    99, 
    100, 
    101, 
    105, 
    106, 
    108, 
    109, 
    110, 
    111, 
    114, 
    115, 
    117, 
    118, 
    119, 
    120, 
    124, 
    125, 
    127, 
    128, 
    129, 
    130, 
    133, 
    134, 
    136, 
    137, 
    138, 
    139, 
    143, 
    144, 
    146, 
    147, 
    148, 
    149, 
    152, 
    153, 
    155, 
    156, 
    157, 
    158, 
    162, 
    163, 
    165, 
    166, 
    167, 
    168, 
    171, 
    172, 
    174, 
    175, 
    176, 
    177, 
    181, 
    182, 
    184, 
    185, 
    186, 
    187, 
    190, 
    191, 
    193, 
    194, 
    195, 
    196, 
    200, 
    201, 
    203, 
    204, 
    205, 
    206, 
    209, 
    210, 
    212, 
    213, 
    214, 
    215, 
    219, 
    220, 
    222, 
    223, 
    224, 
    225, 
    228, 
    229, 
    231, 
    232, 
    233, 
    234, 
    238, 
    239, 
    241, 
    242, 
    243, 
    244, 
    246, 
    247, 
    249, 
    250, 
    251, 
    252, 
    255, 
    256, 
    258, 
    259, 
    260, 
    261, 
    265, 
    266, 
    268, 
    269, 
    270, 
    271, 
    274, 
    275, 
    277, 
    278, 
    279, 
    280, 
    284, 
    285, 
    287, 
    288, 
    289, 
    290, 
    293, 
    294, 
    296, 
    297, 
    298, 
    299, 
    303, 
    304, 
    306, 
    307, 
    308, 
    309, 
    312, 
    313, 
    315, 
    316, 
    317, 
    318, 
    322, 
    323, 
    325, 
    326, 
    327, 
    328, 
    331, 
    332, 
    334, 
    335, 
    336, 
    337, 
    341, 
    342, 
    344, 
    345, 
    346, 
    347, 
    350, 
    351, 
    353, 
    354, 
    355, 
    356, 
    360, 
    361, 
    363, 
    364, 
    365, 
    366, 
    369, 
    370, 
    372, 
    373, 
    374, 
    375, 
    379, 
    380, 
    382, 
    383, 
    384, 
    385, 
    388, 
    389, 
    391, 
    392, 
    393, 
    394, 
    398, 
    399, 
    401, 
    402, 
    403, 
    404, 
    407, 
    408, 
    410, 
    411, 
    412, 
    413, 
    417, 
    418, 
    420, 
    421, 
    422, 
    423, 
    426, 
    427, 
    429, 
    430, 
    431, 
    432, 
    436, 
    437, 
    439, 
    440, 
    441, 
    442, 
    445, 
    446, 
    448, 
    449, 
    450, 
    451, 
    455, 
    456, 
    458, 
    459, 
    460, 
    461, 
    464, 
    465, 
    467, 
    468, 
    469, 
    470, 
    474, 
    475, 
    477, 
    478, 
    479, 
    480, 
    482, 
    483, 
    485, 
    486, 
    487, 
    488, 
    491, 
    492, 
    494, 
    495, 
    496, 
    497, 
    501, 
    502, 
    504, 
    505, 
    506, 
    507, 
    510, 
    511, 
    513, 
    514, 
    515, 
    516, 
    520, 
    521, 
    523, 
    524, 
    525, 
    526, 
    529, 
    530, 
    532, 
    533, 
    534, 
    535, 
    539, 
    540, 
    542, 
    543, 
    544, 
    545, 
    548, 
    549, 
    551, 
    552, 
    553, 
    554, 
    558, 
    559, 
    561, 
    562, 
    563, 
    564, 
    567, 
    568, 
    570, 
    571, 
    572, 
    573, 
    577, 
    578, 
    580, 
    581, 
    582, 
    583, 
    586, 
    587, 
    589, 
    590, 
    591, 
    592, 
    596, 
    597, 
    599, 
    600, 
    601, 
    602, 
    605, 
    606, 
    608, 
    609, 
    610, 
    611, 
    615, 
    616, 
    618, 
    619, 
    620, 
    621, 
    624, 
    625, 
    627, 
    628, 
    629, 
    630, 
    634, 
    635, 
    637, 
    638, 
    639, 
    640, 
    643, 
    644, 
    646, 
    647, 
    648, 
    649, 
    653, 
    654, 
    656, 
    657, 
    658, 
    659, 
    662, 
    663, 
    665, 
    666, 
    667, 
    668, 
    672, 
    673, 
    675, 
    676, 
    677, 
    678, 
    681, 
    682, 
    684, 
    685, 
    686, 
    687, 
    691, 
    692, 
    694, 
    695, 
    696, 
    697, 
    700, 
    701, 
    703, 
    704, 
    705, 
    706, 
    711, 
    712
  ], 
  "node_row_ptr": [
    0, 
    1, 
    2, 
    3, 
    4, 
    5, 
    6, 
    7, 
    8, 
    11, 
    12, 
    13, 
    14, 
    15, 
    16, 
    17, 
    18, 
    19, 
    22, 
    23, 
    24, 
    25, 
    26, 
    27, 
    28, 
    29, 
    30, 
    33, 
    34, 
    35, 
    36, 
    37, 
    38, 
    39, 
    40, 
    41, 
    42, 
    45, 
    46, 
    47, 
    48, 
    49, 
    50, 
    51, 
    52, 
    53, 
    56, 
    57, 
    58, 
    59, 
    60, 
    61, 
    62, 
    63, 
    64, 
    65, 
    68, 
    69, 
    70, 
    71, 
    72, 
    73, 
    74, 
    75, 
    76, 
    79, 
    80, 
    81, 
    82, 
    83, 
    84, 
    85, 
    86, 
    87, 
    88, 
    91, 
    92, 
    93, 
    94, 
    95, 
    96, 
    97, 
    98, 
    99, 
    102, 
    103, 
    104, 
    105, 
    106, 
    107, 
    108, 
    109, 
    110, 
    111, 
    114, 
    115, 
    116, 
    117, 
    118, 
    119, 
    120, 
    121, 
    122, 
    125, 
    126, 
    127, 
    128, 
    129, 
    130, 
    131, 
    132, 
    133, 
    134, 
    137, 
    138, 
    139, 
    140, 
    141, 
    142, 
    143, 
    144, 
    145, 
    148, 
    149, 
    150, 
    151, 
    152, 
    153, 
    154, 
    155, 
    156, 
    157, 
    160, 
    161, 
    162, 
    163, 
    164, 
    165, 
    166, 
    167, 
    168, 
    171, 
    172, 
    173, 
    174, 
    175, 
    176, 
    177, 
    178, 
    179, 
    180, 
    183, 
    184, 
    185, 
    186, 
    187, 
    188, 
    189, 
    190, 
    191, 
    194, 
    195, 
    196, 
    197, 
    198, 
    199, 
    200, 
    201, 
    202, 
    203, 
    206, 
    207, 
    208, 
    209, 
    210, 
    211, 
    212, 
    213, 
    214, 
    217, 
    218, 
    219, 
    220, 
    221, 
    222, 
    223, 
    224, 
    225, 
    226, 
    229, 
    230, 
    231, 
    232, 
    233, 
    234, 
    235, 
    236, 
    237, 
    240, 
    241, 
    242, 
    243, 
    244, 
    245, 
    246, 
    247, 
    248, 
    249, 
    252, 
    253, 
    254, 
    255, 
    256, 
    257, 
    258, 
    259, 
    260, 
    263, 
    264, 
    265, 
    266, 
    267, 
    268, 
    269, 
    270, 
    271, 
    272, 
    275, 
    276, 
    277, 
    278, 
    279, 
    280, 
    281, 
    282, 
    283, 
    286, 
    287, 
    288, 
    289, 
    290, 
    291, 
    292, 
    293, 
    294, 
    295, 
    298, 
    299, 
    300, 
    301, 
    302, 
    303, 
    304, 
    305, 
    308, 
    309, 
    310, 
    311, 
    312, 
    313, 
    314, 
    315, 
    316, 
    319, 
    320, 
    321, 
    322, 
    323, 
    324, 
    325, 
    326, 
    327, 
    328, 
    331, 
    332, 
    333, 
    334, 
    335, 
    336, 
    337, 
    338, 
    339, 
    342, 
    343, 
    344, 
    345, 
    346, 
    347, 
    348, 
    349, 
    350, 
    351, 
    354, 
    355, 
    356, 
    357, 
    358, 
    359, 
    360, 
    361, 
    362, 
    365, 
    366, 
    367, 
    368, 
    369, 
    370, 
    371, 
    372, 
    373, 
    374, 
    377, 
    378, 
    379, 
    380, 
    381, 
    382, 
    383, 
    384, 
    385, 
    388, 
    389, 
    390, 
    391, 
    392, 
    393, 
    394, 
    395, 
    396, 
    397, 
    400, 
    401, 
    402, 
    403, 
    404, 
    405, 
    406, 
    407, 
    408, 
    411, 
    412, 
    413, 
    414, 
    415, 
    416, 
    417, 
    418, 
    419, 
    420, 
    423, 
    424, 
    425, 
    426, 
    427, 
    428, 
    429, 
    430, 
    431, 
    434, 
    435, 
    436, 
    437, 
    438, 
    439, 
    440, 
    441, 
    442, 
    443, 
    446, 
    447, 
    448, 
    449, 
    450, 
    451, 
    452, 
    453, 
    454, 
    457, 
    458, 
    459, 
    460, 
    461, 
    462, 
    463, 
    464, 
    465, 
    466, 
    469, 
    470, 
    471, 
    472, 
    473, 
    474, 
    475, 
    476, 
    477, 
    480, 
    481, 
    482, 
    483, 
    484, 
    485, 
    486, 
    487, 
    488, 
    489, 
    492, 
    493, 
    494, 
    495, 
    496, 
    497, 
    498, 
    499, 
    500, 
    503, 
    504, 
    505, 
    506, 
    507, 
    508, 
    509, 
    510, 
    511, 
    512, 
    515, 
    516, 
    517, 
    518, 
    519, 
    520, 
    521, 
    522, 
    523, 
    526, 
    527, 
    528, 
    529, 
    530, 
    531, 
    532, 
    533, 
    534, 
    535, 
    538, 
    539, 
    540, 
    541, 
    542, 
    543, 
    544, 
    545, 
    546, 
    549, 
    550, 
    551, 
    552, 
    553, 
    554, 
    555, 
    556, 
    557, 
    558, 
    561, 
    562, 
    563, 
    564, 
    565, 
    566, 
    567, 
    568, 
    569, 
    572, 
    573, 
    574, 
    575, 
    576, 
    577, 
    578, 
    579, 
    580, 
    581, 
    584, 
    585, 
    586, 
    587, 
    588, 
    589, 
    590, 
    591, 
    594, 
    595, 
    596, 
    597, 
    598, 
    599, 
    600, 
    601, 
    602, 
    605, 
    606, 
    607, 
    608, 
    609, 
    610, 
    611, 
    612, 
    613, 
    614, 
    617, 
    618, 
    619, 
    620, 
    621, 
    622, 
    623, 
    624, 
    625, 
    628, 
    629, 
    630, 
    631, 
    632, 
    633, 
    634, 
    635, 
    636, 
    637, 
    640, 
    641, 
    642, 
    643, 
    644, 
    645, 
    646, 
    647, 
    648, 
    651, 
    652, 
    653, 
    654, 
    655, 
    656, 
    657, 
    658, 
    659, 
    660, 
    663, 
    664, 
    665, 
    666, 
    667, 
    668, 
    669, 
    670, 
    671, 
    674, 
    675, 
    676, 
    677, 
    678, 
    679, 
    680, 
    681, 
    682, 
    683, 
    686, 
    687, 
    688, 
    689, 
    690, 
    691, 
    692, 
    693, 
    694, 
    697, 
    698, 
    699, 
    700, 
    701, 
    702, 
    703, 
    704, 
    705, 
    706, 
    709, 
    710, 
    711, 
    712, 
    713, 
    714, 
    715, 
    716, 
    717, 
    720, 
    721, 
    722, 
    723, 
    724, 
    725, 
    726, 
    727, 
    728, 
    729, 
    732, 
    733, 
    734, 
    735, 
    736, 
    737, 
    738, 
    739, 
    740, 
    743, 
    744, 
    745, 
    746, 
    747, 
    748, 
    749, 
    750, 
    751, 
    752, 
    755, 
    756, 
    757, 
    758, 
    759, 
    760, 
    761, 
    762, 
    763, 
    766, 
    767, 
    768, 
    769, 
    770, 
    771, 
    772, 
    773, 
    774, 
    775, 
    778, 
    779, 
    780, 
    781, 
    782, 
    783, 
    784, 
    785, 
    786, 
    789, 
    790, 
    791, 
    792, 
    793, 
    794, 
    795, 
    796, 
    797, 
    798, 
    801, 
    802, 
    803, 
    804, 
    805, 
    806, 
    807, 
    808, 
    809, 
    812, 
    813, 
    814, 
    815, 
    816, 
    817, 
    818, 
    819, 
    820, 
    821, 
    824, 
    825, 
    826, 
    827, 
    828, 
    829, 
    830, 
    831, 
    832, 
    835, 
    836, 
    837, 
    838, 
    839, 
    840, 
    841, 
    842, 
    843, 
    844, 
    847, 
    848, 
    849, 
    850, 
    851, 
    852, 
    853, 
    854, 
    855, 
    858, 
    859, 
    860, 
    861, 
    862, 
    863, 
    864, 
    866
  ], 
  "heads": [[714, 0, 0]], 
  "attrs": {"mxnet_version": ["int", 1001]}
}