{
  "nodes": [
    {
      "op": "null", 
      "name": "angle", 
      "inputs": []
    }, 
    {
      "op": "null", 
      "name": "convolution414_weight", 
      "attr": {
        "kernel": "7", 
        "no_bias": "1", 
        "num_filter": "32", 
        "pad": "3", 
        "stride": "2"
      }, 
      "inputs": []
    }, 
    {
      "op": "Convolution", 
      "name": "convolution414", 
      "attr": {
        "kernel": "7", 
        "no_bias": "1", 
        "num_filter": "32", 
        "pad": "3", 
        "stride": "2"
      }, 
      "inputs": [[0, 0, 0], [1, 0, 0]]
    }, 
    {
      "op": "null", 
      "name": "batchnorm414_gamma", 
      "attr": {
        "eps": "2e-005", 
        "fix_gamma": "0", 
        "momentum": "0.9"
      }, 
      "inputs": []
    }, 
    {
      "op": "null", 
      "name": "batchnorm414_beta", 
      "attr": {
        "eps": "2e-005", 
        "fix_gamma": "0", 
        "momentum": "0.9"
      }, 
      "inputs": []
    }, 
    {
      "op": "null", 
      "name": "batchnorm414_moving_mean", 
      "attr": {
        "__init__": "[\"zero\", {}]", 
        "eps": "2e-005", 
        "fix_gamma": "0", 
        "momentum": "0.9"
      }, 
      "inputs": []
    }, 
    {
      "op": "null", 
      "name": "batchnorm414_moving_var", 
      "attr": {
        "__init__": "[\"one\", {}]", 
        "eps": "2e-005", 
        "fix_gamma": "0", 
        "momentum": "0.9"
      }, 
      "inputs": []
    }, 
    {
      "op": "BatchNorm", 
      "name": "batchnorm414", 
      "attr": {
        "eps": "2e-005", 
        "fix_gamma": "0", 
        "momentum": "0.9"
      }, 
      "inputs": [[2, 0, 0], [3, 0, 0], [4, 0, 0], [5, 0, 1], [6, 0, 1]]
    }, 
    {
      "op": "LeakyReLU", 
      "name": "leakyrelu368", 
      "attr": {"act_type": "rrelu"}, 
      "inputs": [[7, 0, 0]]
    }, 
    {
      "op": "null", 
      "name": "convolution415_weight", 
      "attr": {
        "kernel": "1", 
        "no_bias": "1", 
        "num_filter": "16", 
        "pad": "0", 
        "stride": "1"
      }, 
      "inputs": []
    }, 
    {
      "op": "Convolution", 
      "name": "convolution415", 
      "attr": {
        "kernel": "1", 
        "no_bias": "1", 
        "num_filter": "16", 
        "pad": "0", 
        "stride": "1"
      }, 
      "inputs": [[8, 0, 0], [9, 0, 0]]
    }, 
    {
      "op": "null", 
      "name": "batchnorm415_gamma", 
      "attr": {
        "eps": "2e-005", 
        "fix_gamma": "0", 
        "momentum": "0.9"
      }, 
      "inputs": []
    }, 
    {
      "op": "null", 
      "name": "batchnorm415_beta", 
      "attr": {
        "eps": "2e-005", 
        "fix_gamma": "0", 
        "momentum": "0.9"
      }, 
      "inputs": []
    }, 
    {
      "op": "null", 
      "name": "batchnorm415_moving_mean", 
      "attr": {
        "__init__": "[\"zero\", {}]", 
        "eps": "2e-005", 
        "fix_gamma": "0", 
        "momentum": "0.9"
      }, 
      "inputs": []
    }, 
    {
      "op": "null", 
      "name": "batchnorm415_moving_var", 
      "attr": {
        "__init__": "[\"one\", {}]", 
        "eps": "2e-005", 
        "fix_gamma": "0", 
        "momentum": "0.9"
      }, 
      "inputs": []
    }, 
    {
      "op": "BatchNorm", 
      "name": "batchnorm415", 
      "attr": {
        "eps": "2e-005", 
        "fix_gamma": "0", 
        "momentum": "0.9"
      }, 
      "inputs": [[10, 0, 0], [11, 0, 0], [12, 0, 0], [13, 0, 1], [14, 0, 1]]
    }, 
    {
      "op": "LeakyReLU", 
      "name": "leakyrelu369", 
      "attr": {"act_type": "rrelu"}, 
      "inputs": [[15, 0, 0]]
    }, 
    {
      "op": "null", 
      "name": "path", 
      "inputs": []
    }, 
    {
      "op": "null", 
      "name": "convolution416_weight", 
      "attr": {
        "kernel": "7", 
        "no_bias": "1", 
        "num_filter": "32", 
        "pad": "3", 
        "stride": "2"
      }, 
      "inputs": []
    }, 
    {
      "op": "Convolution", 
      "name": "convolution416", 
      "attr": {
        "kernel": "7", 
        "no_bias": "1", 
        "num_filter": "32", 
        "pad": "3", 
        "stride": "2"
      }, 
      "inputs": [[17, 0, 0], [18, 0, 0]]
    }, 
    {
      "op": "null", 
      "name": "batchnorm416_gamma", 
      "attr": {
        "eps": "2e-005", 
        "fix_gamma": "0", 
        "momentum": "0.9"
      }, 
      "inputs": []
    }, 
    {
      "op": "null", 
      "name": "batchnorm416_beta", 
      "attr": {
        "eps": "2e-005", 
        "fix_gamma": "0", 
        "momentum": "0.9"
      }, 
      "inputs": []
    }, 
    {
      "op": "null", 
      "name": "batchnorm416_moving_mean", 
      "attr": {
        "__init__": "[\"zero\", {}]", 
        "eps": "2e-005", 
        "fix_gamma": "0", 
        "momentum": "0.9"
      }, 
      "inputs": []
    }, 
    {
      "op": "null", 
      "name": "batchnorm416_moving_var", 
      "attr": {
        "__init__": "[\"one\", {}]", 
        "eps": "2e-005", 
        "fix_gamma": "0", 
        "momentum": "0.9"
      }, 
      "inputs": []
    }, 
    {
      "op": "BatchNorm", 
      "name": "batchnorm416", 
      "attr": {
        "eps": "2e-005", 
        "fix_gamma": "0", 
        "momentum": "0.9"
      }, 
      "inputs": [[19, 0, 0], [20, 0, 0], [21, 0, 0], [22, 0, 1], [23, 0, 1]]
    }, 
    {
      "op": "LeakyReLU", 
      "name": "leakyrelu370", 
      "attr": {"act_type": "rrelu"}, 
      "inputs": [[24, 0, 0]]
    }, 
    {
      "op": "null", 
      "name": "convolution417_weight", 
      "attr": {
        "kernel": "1", 
        "no_bias": "1", 
        "num_filter": "16", 
        "pad": "0", 
        "stride": "1"
      }, 
      "inputs": []
    }, 
    {
      "op": "Convolution", 
      "name": "convolution417", 
      "attr": {
        "kernel": "1", 
        "no_bias": "1", 
        "num_filter": "16", 
        "pad": "0", 
        "stride": "1"
      }, 
      "inputs": [[25, 0, 0], [26, 0, 0]]
    }, 
    {
      "op": "null", 
      "name": "batchnorm417_gamma", 
      "attr": {
        "eps": "2e-005", 
        "fix_gamma": "0", 
        "momentum": "0.9"
      }, 
      "inputs": []
    }, 
    {
      "op": "null", 
      "name": "batchnorm417_beta", 
      "attr": {
        "eps": "2e-005", 
        "fix_gamma": "0", 
        "momentum": "0.9"
      }, 
      "inputs": []
    }, 
    {
      "op": "null", 
      "name": "batchnorm417_moving_mean", 
      "attr": {
        "__init__": "[\"zero\", {}]", 
        "eps": "2e-005", 
        "fix_gamma": "0", 
        "momentum": "0.9"
      }, 
      "inputs": []
    }, 
    {
      "op": "null", 
      "name": "batchnorm417_moving_var", 
      "attr": {
        "__init__": "[\"one\", {}]", 
        "eps": "2e-005", 
        "fix_gamma": "0", 
        "momentum": "0.9"
      }, 
      "inputs": []
    }, 
    {
      "op": "BatchNorm", 
      "name": "batchnorm417", 
      "attr": {
        "eps": "2e-005", 
        "fix_gamma": "0", 
        "momentum": "0.9"
      }, 
      "inputs": [[27, 0, 0], [28, 0, 0], [29, 0, 0], [30, 0, 1], [31, 0, 1]]
    }, 
    {
      "op": "LeakyReLU", 
      "name": "leakyrelu371", 
      "attr": {"act_type": "rrelu"}, 
      "inputs": [[32, 0, 0]]
    }, 
    {
      "op": "Concat", 
      "name": "concat23", 
      "attr": {
        "dim": "1", 
        "num_args": "2"
      }, 
      "inputs": [[16, 0, 0], [33, 0, 0]]
    }, 
    {
      "op": "Pooling", 
      "name": "poolStart", 
      "attr": {
        "kernel": "3", 
        "pool_type": "max", 
        "stride": "2"
      }, 
      "inputs": [[34, 0, 0]]
    }, 
    {
      "op": "zeros_like", 
      "name": "zeros_like138", 
      "inputs": [[35, 0, 0]]
    }, 
    {
      "op": "sum", 
      "name": "sum_axis207", 
      "attr": {
        "axis": "0", 
        "exclude": "1", 
        "keepdims": "0"
      }, 
      "inputs": [[36, 0, 0]]
    }, 
    {
      "op": "random_uniform", 
      "name": "random_uniform138", 
      "attr": {
        "high": "1", 
        "low": "1", 
        "shape": "(1, 1)"
      }, 
      "inputs": []
    }, 
    {
      "op": "Dropout", 
      "name": "dropout161", 
      "attr": {"p": "0.025"}, 
      "inputs": [[38, 0, 0]]
    }, 
    {
      "op": "broadcast_add", 
      "name": "broadcast_add138", 
      "inputs": [[37, 0, 0], [39, 0, 0]]
    }, 
    {
      "op": "null", 
      "name": "convolution418_weight", 
      "attr": {
        "kernel": "3", 
        "no_bias": "1", 
        "num_filter": "32", 
        "pad": "1", 
        "stride": "1"
      }, 
      "inputs": []
    }, 
    {
      "op": "Convolution", 
      "name": "convolution418", 
      "attr": {
        "kernel": "3", 
        "no_bias": "1", 
        "num_filter": "32", 
        "pad": "1", 
        "stride": "1"
      }, 
      "inputs": [[35, 0, 0], [41, 0, 0]]
    }, 
    {
      "op": "null", 
      "name": "batchnorm418_gamma", 
      "attr": {
        "eps": "2e-005", 
        "fix_gamma": "0", 
        "momentum": "0.9"
      }, 
      "inputs": []
    }, 
    {
      "op": "null", 
      "name": "batchnorm418_beta", 
      "attr": {
        "eps": "2e-005", 
        "fix_gamma": "0", 
        "momentum": "0.9"
      }, 
      "inputs": []
    }, 
    {
      "op": "null", 
      "name": "batchnorm418_moving_mean", 
      "attr": {
        "__init__": "[\"zero\", {}]", 
        "eps": "2e-005", 
        "fix_gamma": "0", 
        "momentum": "0.9"
      }, 
      "inputs": []
    }, 
    {
      "op": "null", 
      "name": "batchnorm418_moving_var", 
      "attr": {
        "__init__": "[\"one\", {}]", 
        "eps": "2e-005", 
        "fix_gamma": "0", 
        "momentum": "0.9"
      }, 
      "inputs": []
    }, 
    {
      "op": "BatchNorm", 
      "name": "batchnorm418", 
      "attr": {
        "eps": "2e-005", 
        "fix_gamma": "0", 
        "momentum": "0.9"
      }, 
      "inputs": [[42, 0, 0], [43, 0, 0], [44, 0, 0], [45, 0, 1], [46, 0, 1]]
    }, 
    {
      "op": "LeakyReLU", 
      "name": "leakyrelu372", 
      "attr": {"act_type": "rrelu"}, 
      "inputs": [[47, 0, 0]]
    }, 
    {
      "op": "null", 
      "name": "convolution419_weight", 
      "attr": {
        "kernel": "3", 
        "no_bias": "1", 
        "num_filter": "32", 
        "pad": "1", 
        "stride": "1"
      }, 
      "inputs": []
    }, 
    {
      "op": "Convolution", 
      "name": "convolution419", 
      "attr": {
        "kernel": "3", 
        "no_bias": "1", 
        "num_filter": "32", 
        "pad": "1", 
        "stride": "1"
      }, 
      "inputs": [[48, 0, 0], [49, 0, 0]]
    }, 
    {
      "op": "null", 
      "name": "batchnorm419_gamma", 
      "attr": {
        "eps": "2e-005", 
        "fix_gamma": "0", 
        "momentum": "0.9"
      }, 
      "inputs": []
    }, 
    {
      "op": "null", 
      "name": "batchnorm419_beta", 
      "attr": {
        "eps": "2e-005", 
        "fix_gamma": "0", 
        "momentum": "0.9"
      }, 
      "inputs": []
    }, 
    {
      "op": "null", 
      "name": "batchnorm419_moving_mean", 
      "attr": {
        "__init__": "[\"zero\", {}]", 
        "eps": "2e-005", 
        "fix_gamma": "0", 
        "momentum": "0.9"
      }, 
      "inputs": []
    }, 
    {
      "op": "null", 
      "name": "batchnorm419_moving_var", 
      "attr": {
        "__init__": "[\"one\", {}]", 
        "eps": "2e-005", 
        "fix_gamma": "0", 
        "momentum": "0.9"
      }, 
      "inputs": []
    }, 
    {
      "op": "BatchNorm", 
      "name": "batchnorm419", 
      "attr": {
        "eps": "2e-005", 
        "fix_gamma": "0", 
        "momentum": "0.9"
      }, 
      "inputs": [[50, 0, 0], [51, 0, 0], [52, 0, 0], [53, 0, 1], [54, 0, 1]]
    }, 
    {
      "op": "broadcast_mul", 
      "name": "broadcast_mul161", 
      "inputs": [[39, 0, 0], [55, 0, 0]]
    }, 
    {
      "op": "elemwise_add", 
      "name": "_plus161", 
      "inputs": [[35, 0, 0], [56, 0, 0]]
    }, 
    {
      "op": "where", 
      "name": "where138", 
      "inputs": [[40, 0, 0], [57, 0, 0], [35, 0, 0]]
    }, 
    {
      "op": "LeakyReLU", 
      "name": "leakyrelu373", 
      "attr": {"act_type": "rrelu"}, 
      "inputs": [[58, 0, 0]]
    }, 
    {
      "op": "zeros_like", 
      "name": "zeros_like139", 
      "inputs": [[59, 0, 0]]
    }, 
    {
      "op": "sum", 
      "name": "sum_axis208", 
      "attr": {
        "axis": "0", 
        "exclude": "1", 
        "keepdims": "0"
      }, 
      "inputs": [[60, 0, 0]]
    }, 
    {
      "op": "random_uniform", 
      "name": "random_uniform139", 
      "attr": {
        "high": "1", 
        "low": "1", 
        "shape": "(1, 1)"
      }, 
      "inputs": []
    }, 
    {
      "op": "Dropout", 
      "name": "dropout162", 
      "attr": {"p": "0.05"}, 
      "inputs": [[62, 0, 0]]
    }, 
    {
      "op": "broadcast_add", 
      "name": "broadcast_add139", 
      "inputs": [[61, 0, 0], [63, 0, 0]]
    }, 
    {
      "op": "null", 
      "name": "convolution420_weight", 
      "attr": {
        "kernel": "3", 
        "no_bias": "1", 
        "num_filter": "32", 
        "pad": "1", 
        "stride": "1"
      }, 
      "inputs": []
    }, 
    {
      "op": "Convolution", 
      "name": "convolution420", 
      "attr": {
        "kernel": "3", 
        "no_bias": "1", 
        "num_filter": "32", 
        "pad": "1", 
        "stride": "1"
      }, 
      "inputs": [[59, 0, 0], [65, 0, 0]]
    }, 
    {
      "op": "null", 
      "name": "batchnorm420_gamma", 
      "attr": {
        "eps": "2e-005", 
        "fix_gamma": "0", 
        "momentum": "0.9"
      }, 
      "inputs": []
    }, 
    {
      "op": "null", 
      "name": "batchnorm420_beta", 
      "attr": {
        "eps": "2e-005", 
        "fix_gamma": "0", 
        "momentum": "0.9"
      }, 
      "inputs": []
    }, 
    {
      "op": "null", 
      "name": "batchnorm420_moving_mean", 
      "attr": {
        "__init__": "[\"zero\", {}]", 
        "eps": "2e-005", 
        "fix_gamma": "0", 
        "momentum": "0.9"
      }, 
      "inputs": []
    }, 
    {
      "op": "null", 
      "name": "batchnorm420_moving_var", 
      "attr": {
        "__init__": "[\"one\", {}]", 
        "eps": "2e-005", 
        "fix_gamma": "0", 
        "momentum": "0.9"
      }, 
      "inputs": []
    }, 
    {
      "op": "BatchNorm", 
      "name": "batchnorm420", 
      "attr": {
        "eps": "2e-005", 
        "fix_gamma": "0", 
        "momentum": "0.9"
      }, 
      "inputs": [[66, 0, 0], [67, 0, 0], [68, 0, 0], [69, 0, 1], [70, 0, 1]]
    }, 
    {
      "op": "LeakyReLU", 
      "name": "leakyrelu374", 
      "attr": {"act_type": "rrelu"}, 
      "inputs": [[71, 0, 0]]
    }, 
    {
      "op": "null", 
      "name": "convolution421_weight", 
      "attr": {
        "kernel": "3", 
        "no_bias": "1", 
        "num_filter": "32", 
        "pad": "1", 
        "stride": "1"
      }, 
      "inputs": []
    }, 
    {
      "op": "Convolution", 
      "name": "convolution421", 
      "attr": {
        "kernel": "3", 
        "no_bias": "1", 
        "num_filter": "32", 
        "pad": "1", 
        "stride": "1"
      }, 
      "inputs": [[72, 0, 0], [73, 0, 0]]
    }, 
    {
      "op": "null", 
      "name": "batchnorm421_gamma", 
      "attr": {
        "eps": "2e-005", 
        "fix_gamma": "0", 
        "momentum": "0.9"
      }, 
      "inputs": []
    }, 
    {
      "op": "null", 
      "name": "batchnorm421_beta", 
      "attr": {
        "eps": "2e-005", 
        "fix_gamma": "0", 
        "momentum": "0.9"
      }, 
      "inputs": []
    }, 
    {
      "op": "null", 
      "name": "batchnorm421_moving_mean", 
      "attr": {
        "__init__": "[\"zero\", {}]", 
        "eps": "2e-005", 
        "fix_gamma": "0", 
        "momentum": "0.9"
      }, 
      "inputs": []
    }, 
    {
      "op": "null", 
      "name": "batchnorm421_moving_var", 
      "attr": {
        "__init__": "[\"one\", {}]", 
        "eps": "2e-005", 
        "fix_gamma": "0", 
        "momentum": "0.9"
      }, 
      "inputs": []
    }, 
    {
      "op": "BatchNorm", 
      "name": "batchnorm421", 
      "attr": {
        "eps": "2e-005", 
        "fix_gamma": "0", 
        "momentum": "0.9"
      }, 
      "inputs": [[74, 0, 0], [75, 0, 0], [76, 0, 0], [77, 0, 1], [78, 0, 1]]
    }, 
    {
      "op": "broadcast_mul", 
      "name": "broadcast_mul162", 
      "inputs": [[63, 0, 0], [79, 0, 0]]
    }, 
    {
      "op": "elemwise_add", 
      "name": "_plus162", 
      "inputs": [[59, 0, 0], [80, 0, 0]]
    }, 
    {
      "op": "where", 
      "name": "where139", 
      "inputs": [[64, 0, 0], [81, 0, 0], [59, 0, 0]]
    }, 
    {
      "op": "LeakyReLU", 
      "name": "leakyrelu375", 
      "attr": {"act_type": "rrelu"}, 
      "inputs": [[82, 0, 0]]
    }, 
    {
      "op": "zeros_like", 
      "name": "zeros_like140", 
      "inputs": [[83, 0, 0]]
    }, 
    {
      "op": "sum", 
      "name": "sum_axis209", 
      "attr": {
        "axis": "0", 
        "exclude": "1", 
        "keepdims": "0"
      }, 
      "inputs": [[84, 0, 0]]
    }, 
    {
      "op": "random_uniform", 
      "name": "random_uniform140", 
      "attr": {
        "high": "1", 
        "low": "1", 
        "shape": "(1, 1)"
      }, 
      "inputs": []
    }, 
    {
      "op": "Dropout", 
      "name": "dropout163", 
      "attr": {"p": "0.075"}, 
      "inputs": [[86, 0, 0]]
    }, 
    {
      "op": "broadcast_add", 
      "name": "broadcast_add140", 
      "inputs": [[85, 0, 0], [87, 0, 0]]
    }, 
    {
      "op": "null", 
      "name": "convolution424_weight", 
      "attr": {
        "kernel": "1", 
        "no_bias": "1", 
        "num_filter": "64", 
        "pad": "0", 
        "stride": "2"
      }, 
      "inputs": []
    }, 
    {
      "op": "Convolution", 
      "name": "convolution424", 
      "attr": {
        "kernel": "1", 
        "no_bias": "1", 
        "num_filter": "64", 
        "pad": "0", 
        "stride": "2"
      }, 
      "inputs": [[83, 0, 0], [89, 0, 0]]
    }, 
    {
      "op": "null", 
      "name": "batchnorm424_gamma", 
      "attr": {
        "eps": "2e-005", 
        "fix_gamma": "0", 
        "momentum": "0.9"
      }, 
      "inputs": []
    }, 
    {
      "op": "null", 
      "name": "batchnorm424_beta", 
      "attr": {
        "eps": "2e-005", 
        "fix_gamma": "0", 
        "momentum": "0.9"
      }, 
      "inputs": []
    }, 
    {
      "op": "null", 
      "name": "batchnorm424_moving_mean", 
      "attr": {
        "__init__": "[\"zero\", {}]", 
        "eps": "2e-005", 
        "fix_gamma": "0", 
        "momentum": "0.9"
      }, 
      "inputs": []
    }, 
    {
      "op": "null", 
      "name": "batchnorm424_moving_var", 
      "attr": {
        "__init__": "[\"one\", {}]", 
        "eps": "2e-005", 
        "fix_gamma": "0", 
        "momentum": "0.9"
      }, 
      "inputs": []
    }, 
    {
      "op": "BatchNorm", 
      "name": "batchnorm424", 
      "attr": {
        "eps": "2e-005", 
        "fix_gamma": "0", 
        "momentum": "0.9"
      }, 
      "inputs": [[90, 0, 0], [91, 0, 0], [92, 0, 0], [93, 0, 1], [94, 0, 1]]
    }, 
    {
      "op": "null", 
      "name": "convolution422_weight", 
      "attr": {
        "kernel": "3", 
        "no_bias": "1", 
        "num_filter": "64", 
        "pad": "1", 
        "stride": "2"
      }, 
      "inputs": []
    }, 
    {
      "op": "Convolution", 
      "name": "convolution422", 
      "attr": {
        "kernel": "3", 
        "no_bias": "1", 
        "num_filter": "64", 
        "pad": "1", 
        "stride": "2"
      }, 
      "inputs": [[83, 0, 0], [96, 0, 0]]
    }, 
    {
      "op": "null", 
      "name": "batchnorm422_gamma", 
      "attr": {
        "eps": "2e-005", 
        "fix_gamma": "0", 
        "momentum": "0.9"
      }, 
      "inputs": []
    }, 
    {
      "op": "null", 
      "name": "batchnorm422_beta", 
      "attr": {
        "eps": "2e-005", 
        "fix_gamma": "0", 
        "momentum": "0.9"
      }, 
      "inputs": []
    }, 
    {
      "op": "null", 
      "name": "batchnorm422_moving_mean", 
      "attr": {
        "__init__": "[\"zero\", {}]", 
        "eps": "2e-005", 
        "fix_gamma": "0", 
        "momentum": "0.9"
      }, 
      "inputs": []
    }, 
    {
      "op": "null", 
      "name": "batchnorm422_moving_var", 
      "attr": {
        "__init__": "[\"one\", {}]", 
        "eps": "2e-005", 
        "fix_gamma": "0", 
        "momentum": "0.9"
      }, 
      "inputs": []
    }, 
    {
      "op": "BatchNorm", 
      "name": "batchnorm422", 
      "attr": {
        "eps": "2e-005", 
        "fix_gamma": "0", 
        "momentum": "0.9"
      }, 
      "inputs": [[97, 0, 0], [98, 0, 0], [99, 0, 0], [100, 0, 1], [101, 0, 1]]
    }, 
    {
      "op": "LeakyReLU", 
      "name": "leakyrelu376", 
      "attr": {"act_type": "rrelu"}, 
      "inputs": [[102, 0, 0]]
    }, 
    {
      "op": "null", 
      "name": "convolution423_weight", 
      "attr": {
        "kernel": "3", 
        "no_bias": "1", 
        "num_filter": "64", 
        "pad": "1", 
        "stride": "1"
      }, 
      "inputs": []
    }, 
    {
      "op": "Convolution", 
      "name": "convolution423", 
      "attr": {
        "kernel": "3", 
        "no_bias": "1", 
        "num_filter": "64", 
        "pad": "1", 
        "stride": "1"
      }, 
      "inputs": [[103, 0, 0], [104, 0, 0]]
    }, 
    {
      "op": "null", 
      "name": "batchnorm423_gamma", 
      "attr": {
        "eps": "2e-005", 
        "fix_gamma": "0", 
        "momentum": "0.9"
      }, 
      "inputs": []
    }, 
    {
      "op": "null", 
      "name": "batchnorm423_beta", 
      "attr": {
        "eps": "2e-005", 
        "fix_gamma": "0", 
        "momentum": "0.9"
      }, 
      "inputs": []
    }, 
    {
      "op": "null", 
      "name": "batchnorm423_moving_mean", 
      "attr": {
        "__init__": "[\"zero\", {}]", 
        "eps": "2e-005", 
        "fix_gamma": "0", 
        "momentum": "0.9"
      }, 
      "inputs": []
    }, 
    {
      "op": "null", 
      "name": "batchnorm423_moving_var", 
      "attr": {
        "__init__": "[\"one\", {}]", 
        "eps": "2e-005", 
        "fix_gamma": "0", 
        "momentum": "0.9"
      }, 
      "inputs": []
    }, 
    {
      "op": "BatchNorm", 
      "name": "batchnorm423", 
      "attr": {
        "eps": "2e-005", 
        "fix_gamma": "0", 
        "momentum": "0.9"
      }, 
      "inputs": [[105, 0, 0], [106, 0, 0], [107, 0, 0], [108, 0, 1], [109, 0, 1]]
    }, 
    {
      "op": "broadcast_mul", 
      "name": "broadcast_mul163", 
      "inputs": [[87, 0, 0], [110, 0, 0]]
    }, 
    {
      "op": "elemwise_add", 
      "name": "_plus163", 
      "inputs": [[95, 0, 0], [111, 0, 0]]
    }, 
    {
      "op": "where", 
      "name": "where140", 
      "inputs": [[88, 0, 0], [112, 0, 0], [95, 0, 0]]
    }, 
    {
      "op": "LeakyReLU", 
      "name": "leakyrelu377", 
      "attr": {"act_type": "rrelu"}, 
      "inputs": [[113, 0, 0]]
    }, 
    {
      "op": "zeros_like", 
      "name": "zeros_like141", 
      "inputs": [[114, 0, 0]]
    }, 
    {
      "op": "sum", 
      "name": "sum_axis210", 
      "attr": {
        "axis": "0", 
        "exclude": "1", 
        "keepdims": "0"
      }, 
      "inputs": [[115, 0, 0]]
    }, 
    {
      "op": "random_uniform", 
      "name": "random_uniform141", 
      "attr": {
        "high": "1", 
        "low": "1", 
        "shape": "(1, 1)"
      }, 
      "inputs": []
    }, 
    {
      "op": "Dropout", 
      "name": "dropout164", 
      "attr": {"p": "0.1"}, 
      "inputs": [[117, 0, 0]]
    }, 
    {
      "op": "broadcast_add", 
      "name": "broadcast_add141", 
      "inputs": [[116, 0, 0], [118, 0, 0]]
    }, 
    {
      "op": "null", 
      "name": "convolution425_weight", 
      "attr": {
        "kernel": "3", 
        "no_bias": "1", 
        "num_filter": "64", 
        "pad": "1", 
        "stride": "1"
      }, 
      "inputs": []
    }, 
    {
      "op": "Convolution", 
      "name": "convolution425", 
      "attr": {
        "kernel": "3", 
        "no_bias": "1", 
        "num_filter": "64", 
        "pad": "1", 
        "stride": "1"
      }, 
      "inputs": [[114, 0, 0], [120, 0, 0]]
    }, 
    {
      "op": "null", 
      "name": "batchnorm425_gamma", 
      "attr": {
        "eps": "2e-005", 
        "fix_gamma": "0", 
        "momentum": "0.9"
      }, 
      "inputs": []
    }, 
    {
      "op": "null", 
      "name": "batchnorm425_beta", 
      "attr": {
        "eps": "2e-005", 
        "fix_gamma": "0", 
        "momentum": "0.9"
      }, 
      "inputs": []
    }, 
    {
      "op": "null", 
      "name": "batchnorm425_moving_mean", 
      "attr": {
        "__init__": "[\"zero\", {}]", 
        "eps": "2e-005", 
        "fix_gamma": "0", 
        "momentum": "0.9"
      }, 
      "inputs": []
    }, 
    {
      "op": "null", 
      "name": "batchnorm425_moving_var", 
      "attr": {
        "__init__": "[\"one\", {}]", 
        "eps": "2e-005", 
        "fix_gamma": "0", 
        "momentum": "0.9"
      }, 
      "inputs": []
    }, 
    {
      "op": "BatchNorm", 
      "name": "batchnorm425", 
      "attr": {
        "eps": "2e-005", 
        "fix_gamma": "0", 
        "momentum": "0.9"
      }, 
      "inputs": [[121, 0, 0], [122, 0, 0], [123, 0, 0], [124, 0, 1], [125, 0, 1]]
    }, 
    {
      "op": "LeakyReLU", 
      "name": "leakyrelu378", 
      "attr": {"act_type": "rrelu"}, 
      "inputs": [[126, 0, 0]]
    }, 
    {
      "op": "null", 
      "name": "convolution426_weight", 
      "attr": {
        "kernel": "3", 
        "no_bias": "1", 
        "num_filter": "64", 
        "pad": "1", 
        "stride": "1"
      }, 
      "inputs": []
    }, 
    {
      "op": "Convolution", 
      "name": "convolution426", 
      "attr": {
        "kernel": "3", 
        "no_bias": "1", 
        "num_filter": "64", 
        "pad": "1", 
        "stride": "1"
      }, 
      "inputs": [[127, 0, 0], [128, 0, 0]]
    }, 
    {
      "op": "null", 
      "name": "batchnorm426_gamma", 
      "attr": {
        "eps": "2e-005", 
        "fix_gamma": "0", 
        "momentum": "0.9"
      }, 
      "inputs": []
    }, 
    {
      "op": "null", 
      "name": "batchnorm426_beta", 
      "attr": {
        "eps": "2e-005", 
        "fix_gamma": "0", 
        "momentum": "0.9"
      }, 
      "inputs": []
    }, 
    {
      "op": "null", 
      "name": "batchnorm426_moving_mean", 
      "attr": {
        "__init__": "[\"zero\", {}]", 
        "eps": "2e-005", 
        "fix_gamma": "0", 
        "momentum": "0.9"
      }, 
      "inputs": []
    }, 
    {
      "op": "null", 
      "name": "batchnorm426_moving_var", 
      "attr": {
        "__init__": "[\"one\", {}]", 
        "eps": "2e-005", 
        "fix_gamma": "0", 
        "momentum": "0.9"
      }, 
      "inputs": []
    }, 
    {
      "op": "BatchNorm", 
      "name": "batchnorm426", 
      "attr": {
        "eps": "2e-005", 
        "fix_gamma": "0", 
        "momentum": "0.9"
      }, 
      "inputs": [[129, 0, 0], [130, 0, 0], [131, 0, 0], [132, 0, 1], [133, 0, 1]]
    }, 
    {
      "op": "broadcast_mul", 
      "name": "broadcast_mul164", 
      "inputs": [[118, 0, 0], [134, 0, 0]]
    }, 
    {
      "op": "elemwise_add", 
      "name": "_plus164", 
      "inputs": [[114, 0, 0], [135, 0, 0]]
    }, 
    {
      "op": "where", 
      "name": "where141", 
      "inputs": [[119, 0, 0], [136, 0, 0], [114, 0, 0]]
    }, 
    {
      "op": "LeakyReLU", 
      "name": "leakyrelu379", 
      "attr": {"act_type": "rrelu"}, 
      "inputs": [[137, 0, 0]]
    }, 
    {
      "op": "zeros_like", 
      "name": "zeros_like142", 
      "inputs": [[138, 0, 0]]
    }, 
    {
      "op": "sum", 
      "name": "sum_axis211", 
      "attr": {
        "axis": "0", 
        "exclude": "1", 
        "keepdims": "0"
      }, 
      "inputs": [[139, 0, 0]]
    }, 
    {
      "op": "random_uniform", 
      "name": "random_uniform142", 
      "attr": {
        "high": "1", 
        "low": "1", 
        "shape": "(1, 1)"
      }, 
      "inputs": []
    }, 
    {
      "op": "Dropout", 
      "name": "dropout165", 
      "attr": {"p": "0.125"}, 
      "inputs": [[141, 0, 0]]
    }, 
    {
      "op": "broadcast_add", 
      "name": "broadcast_add142", 
      "inputs": [[140, 0, 0], [142, 0, 0]]
    }, 
    {
      "op": "null", 
      "name": "convolution429_weight", 
      "attr": {
        "kernel": "1", 
        "no_bias": "1", 
        "num_filter": "128", 
        "pad": "0", 
        "stride": "2"
      }, 
      "inputs": []
    }, 
    {
      "op": "Convolution", 
      "name": "convolution429", 
      "attr": {
        "kernel": "1", 
        "no_bias": "1", 
        "num_filter": "128", 
        "pad": "0", 
        "stride": "2"
      }, 
      "inputs": [[138, 0, 0], [144, 0, 0]]
    }, 
    {
      "op": "null", 
      "name": "batchnorm429_gamma", 
      "attr": {
        "eps": "2e-005", 
        "fix_gamma": "0", 
        "momentum": "0.9"
      }, 
      "inputs": []
    }, 
    {
      "op": "null", 
      "name": "batchnorm429_beta", 
      "attr": {
        "eps": "2e-005", 
        "fix_gamma": "0", 
        "momentum": "0.9"
      }, 
      "inputs": []
    }, 
    {
      "op": "null", 
      "name": "batchnorm429_moving_mean", 
      "attr": {
        "__init__": "[\"zero\", {}]", 
        "eps": "2e-005", 
        "fix_gamma": "0", 
        "momentum": "0.9"
      }, 
      "inputs": []
    }, 
    {
      "op": "null", 
      "name": "batchnorm429_moving_var", 
      "attr": {
        "__init__": "[\"one\", {}]", 
        "eps": "2e-005", 
        "fix_gamma": "0", 
        "momentum": "0.9"
      }, 
      "inputs": []
    }, 
    {
      "op": "BatchNorm", 
      "name": "batchnorm429", 
      "attr": {
        "eps": "2e-005", 
        "fix_gamma": "0", 
        "momentum": "0.9"
      }, 
      "inputs": [[145, 0, 0], [146, 0, 0], [147, 0, 0], [148, 0, 1], [149, 0, 1]]
    }, 
    {
      "op": "null", 
      "name": "convolution427_weight", 
      "attr": {
        "kernel": "3", 
        "no_bias": "1", 
        "num_filter": "128", 
        "pad": "1", 
        "stride": "2"
      }, 
      "inputs": []
    }, 
    {
      "op": "Convolution", 
      "name": "convolution427", 
      "attr": {
        "kernel": "3", 
        "no_bias": "1", 
        "num_filter": "128", 
        "pad": "1", 
        "stride": "2"
      }, 
      "inputs": [[138, 0, 0], [151, 0, 0]]
    }, 
    {
      "op": "null", 
      "name": "batchnorm427_gamma", 
      "attr": {
        "eps": "2e-005", 
        "fix_gamma": "0", 
        "momentum": "0.9"
      }, 
      "inputs": []
    }, 
    {
      "op": "null", 
      "name": "batchnorm427_beta", 
      "attr": {
        "eps": "2e-005", 
        "fix_gamma": "0", 
        "momentum": "0.9"
      }, 
      "inputs": []
    }, 
    {
      "op": "null", 
      "name": "batchnorm427_moving_mean", 
      "attr": {
        "__init__": "[\"zero\", {}]", 
        "eps": "2e-005", 
        "fix_gamma": "0", 
        "momentum": "0.9"
      }, 
      "inputs": []
    }, 
    {
      "op": "null", 
      "name": "batchnorm427_moving_var", 
      "attr": {
        "__init__": "[\"one\", {}]", 
        "eps": "2e-005", 
        "fix_gamma": "0", 
        "momentum": "0.9"
      }, 
      "inputs": []
    }, 
    {
      "op": "BatchNorm", 
      "name": "batchnorm427", 
      "attr": {
        "eps": "2e-005", 
        "fix_gamma": "0", 
        "momentum": "0.9"
      }, 
      "inputs": [[152, 0, 0], [153, 0, 0], [154, 0, 0], [155, 0, 1], [156, 0, 1]]
    }, 
    {
      "op": "LeakyReLU", 
      "name": "leakyrelu380", 
      "attr": {"act_type": "rrelu"}, 
      "inputs": [[157, 0, 0]]
    }, 
    {
      "op": "null", 
      "name": "convolution428_weight", 
      "attr": {
        "kernel": "3", 
        "no_bias": "1", 
        "num_filter": "128", 
        "pad": "1", 
        "stride": "1"
      }, 
      "inputs": []
    }, 
    {
      "op": "Convolution", 
      "name": "convolution428", 
      "attr": {
        "kernel": "3", 
        "no_bias": "1", 
        "num_filter": "128", 
        "pad": "1", 
        "stride": "1"
      }, 
      "inputs": [[158, 0, 0], [159, 0, 0]]
    }, 
    {
      "op": "null", 
      "name": "batchnorm428_gamma", 
      "attr": {
        "eps": "2e-005", 
        "fix_gamma": "0", 
        "momentum": "0.9"
      }, 
      "inputs": []
    }, 
    {
      "op": "null", 
      "name": "batchnorm428_beta", 
      "attr": {
        "eps": "2e-005", 
        "fix_gamma": "0", 
        "momentum": "0.9"
      }, 
      "inputs": []
    }, 
    {
      "op": "null", 
      "name": "batchnorm428_moving_mean", 
      "attr": {
        "__init__": "[\"zero\", {}]", 
        "eps": "2e-005", 
        "fix_gamma": "0", 
        "momentum": "0.9"
      }, 
      "inputs": []
    }, 
    {
      "op": "null", 
      "name": "batchnorm428_moving_var", 
      "attr": {
        "__init__": "[\"one\", {}]", 
        "eps": "2e-005", 
        "fix_gamma": "0", 
        "momentum": "0.9"
      }, 
      "inputs": []
    }, 
    {
      "op": "BatchNorm", 
      "name": "batchnorm428", 
      "attr": {
        "eps": "2e-005", 
        "fix_gamma": "0", 
        "momentum": "0.9"
      }, 
      "inputs": [[160, 0, 0], [161, 0, 0], [162, 0, 0], [163, 0, 1], [164, 0, 1]]
    }, 
    {
      "op": "broadcast_mul", 
      "name": "broadcast_mul165", 
      "inputs": [[142, 0, 0], [165, 0, 0]]
    }, 
    {
      "op": "elemwise_add", 
      "name": "_plus165", 
      "inputs": [[150, 0, 0], [166, 0, 0]]
    }, 
    {
      "op": "where", 
      "name": "where142", 
      "inputs": [[143, 0, 0], [167, 0, 0], [150, 0, 0]]
    }, 
    {
      "op": "LeakyReLU", 
      "name": "leakyrelu381", 
      "attr": {"act_type": "rrelu"}, 
      "inputs": [[168, 0, 0]]
    }, 
    {
      "op": "zeros_like", 
      "name": "zeros_like143", 
      "inputs": [[169, 0, 0]]
    }, 
    {
      "op": "sum", 
      "name": "sum_axis212", 
      "attr": {
        "axis": "0", 
        "exclude": "1", 
        "keepdims": "0"
      }, 
      "inputs": [[170, 0, 0]]
    }, 
    {
      "op": "random_uniform", 
      "name": "random_uniform143", 
      "attr": {
        "high": "1", 
        "low": "1", 
        "shape": "(1, 1)"
      }, 
      "inputs": []
    }, 
    {
      "op": "Dropout", 
      "name": "dropout166", 
      "attr": {"p": "0.15"}, 
      "inputs": [[172, 0, 0]]
    }, 
    {
      "op": "broadcast_add", 
      "name": "broadcast_add143", 
      "inputs": [[171, 0, 0], [173, 0, 0]]
    }, 
    {
      "op": "null", 
      "name": "convolution430_weight", 
      "attr": {
        "kernel": "3", 
        "no_bias": "1", 
        "num_filter": "128", 
        "pad": "1", 
        "stride": "1"
      }, 
      "inputs": []
    }, 
    {
      "op": "Convolution", 
      "name": "convolution430", 
      "attr": {
        "kernel": "3", 
        "no_bias": "1", 
        "num_filter": "128", 
        "pad": "1", 
        "stride": "1"
      }, 
      "inputs": [[169, 0, 0], [175, 0, 0]]
    }, 
    {
      "op": "null", 
      "name": "batchnorm430_gamma", 
      "attr": {
        "eps": "2e-005", 
        "fix_gamma": "0", 
        "momentum": "0.9"
      }, 
      "inputs": []
    }, 
    {
      "op": "null", 
      "name": "batchnorm430_beta", 
      "attr": {
        "eps": "2e-005", 
        "fix_gamma": "0", 
        "momentum": "0.9"
      }, 
      "inputs": []
    }, 
    {
      "op": "null", 
      "name": "batchnorm430_moving_mean", 
      "attr": {
        "__init__": "[\"zero\", {}]", 
        "eps": "2e-005", 
        "fix_gamma": "0", 
        "momentum": "0.9"
      }, 
      "inputs": []
    }, 
    {
      "op": "null", 
      "name": "batchnorm430_moving_var", 
      "attr": {
        "__init__": "[\"one\", {}]", 
        "eps": "2e-005", 
        "fix_gamma": "0", 
        "momentum": "0.9"
      }, 
      "inputs": []
    }, 
    {
      "op": "BatchNorm", 
      "name": "batchnorm430", 
      "attr": {
        "eps": "2e-005", 
        "fix_gamma": "0", 
        "momentum": "0.9"
      }, 
      "inputs": [[176, 0, 0], [177, 0, 0], [178, 0, 0], [179, 0, 1], [180, 0, 1]]
    }, 
    {
      "op": "LeakyReLU", 
      "name": "leakyrelu382", 
      "attr": {"act_type": "rrelu"}, 
      "inputs": [[181, 0, 0]]
    }, 
    {
      "op": "null", 
      "name": "convolution431_weight", 
      "attr": {
        "kernel": "3", 
        "no_bias": "1", 
        "num_filter": "128", 
        "pad": "1", 
        "stride": "1"
      }, 
      "inputs": []
    }, 
    {
      "op": "Convolution", 
      "name": "convolution431", 
      "attr": {
        "kernel": "3", 
        "no_bias": "1", 
        "num_filter": "128", 
        "pad": "1", 
        "stride": "1"
      }, 
      "inputs": [[182, 0, 0], [183, 0, 0]]
    }, 
    {
      "op": "null", 
      "name": "batchnorm431_gamma", 
      "attr": {
        "eps": "2e-005", 
        "fix_gamma": "0", 
        "momentum": "0.9"
      }, 
      "inputs": []
    }, 
    {
      "op": "null", 
      "name": "batchnorm431_beta", 
      "attr": {
        "eps": "2e-005", 
        "fix_gamma": "0", 
        "momentum": "0.9"
      }, 
      "inputs": []
    }, 
    {
      "op": "null", 
      "name": "batchnorm431_moving_mean", 
      "attr": {
        "__init__": "[\"zero\", {}]", 
        "eps": "2e-005", 
        "fix_gamma": "0", 
        "momentum": "0.9"
      }, 
      "inputs": []
    }, 
    {
      "op": "null", 
      "name": "batchnorm431_moving_var", 
      "attr": {
        "__init__": "[\"one\", {}]", 
        "eps": "2e-005", 
        "fix_gamma": "0", 
        "momentum": "0.9"
      }, 
      "inputs": []
    }, 
    {
      "op": "BatchNorm", 
      "name": "batchnorm431", 
      "attr": {
        "eps": "2e-005", 
        "fix_gamma": "0", 
        "momentum": "0.9"
      }, 
      "inputs": [[184, 0, 0], [185, 0, 0], [186, 0, 0], [187, 0, 1], [188, 0, 1]]
    }, 
    {
      "op": "broadcast_mul", 
      "name": "broadcast_mul166", 
      "inputs": [[173, 0, 0], [189, 0, 0]]
    }, 
    {
      "op": "elemwise_add", 
      "name": "_plus166", 
      "inputs": [[169, 0, 0], [190, 0, 0]]
    }, 
    {
      "op": "where", 
      "name": "where143", 
      "inputs": [[174, 0, 0], [191, 0, 0], [169, 0, 0]]
    }, 
    {
      "op": "LeakyReLU", 
      "name": "leakyrelu383", 
      "attr": {"act_type": "rrelu"}, 
      "inputs": [[192, 0, 0]]
    }, 
    {
      "op": "zeros_like", 
      "name": "zeros_like144", 
      "inputs": [[193, 0, 0]]
    }, 
    {
      "op": "sum", 
      "name": "sum_axis213", 
      "attr": {
        "axis": "0", 
        "exclude": "1", 
        "keepdims": "0"
      }, 
      "inputs": [[194, 0, 0]]
    }, 
    {
      "op": "random_uniform", 
      "name": "random_uniform144", 
      "attr": {
        "high": "1", 
        "low": "1", 
        "shape": "(1, 1)"
      }, 
      "inputs": []
    }, 
    {
      "op": "Dropout", 
      "name": "dropout167", 
      "attr": {"p": "0.175"}, 
      "inputs": [[196, 0, 0]]
    }, 
    {
      "op": "broadcast_add", 
      "name": "broadcast_add144", 
      "inputs": [[195, 0, 0], [197, 0, 0]]
    }, 
    {
      "op": "null", 
      "name": "convolution434_weight", 
      "attr": {
        "kernel": "1", 
        "no_bias": "1", 
        "num_filter": "256", 
        "pad": "0", 
        "stride": "2"
      }, 
      "inputs": []
    }, 
    {
      "op": "Convolution", 
      "name": "convolution434", 
      "attr": {
        "kernel": "1", 
        "no_bias": "1", 
        "num_filter": "256", 
        "pad": "0", 
        "stride": "2"
      }, 
      "inputs": [[193, 0, 0], [199, 0, 0]]
    }, 
    {
      "op": "null", 
      "name": "batchnorm434_gamma", 
      "attr": {
        "eps": "2e-005", 
        "fix_gamma": "0", 
        "momentum": "0.9"
      }, 
      "inputs": []
    }, 
    {
      "op": "null", 
      "name": "batchnorm434_beta", 
      "attr": {
        "eps": "2e-005", 
        "fix_gamma": "0", 
        "momentum": "0.9"
      }, 
      "inputs": []
    }, 
    {
      "op": "null", 
      "name": "batchnorm434_moving_mean", 
      "attr": {
        "__init__": "[\"zero\", {}]", 
        "eps": "2e-005", 
        "fix_gamma": "0", 
        "momentum": "0.9"
      }, 
      "inputs": []
    }, 
    {
      "op": "null", 
      "name": "batchnorm434_moving_var", 
      "attr": {
        "__init__": "[\"one\", {}]", 
        "eps": "2e-005", 
        "fix_gamma": "0", 
        "momentum": "0.9"
      }, 
      "inputs": []
    }, 
    {
      "op": "BatchNorm", 
      "name": "batchnorm434", 
      "attr": {
        "eps": "2e-005", 
        "fix_gamma": "0", 
        "momentum": "0.9"
      }, 
      "inputs": [[200, 0, 0], [201, 0, 0], [202, 0, 0], [203, 0, 1], [204, 0, 1]]
    }, 
    {
      "op": "null", 
      "name": "convolution432_weight", 
      "attr": {
        "kernel": "3", 
        "no_bias": "1", 
        "num_filter": "256", 
        "pad": "1", 
        "stride": "2"
      }, 
      "inputs": []
    }, 
    {
      "op": "Convolution", 
      "name": "convolution432", 
      "attr": {
        "kernel": "3", 
        "no_bias": "1", 
        "num_filter": "256", 
        "pad": "1", 
        "stride": "2"
      }, 
      "inputs": [[193, 0, 0], [206, 0, 0]]
    }, 
    {
      "op": "null", 
      "name": "batchnorm432_gamma", 
      "attr": {
        "eps": "2e-005", 
        "fix_gamma": "0", 
        "momentum": "0.9"
      }, 
      "inputs": []
    }, 
    {
      "op": "null", 
      "name": "batchnorm432_beta", 
      "attr": {
        "eps": "2e-005", 
        "fix_gamma": "0", 
        "momentum": "0.9"
      }, 
      "inputs": []
    }, 
    {
      "op": "null", 
      "name": "batchnorm432_moving_mean", 
      "attr": {
        "__init__": "[\"zero\", {}]", 
        "eps": "2e-005", 
        "fix_gamma": "0", 
        "momentum": "0.9"
      }, 
      "inputs": []
    }, 
    {
      "op": "null", 
      "name": "batchnorm432_moving_var", 
      "attr": {
        "__init__": "[\"one\", {}]", 
        "eps": "2e-005", 
        "fix_gamma": "0", 
        "momentum": "0.9"
      }, 
      "inputs": []
    }, 
    {
      "op": "BatchNorm", 
      "name": "batchnorm432", 
      "attr": {
        "eps": "2e-005", 
        "fix_gamma": "0", 
        "momentum": "0.9"
      }, 
      "inputs": [[207, 0, 0], [208, 0, 0], [209, 0, 0], [210, 0, 1], [211, 0, 1]]
    }, 
    {
      "op": "LeakyReLU", 
      "name": "leakyrelu384", 
      "attr": {"act_type": "rrelu"}, 
      "inputs": [[212, 0, 0]]
    }, 
    {
      "op": "null", 
      "name": "convolution433_weight", 
      "attr": {
        "kernel": "3", 
        "no_bias": "1", 
        "num_filter": "256", 
        "pad": "1", 
        "stride": "1"
      }, 
      "inputs": []
    }, 
    {
      "op": "Convolution", 
      "name": "convolution433", 
      "attr": {
        "kernel": "3", 
        "no_bias": "1", 
        "num_filter": "256", 
        "pad": "1", 
        "stride": "1"
      }, 
      "inputs": [[213, 0, 0], [214, 0, 0]]
    }, 
    {
      "op": "null", 
      "name": "batchnorm433_gamma", 
      "attr": {
        "eps": "2e-005", 
        "fix_gamma": "0", 
        "momentum": "0.9"
      }, 
      "inputs": []
    }, 
    {
      "op": "null", 
      "name": "batchnorm433_beta", 
      "attr": {
        "eps": "2e-005", 
        "fix_gamma": "0", 
        "momentum": "0.9"
      }, 
      "inputs": []
    }, 
    {
      "op": "null", 
      "name": "batchnorm433_moving_mean", 
      "attr": {
        "__init__": "[\"zero\", {}]", 
        "eps": "2e-005", 
        "fix_gamma": "0", 
        "momentum": "0.9"
      }, 
      "inputs": []
    }, 
    {
      "op": "null", 
      "name": "batchnorm433_moving_var", 
      "attr": {
        "__init__": "[\"one\", {}]", 
        "eps": "2e-005", 
        "fix_gamma": "0", 
        "momentum": "0.9"
      }, 
      "inputs": []
    }, 
    {
      "op": "BatchNorm", 
      "name": "batchnorm433", 
      "attr": {
        "eps": "2e-005", 
        "fix_gamma": "0", 
        "momentum": "0.9"
      }, 
      "inputs": [[215, 0, 0], [216, 0, 0], [217, 0, 0], [218, 0, 1], [219, 0, 1]]
    }, 
    {
      "op": "broadcast_mul", 
      "name": "broadcast_mul167", 
      "inputs": [[197, 0, 0], [220, 0, 0]]
    }, 
    {
      "op": "elemwise_add", 
      "name": "_plus167", 
      "inputs": [[205, 0, 0], [221, 0, 0]]
    }, 
    {
      "op": "where", 
      "name": "where144", 
      "inputs": [[198, 0, 0], [222, 0, 0], [205, 0, 0]]
    }, 
    {
      "op": "LeakyReLU", 
      "name": "leakyrelu385", 
      "attr": {"act_type": "rrelu"}, 
      "inputs": [[223, 0, 0]]
    }, 
    {
      "op": "zeros_like", 
      "name": "zeros_like145", 
      "inputs": [[224, 0, 0]]
    }, 
    {
      "op": "sum", 
      "name": "sum_axis214", 
      "attr": {
        "axis": "0", 
        "exclude": "1", 
        "keepdims": "0"
      }, 
      "inputs": [[225, 0, 0]]
    }, 
    {
      "op": "random_uniform", 
      "name": "random_uniform145", 
      "attr": {
        "high": "1", 
        "low": "1", 
        "shape": "(1, 1)"
      }, 
      "inputs": []
    }, 
    {
      "op": "Dropout", 
      "name": "dropout168", 
      "attr": {"p": "0.2"}, 
      "inputs": [[227, 0, 0]]
    }, 
    {
      "op": "broadcast_add", 
      "name": "broadcast_add145", 
      "inputs": [[226, 0, 0], [228, 0, 0]]
    }, 
    {
      "op": "null", 
      "name": "convolution435_weight", 
      "attr": {
        "kernel": "3", 
        "no_bias": "1", 
        "num_filter": "256", 
        "pad": "1", 
        "stride": "1"
      }, 
      "inputs": []
    }, 
    {
      "op": "Convolution", 
      "name": "convolution435", 
      "attr": {
        "kernel": "3", 
        "no_bias": "1", 
        "num_filter": "256", 
        "pad": "1", 
        "stride": "1"
      }, 
      "inputs": [[224, 0, 0], [230, 0, 0]]
    }, 
    {
      "op": "null", 
      "name": "batchnorm435_gamma", 
      "attr": {
        "eps": "2e-005", 
        "fix_gamma": "0", 
        "momentum": "0.9"
      }, 
      "inputs": []
    }, 
    {
      "op": "null", 
      "name": "batchnorm435_beta", 
      "attr": {
        "eps": "2e-005", 
        "fix_gamma": "0", 
        "momentum": "0.9"
      }, 
      "inputs": []
    }, 
    {
      "op": "null", 
      "name": "batchnorm435_moving_mean", 
      "attr": {
        "__init__": "[\"zero\", {}]", 
        "eps": "2e-005", 
        "fix_gamma": "0", 
        "momentum": "0.9"
      }, 
      "inputs": []
    }, 
    {
      "op": "null", 
      "name": "batchnorm435_moving_var", 
      "attr": {
        "__init__": "[\"one\", {}]", 
        "eps": "2e-005", 
        "fix_gamma": "0", 
        "momentum": "0.9"
      }, 
      "inputs": []
    }, 
    {
      "op": "BatchNorm", 
      "name": "batchnorm435", 
      "attr": {
        "eps": "2e-005", 
        "fix_gamma": "0", 
        "momentum": "0.9"
      }, 
      "inputs": [[231, 0, 0], [232, 0, 0], [233, 0, 0], [234, 0, 1], [235, 0, 1]]
    }, 
    {
      "op": "LeakyReLU", 
      "name": "leakyrelu386", 
      "attr": {"act_type": "rrelu"}, 
      "inputs": [[236, 0, 0]]
    }, 
    {
      "op": "null", 
      "name": "convolution436_weight", 
      "attr": {
        "kernel": "3", 
        "no_bias": "1", 
        "num_filter": "256", 
        "pad": "1", 
        "stride": "1"
      }, 
      "inputs": []
    }, 
    {
      "op": "Convolution", 
      "name": "convolution436", 
      "attr": {
        "kernel": "3", 
        "no_bias": "1", 
        "num_filter": "256", 
        "pad": "1", 
        "stride": "1"
      }, 
      "inputs": [[237, 0, 0], [238, 0, 0]]
    }, 
    {
      "op": "null", 
      "name": "batchnorm436_gamma", 
      "attr": {
        "eps": "2e-005", 
        "fix_gamma": "0", 
        "momentum": "0.9"
      }, 
      "inputs": []
    }, 
    {
      "op": "null", 
      "name": "batchnorm436_beta", 
      "attr": {
        "eps": "2e-005", 
        "fix_gamma": "0", 
        "momentum": "0.9"
      }, 
      "inputs": []
    }, 
    {
      "op": "null", 
      "name": "batchnorm436_moving_mean", 
      "attr": {
        "__init__": "[\"zero\", {}]", 
        "eps": "2e-005", 
        "fix_gamma": "0", 
        "momentum": "0.9"
      }, 
      "inputs": []
    }, 
    {
      "op": "null", 
      "name": "batchnorm436_moving_var", 
      "attr": {
        "__init__": "[\"one\", {}]", 
        "eps": "2e-005", 
        "fix_gamma": "0", 
        "momentum": "0.9"
      }, 
      "inputs": []
    }, 
    {
      "op": "BatchNorm", 
      "name": "batchnorm436", 
      "attr": {
        "eps": "2e-005", 
        "fix_gamma": "0", 
        "momentum": "0.9"
      }, 
      "inputs": [[239, 0, 0], [240, 0, 0], [241, 0, 0], [242, 0, 1], [243, 0, 1]]
    }, 
    {
      "op": "broadcast_mul", 
      "name": "broadcast_mul168", 
      "inputs": [[228, 0, 0], [244, 0, 0]]
    }, 
    {
      "op": "elemwise_add", 
      "name": "_plus168", 
      "inputs": [[224, 0, 0], [245, 0, 0]]
    }, 
    {
      "op": "where", 
      "name": "where145", 
      "inputs": [[229, 0, 0], [246, 0, 0], [224, 0, 0]]
    }, 
    {
      "op": "LeakyReLU", 
      "name": "leakyrelu387", 
      "attr": {"act_type": "rrelu"}, 
      "inputs": [[247, 0, 0]]
    }, 
    {
      "op": "Pooling", 
      "name": "poolFinal", 
      "attr": {
        "global_pool": "1", 
        "kernel": "7", 
        "pool_type": "avg"
      }, 
      "inputs": [[248, 0, 0]]
    }, 
    {
      "op": "Flatten", 
      "name": "flatten", 
      "inputs": [[249, 0, 0]]
    }, 
    {
      "op": "Dropout", 
      "name": "dropout169", 
      "attr": {"p": "0.2"}, 
      "inputs": [[250, 0, 0]]
    }, 
    {
      "op": "null", 
      "name": "fcFinal_weight", 
      "attr": {"num_hidden": "32"}, 
      "inputs": []
    }, 
    {
      "op": "null", 
      "name": "fcFinal_bias", 
      "attr": {"num_hidden": "32"}, 
      "inputs": []
    }, 
    {
      "op": "FullyConnected", 
      "name": "fcFinal", 
      "attr": {"num_hidden": "32"}, 
      "inputs": [[251, 0, 0], [252, 0, 0], [253, 0, 0]]
    }, 
    {
      "op": "L2Normalization", 
      "name": "anchor", 
      "inputs": [[254, 0, 0]]
    }
  ], 
  "arg_nodes": [
    0, 
    1, 
    3, 
    4, 
    5, 
    6, 
    9, 
    11, 
    12, 
    13, 
    14, 
    17, 
    18, 
    20, 
    21, 
    22, 
    23, 
    26, 
    28, 
    29, 
    30, 
    31, 
    41, 
    43, 
    44, 
    45, 
    46, 
    49, 
    51, 
    52, 
    53, 
    54, 
    65, 
    67, 
    68, 
    69, 
    70, 
    73, 
    75, 
    76, 
    77, 
    78, 
    89, 
    91, 
    92, 
    93, 
    94, 
    96, 
    98, 
    99, 
    100, 
    101, 
    104, 
    106, 
    107, 
    108, 
    109, 
    120, 
    122, 
    123, 
    124, 
    125, 
    128, 
    130, 
    131, 
    132, 
    133, 
    144, 
    146, 
    147, 
    148, 
    149, 
    151, 
    153, 
    154, 
    155, 
    156, 
    159, 
    161, 
    162, 
    163, 
    164, 
    175, 
    177, 
    178, 
    179, 
    180, 
    183, 
    185, 
    186, 
    187, 
    188, 
    199, 
    201, 
    202, 
    203, 
    204, 
    206, 
    208, 
    209, 
    210, 
    211, 
    214, 
    216, 
    217, 
    218, 
    219, 
    230, 
    232, 
    233, 
    234, 
    235, 
    238, 
    240, 
    241, 
    242, 
    243, 
    252, 
    253
  ], 
  "node_row_ptr": [
    0, 
    1, 
    2, 
    3, 
    4, 
    5, 
    6, 
    7, 
    10, 
    12, 
    13, 
    14, 
    15, 
    16, 
    17, 
    18, 
    21, 
    23, 
    24, 
    25, 
    26, 
    27, 
    28, 
    29, 
    30, 
    33, 
    35, 
    36, 
    37, 
    38, 
    39, 
    40, 
    41, 
    44, 
    46, 
    47, 
    48, 
    49, 
    50, 
    51, 
    53, 
    54, 
    55, 
    56, 
    57, 
    58, 
    59, 
    60, 
    63, 
    65, 
    66, 
    67, 
    68, 
    69, 
    70, 
    71, 
    74, 
    75, 
    76, 
    77, 
    79, 
    80, 
    81, 
    82, 
    84, 
    85, 
    86, 
    87, 
    88, 
    89, 
    90, 
    91, 
    94, 
    96, 
    97, 
    98, 
    99, 
    100, 
    101, 
    102, 
    105, 
    106, 
    107, 
    108, 
    110, 
    111, 
    112, 
    113, 
    115, 
    116, 
    117, 
    118, 
    119, 
    120, 
    121, 
    122, 
    125, 
    126, 
    127, 
    128, 
    129, 
    130, 
    131, 
    134, 
    136, 
    137, 
    138, 
    139, 
    140, 
    141, 
    142, 
    145, 
    146, 
    147, 
    148, 
    150, 
    151, 
    152, 
    153, 
    155, 
    156, 
    157, 
    158, 
    159, 
    160, 
    161, 
    162, 
    165, 
    167, 
    168, 
    169, 
    170, 
    171, 
    172, 
    173, 
    176, 
    177, 
    178, 
    179, 
    181, 
    182, 
    183, 
    184, 
    186, 
    187, 
    188, 
    189, 
    190, 
    191, 
    192, 
    193, 
    196, 
    197, 
    198, 
    199, 
    200, 
    201, 
    202, 
    205, 
    207, 
    208, 
    209, 
    210, 
    211, 
    212, 
    213, 
    216, 
    217, 
    218, 
    219, 
    221, 
    222, 
    223, 
    224, 
    226, 
    227, 
    228, 
    229, 
    230, 
    231, 
    232, 
    233, 
    236, 
    238, 
    239, 
    240, 
    241, 
    242, 
    243, 
    244, 
    247, 
    248, 
    249, 
    250, 
    252, 
    253, 
    254, 
    255, 
    257, 
    258, 
    259, 
    260, 
    261, 
    262, 
    263, 
    264, 
    267, 
    268, 
    269, 
    270, 
    271, 
    272, 
    273, 
    276, 
    278, 
    279, 
    280, 
    281, 
    282, 
    283, 
    284, 
    287, 
    288, 
    289, 
    290, 
    292, 
    293, 
    294, 
    295, 
    297, 
    298, 
    299, 
    300, 
    301, 
    302, 
    303, 
    304, 
    307, 
    309, 
    310, 
    311, 
    312, 
    313, 
    314, 
    315, 
    318, 
    319, 
    320, 
    321, 
    323, 
    324, 
    325, 
    327, 
    328, 
    329, 
    330, 
    332
  ], 
  "heads": [[255, 0, 0]], 
  "attrs": {"mxnet_version": ["int", 1001]}
}