{
  "nodes": [
    {
      "op": "null", 
      "name": "data", 
      "inputs": []
    }, 
    {
      "op": "_minus_scalar", 
      "name": "_minusscalar3", 
      "attrs": {"scalar": "0.5"}, 
      "inputs": [[0, 0, 0]]
    }, 
    {
      "op": "_mul_scalar", 
      "name": "_mulscalar327", 
      "attrs": {"scalar": "2"}, 
      "inputs": [[1, 0, 0]]
    }, 
    {
      "op": "Pad", 
      "name": "pad22", 
      "attrs": {
        "mode": "edge", 
        "pad_width": "(0, 0, 0, 0, 2, 2, 2, 2)"
      }, 
      "inputs": [[2, 0, 0]]
    }, 
    {
      "op": "null", 
      "name": "radius_5x5", 
      "inputs": []
    }, 
    {
      "op": "tile", 
      "name": "tile412", 
      "attrs": {"reps": "(4, 3, 1, 1)"}, 
      "inputs": [[4, 0, 0]]
    }, 
    {
      "op": "BlockGrad", 
      "name": "blockgrad520", 
      "inputs": [[5, 0, 0]]
    }, 
    {
      "op": "null", 
      "name": "param_1->1_[5,5]_initialConvs_0_Ord0_radial_(1,1,3,4)_weight", 
      "inputs": []
    }, 
    {
      "op": "broadcast_mul", 
      "name": "broadcast_mul347", 
      "inputs": [[6, 0, 0], [7, 0, 0]]
    }, 
    {
      "op": "null", 
      "name": "param_1->1_[5,5]_initialConvs_0_Ord0_radial_(1,1,3,4)_bias", 
      "inputs": []
    }, 
    {
      "op": "broadcast_add", 
      "name": "broadcast_add325", 
      "inputs": [[8, 0, 0], [9, 0, 0]]
    }, 
    {
      "op": "_mul_scalar", 
      "name": "_mulscalar328", 
      "attrs": {"scalar": "100"}, 
      "inputs": [[10, 0, 0]]
    }, 
    {
      "op": "tanh", 
      "name": "tanh195", 
      "inputs": [[11, 0, 0]]
    }, 
    {
      "op": "elemwise_mul", 
      "name": "_mul195", 
      "inputs": [[10, 0, 0], [12, 0, 0]]
    }, 
    {
      "op": "Concat", 
      "name": "sort_ins1_out1_Re_assm_[5,5]_initialConvs_0", 
      "attrs": {
        "dim": "1", 
        "num_args": "1"
      }, 
      "inputs": [[13, 0, 0]]
    }, 
    {
      "op": "null", 
      "name": "theta_5x5", 
      "inputs": []
    }, 
    {
      "op": "tile", 
      "name": "tile415", 
      "attrs": {"reps": "(4, 3, 1, 1)"}, 
      "inputs": [[15, 0, 0]]
    }, 
    {
      "op": "BlockGrad", 
      "name": "blockgrad523", 
      "inputs": [[16, 0, 0]]
    }, 
    {
      "op": "_mul_scalar", 
      "name": "_mulscalar330", 
      "attrs": {"scalar": "1"}, 
      "inputs": [[17, 0, 0]]
    }, 
    {
      "op": "tile", 
      "name": "tile414", 
      "attrs": {"reps": "(4, 3, 1, 1)"}, 
      "inputs": [[4, 0, 0]]
    }, 
    {
      "op": "BlockGrad", 
      "name": "blockgrad522", 
      "inputs": [[19, 0, 0]]
    }, 
    {
      "op": "null", 
      "name": "param_1->2_[5,5]_initialConvs_0_Ord1_angular_(1,1,3,4)_weight", 
      "inputs": []
    }, 
    {
      "op": "broadcast_mul", 
      "name": "broadcast_mul349", 
      "inputs": [[20, 0, 0], [21, 0, 0]]
    }, 
    {
      "op": "null", 
      "name": "param_1->2_[5,5]_initialConvs_0_Ord1_angular_(1,1,3,4)_bias", 
      "inputs": []
    }, 
    {
      "op": "broadcast_add", 
      "name": "broadcast_add327", 
      "inputs": [[22, 0, 0], [23, 0, 0]]
    }, 
    {
      "op": "elemwise_add", 
      "name": "elemwise_add152", 
      "inputs": [[18, 0, 0], [24, 0, 0]]
    }, 
    {
      "op": "cos", 
      "name": "cos130", 
      "inputs": [[25, 0, 0]]
    }, 
    {
      "op": "ones_like", 
      "name": "ones_like130", 
      "inputs": [[20, 0, 0]]
    }, 
    {
      "op": "broadcast_lesser", 
      "name": "broadcast_lesser130", 
      "inputs": [[20, 0, 0], [27, 0, 0]]
    }, 
    {
      "op": "BlockGrad", 
      "name": "blockgrad524", 
      "inputs": [[28, 0, 0]]
    }, 
    {
      "op": "elemwise_mul", 
      "name": "elemwise_mul543", 
      "inputs": [[26, 0, 0], [29, 0, 0]]
    }, 
    {
      "op": "null", 
      "name": "param_1->2_[5,5]_initialConvs_0_Ord1_radial_(1,1,3,4)_weight", 
      "inputs": []
    }, 
    {
      "op": "broadcast_mul", 
      "name": "broadcast_mul348", 
      "inputs": [[20, 0, 0], [31, 0, 0]]
    }, 
    {
      "op": "null", 
      "name": "param_1->2_[5,5]_initialConvs_0_Ord1_radial_(1,1,3,4)_bias", 
      "inputs": []
    }, 
    {
      "op": "broadcast_add", 
      "name": "broadcast_add326", 
      "inputs": [[32, 0, 0], [33, 0, 0]]
    }, 
    {
      "op": "_mul_scalar", 
      "name": "_mulscalar329", 
      "attrs": {"scalar": "100"}, 
      "inputs": [[34, 0, 0]]
    }, 
    {
      "op": "tanh", 
      "name": "tanh196", 
      "inputs": [[35, 0, 0]]
    }, 
    {
      "op": "elemwise_mul", 
      "name": "_mul196", 
      "inputs": [[34, 0, 0], [36, 0, 0]]
    }, 
    {
      "op": "elemwise_mul", 
      "name": "elemwise_mul545", 
      "inputs": [[30, 0, 0], [37, 0, 0]]
    }, 
    {
      "op": "Concat", 
      "name": "sort_ins1_out2_Re_assm_[5,5]_initialConvs_0", 
      "attrs": {
        "dim": "1", 
        "num_args": "1"
      }, 
      "inputs": [[38, 0, 0]]
    }, 
    {
      "op": "tile", 
      "name": "tile417", 
      "attrs": {"reps": "(4, 3, 1, 1)"}, 
      "inputs": [[15, 0, 0]]
    }, 
    {
      "op": "BlockGrad", 
      "name": "blockgrad526", 
      "inputs": [[40, 0, 0]]
    }, 
    {
      "op": "_mul_scalar", 
      "name": "_mulscalar332", 
      "attrs": {"scalar": "2"}, 
      "inputs": [[41, 0, 0]]
    }, 
    {
      "op": "tile", 
      "name": "tile416", 
      "attrs": {"reps": "(4, 3, 1, 1)"}, 
      "inputs": [[4, 0, 0]]
    }, 
    {
      "op": "BlockGrad", 
      "name": "blockgrad525", 
      "inputs": [[43, 0, 0]]
    }, 
    {
      "op": "null", 
      "name": "param_1->3_[5,5]_initialConvs_0_Ord2_angular_(1,1,3,4)_weight", 
      "inputs": []
    }, 
    {
      "op": "broadcast_mul", 
      "name": "broadcast_mul351", 
      "inputs": [[44, 0, 0], [45, 0, 0]]
    }, 
    {
      "op": "null", 
      "name": "param_1->3_[5,5]_initialConvs_0_Ord2_angular_(1,1,3,4)_bias", 
      "inputs": []
    }, 
    {
      "op": "broadcast_add", 
      "name": "broadcast_add329", 
      "inputs": [[46, 0, 0], [47, 0, 0]]
    }, 
    {
      "op": "elemwise_add", 
      "name": "elemwise_add153", 
      "inputs": [[42, 0, 0], [48, 0, 0]]
    }, 
    {
      "op": "cos", 
      "name": "cos131", 
      "inputs": [[49, 0, 0]]
    }, 
    {
      "op": "ones_like", 
      "name": "ones_like131", 
      "inputs": [[44, 0, 0]]
    }, 
    {
      "op": "broadcast_lesser", 
      "name": "broadcast_lesser131", 
      "inputs": [[44, 0, 0], [51, 0, 0]]
    }, 
    {
      "op": "BlockGrad", 
      "name": "blockgrad527", 
      "inputs": [[52, 0, 0]]
    }, 
    {
      "op": "elemwise_mul", 
      "name": "elemwise_mul547", 
      "inputs": [[50, 0, 0], [53, 0, 0]]
    }, 
    {
      "op": "null", 
      "name": "param_1->3_[5,5]_initialConvs_0_Ord2_radial_(1,1,3,4)_weight", 
      "inputs": []
    }, 
    {
      "op": "broadcast_mul", 
      "name": "broadcast_mul350", 
      "inputs": [[44, 0, 0], [55, 0, 0]]
    }, 
    {
      "op": "null", 
      "name": "param_1->3_[5,5]_initialConvs_0_Ord2_radial_(1,1,3,4)_bias", 
      "inputs": []
    }, 
    {
      "op": "broadcast_add", 
      "name": "broadcast_add328", 
      "inputs": [[56, 0, 0], [57, 0, 0]]
    }, 
    {
      "op": "_mul_scalar", 
      "name": "_mulscalar331", 
      "attrs": {"scalar": "100"}, 
      "inputs": [[58, 0, 0]]
    }, 
    {
      "op": "tanh", 
      "name": "tanh197", 
      "inputs": [[59, 0, 0]]
    }, 
    {
      "op": "elemwise_mul", 
      "name": "_mul197", 
      "inputs": [[58, 0, 0], [60, 0, 0]]
    }, 
    {
      "op": "elemwise_mul", 
      "name": "elemwise_mul549", 
      "inputs": [[54, 0, 0], [61, 0, 0]]
    }, 
    {
      "op": "Concat", 
      "name": "sort_ins1_out3_Re_assm_[5,5]_initialConvs_0", 
      "attrs": {
        "dim": "1", 
        "num_args": "1"
      }, 
      "inputs": [[62, 0, 0]]
    }, 
    {
      "op": "zeros_like", 
      "name": "zeros_like65", 
      "inputs": [[13, 0, 0]]
    }, 
    {
      "op": "Concat", 
      "name": "sort_ins1_out1_Im_assm_[5,5]_initialConvs_0", 
      "attrs": {
        "dim": "1", 
        "num_args": "1"
      }, 
      "inputs": [[64, 0, 0]]
    }, 
    {
      "op": "sin", 
      "name": "sin130", 
      "inputs": [[25, 0, 0]]
    }, 
    {
      "op": "elemwise_mul", 
      "name": "elemwise_mul542", 
      "inputs": [[66, 0, 0], [29, 0, 0]]
    }, 
    {
      "op": "elemwise_mul", 
      "name": "elemwise_mul544", 
      "inputs": [[67, 0, 0], [37, 0, 0]]
    }, 
    {
      "op": "Concat", 
      "name": "sort_ins1_out2_Im_assm_[5,5]_initialConvs_0", 
      "attrs": {
        "dim": "1", 
        "num_args": "1"
      }, 
      "inputs": [[68, 0, 0]]
    }, 
    {
      "op": "sin", 
      "name": "sin131", 
      "inputs": [[49, 0, 0]]
    }, 
    {
      "op": "elemwise_mul", 
      "name": "elemwise_mul546", 
      "inputs": [[70, 0, 0], [53, 0, 0]]
    }, 
    {
      "op": "elemwise_mul", 
      "name": "elemwise_mul548", 
      "inputs": [[71, 0, 0], [61, 0, 0]]
    }, 
    {
      "op": "Concat", 
      "name": "sort_ins1_out3_Im_assm_[5,5]_initialConvs_0", 
      "attrs": {
        "dim": "1", 
        "num_args": "1"
      }, 
      "inputs": [[72, 0, 0]]
    }, 
    {
      "op": "Concat", 
      "name": "assembledFilter_in1_out3_assm_[5,5]_initialConvs_0", 
      "attrs": {
        "dim": "0", 
        "num_args": "6"
      }, 
      "inputs": [[14, 0, 0], [39, 0, 0], [63, 0, 0], [65, 0, 0], [69, 0, 0], [73, 0, 0]]
    }, 
    {
      "op": "Convolution", 
      "name": "conv_[5,5]_initialConvs_0", 
      "attrs": {
        "dilate": "(1, 1)", 
        "kernel": "(5, 5)", 
        "no_bias": "1", 
        "num_filter": "24", 
        "pad": "(0, 0)", 
        "stride": "(1, 1)"
      }, 
      "inputs": [[3, 0, 0], [74, 0, 0]]
    }, 
    {
      "op": "square", 
      "name": "square44", 
      "inputs": [[75, 0, 0]]
    }, 
    {
      "op": "SliceChannel", 
      "name": "split22", 
      "attrs": {
        "axis": "1", 
        "num_outputs": "2"
      }, 
      "inputs": [[76, 0, 0]]
    }, 
    {
      "op": "elemwise_add", 
      "name": "elemwise_add154", 
      "inputs": [[77, 0, 0], [77, 1, 0]]
    }, 
    {
      "op": "_plus_scalar", 
      "name": "_plusscalar67", 
      "attrs": {"scalar": "2e-05"}, 
      "inputs": [[78, 0, 0]]
    }, 
    {
      "op": "sqrt", 
      "name": "sqrt44", 
      "inputs": [[79, 0, 0]]
    }, 
    {
      "op": "square", 
      "name": "square45", 
      "inputs": [[80, 0, 0]]
    }, 
    {
      "op": "_plus_scalar", 
      "name": "_plusscalar69", 
      "attrs": {"scalar": "1"}, 
      "inputs": [[81, 0, 0]]
    }, 
    {
      "op": "sqrt", 
      "name": "sqrt45", 
      "inputs": [[82, 0, 0]]
    }, 
    {
      "op": "elemwise_div", 
      "name": "_div44", 
      "inputs": [[80, 0, 0], [83, 0, 0]]
    }, 
    {
      "op": "null", 
      "name": "initialConvs_0_(1,1,12,1)_mag_weight", 
      "inputs": []
    }, 
    {
      "op": "LeakyReLU", 
      "name": "leakyrelu22", 
      "attrs": {
        "act_type": "elu", 
        "slope": "1"
      }, 
      "inputs": [[85, 0, 0]]
    }, 
    {
      "op": "_plus_scalar", 
      "name": "_plusscalar68", 
      "attrs": {"scalar": "1"}, 
      "inputs": [[86, 0, 0]]
    }, 
    {
      "op": "broadcast_mul", 
      "name": "broadcast_mul352", 
      "inputs": [[84, 0, 0], [87, 0, 0]]
    }, 
    {
      "op": "elemwise_div", 
      "name": "_div45", 
      "inputs": [[88, 0, 0], [80, 0, 0]]
    }, 
    {
      "op": "tile", 
      "name": "tile418", 
      "attrs": {"reps": "(1, 2, 1, 1)"}, 
      "inputs": [[89, 0, 0]]
    }, 
    {
      "op": "elemwise_mul", 
      "name": "elemwise_mul550", 
      "inputs": [[75, 0, 0], [90, 0, 0]]
    }, 
    {
      "op": "Pad", 
      "name": "pad23", 
      "attrs": {
        "mode": "edge", 
        "pad_width": "(0, 0, 0, 0, 1, 1, 1, 1)"
      }, 
      "inputs": [[91, 0, 0]]
    }, 
    {
      "op": "null", 
      "name": "radius_3x3", 
      "inputs": []
    }, 
    {
      "op": "tile", 
      "name": "tile419", 
      "attrs": {"reps": "(6, 4, 1, 1)"}, 
      "inputs": [[93, 0, 0]]
    }, 
    {
      "op": "BlockGrad", 
      "name": "blockgrad528", 
      "inputs": [[94, 0, 0]]
    }, 
    {
      "op": "null", 
      "name": "param_1->1_[3,3]_initialConvs_1_Ord0_radial_(1,1,4,6)_weight", 
      "inputs": []
    }, 
    {
      "op": "broadcast_mul", 
      "name": "broadcast_mul353", 
      "inputs": [[95, 0, 0], [96, 0, 0]]
    }, 
    {
      "op": "null", 
      "name": "param_1->1_[3,3]_initialConvs_1_Ord0_radial_(1,1,4,6)_bias", 
      "inputs": []
    }, 
    {
      "op": "broadcast_add", 
      "name": "broadcast_add330", 
      "inputs": [[97, 0, 0], [98, 0, 0]]
    }, 
    {
      "op": "_mul_scalar", 
      "name": "_mulscalar333", 
      "attrs": {"scalar": "100"}, 
      "inputs": [[99, 0, 0]]
    }, 
    {
      "op": "tanh", 
      "name": "tanh198", 
      "inputs": [[100, 0, 0]]
    }, 
    {
      "op": "elemwise_mul", 
      "name": "_mul198", 
      "inputs": [[99, 0, 0], [101, 0, 0]]
    }, 
    {
      "op": "null", 
      "name": "theta_3x3", 
      "inputs": []
    }, 
    {
      "op": "tile", 
      "name": "tile426", 
      "attrs": {"reps": "(6, 4, 1, 1)"}, 
      "inputs": [[103, 0, 0]]
    }, 
    {
      "op": "BlockGrad", 
      "name": "blockgrad537", 
      "inputs": [[104, 0, 0]]
    }, 
    {
      "op": "_mul_scalar", 
      "name": "_mulscalar339", 
      "attrs": {"scalar": "1"}, 
      "inputs": [[105, 0, 0]]
    }, 
    {
      "op": "tile", 
      "name": "tile425", 
      "attrs": {"reps": "(6, 4, 1, 1)"}, 
      "inputs": [[93, 0, 0]]
    }, 
    {
      "op": "BlockGrad", 
      "name": "blockgrad536", 
      "inputs": [[107, 0, 0]]
    }, 
    {
      "op": "null", 
      "name": "param_2->1_[3,3]_initialConvs_1_Ord1_angular_(1,1,4,6)_weight", 
      "inputs": []
    }, 
    {
      "op": "broadcast_mul", 
      "name": "broadcast_mul359", 
      "inputs": [[108, 0, 0], [109, 0, 0]]
    }, 
    {
      "op": "null", 
      "name": "param_2->1_[3,3]_initialConvs_1_Ord1_angular_(1,1,4,6)_bias", 
      "inputs": []
    }, 
    {
      "op": "broadcast_add", 
      "name": "broadcast_add336", 
      "inputs": [[110, 0, 0], [111, 0, 0]]
    }, 
    {
      "op": "elemwise_add", 
      "name": "elemwise_add157", 
      "inputs": [[106, 0, 0], [112, 0, 0]]
    }, 
    {
      "op": "cos", 
      "name": "cos134", 
      "inputs": [[113, 0, 0]]
    }, 
    {
      "op": "ones_like", 
      "name": "ones_like134", 
      "inputs": [[108, 0, 0]]
    }, 
    {
      "op": "broadcast_lesser", 
      "name": "broadcast_lesser134", 
      "inputs": [[108, 0, 0], [115, 0, 0]]
    }, 
    {
      "op": "BlockGrad", 
      "name": "blockgrad538", 
      "inputs": [[116, 0, 0]]
    }, 
    {
      "op": "elemwise_mul", 
      "name": "elemwise_mul560", 
      "inputs": [[114, 0, 0], [117, 0, 0]]
    }, 
    {
      "op": "null", 
      "name": "param_2->1_[3,3]_initialConvs_1_Ord1_radial_(1,1,4,6)_weight", 
      "inputs": []
    }, 
    {
      "op": "broadcast_mul", 
      "name": "broadcast_mul358", 
      "inputs": [[108, 0, 0], [119, 0, 0]]
    }, 
    {
      "op": "null", 
      "name": "param_2->1_[3,3]_initialConvs_1_Ord1_radial_(1,1,4,6)_bias", 
      "inputs": []
    }, 
    {
      "op": "broadcast_add", 
      "name": "broadcast_add335", 
      "inputs": [[120, 0, 0], [121, 0, 0]]
    }, 
    {
      "op": "_mul_scalar", 
      "name": "_mulscalar338", 
      "attrs": {"scalar": "100"}, 
      "inputs": [[122, 0, 0]]
    }, 
    {
      "op": "tanh", 
      "name": "tanh201", 
      "inputs": [[123, 0, 0]]
    }, 
    {
      "op": "elemwise_mul", 
      "name": "_mul201", 
      "inputs": [[122, 0, 0], [124, 0, 0]]
    }, 
    {
      "op": "elemwise_mul", 
      "name": "elemwise_mul562", 
      "inputs": [[118, 0, 0], [125, 0, 0]]
    }, 
    {
      "op": "tile", 
      "name": "tile432", 
      "attrs": {"reps": "(6, 4, 1, 1)"}, 
      "inputs": [[103, 0, 0]]
    }, 
    {
      "op": "BlockGrad", 
      "name": "blockgrad545", 
      "inputs": [[127, 0, 0]]
    }, 
    {
      "op": "_mul_scalar", 
      "name": "_mulscalar344", 
      "attrs": {"scalar": "2"}, 
      "inputs": [[128, 0, 0]]
    }, 
    {
      "op": "tile", 
      "name": "tile431", 
      "attrs": {"reps": "(6, 4, 1, 1)"}, 
      "inputs": [[93, 0, 0]]
    }, 
    {
      "op": "BlockGrad", 
      "name": "blockgrad544", 
      "inputs": [[130, 0, 0]]
    }, 
    {
      "op": "null", 
      "name": "param_3->1_[3,3]_initialConvs_1_Ord2_angular_(1,1,4,6)_weight", 
      "inputs": []
    }, 
    {
      "op": "broadcast_mul", 
      "name": "broadcast_mul364", 
      "inputs": [[131, 0, 0], [132, 0, 0]]
    }, 
    {
      "op": "null", 
      "name": "param_3->1_[3,3]_initialConvs_1_Ord2_angular_(1,1,4,6)_bias", 
      "inputs": []
    }, 
    {
      "op": "broadcast_add", 
      "name": "broadcast_add341", 
      "inputs": [[133, 0, 0], [134, 0, 0]]
    }, 
    {
      "op": "elemwise_add", 
      "name": "elemwise_add159", 
      "inputs": [[129, 0, 0], [135, 0, 0]]
    }, 
    {
      "op": "cos", 
      "name": "cos136", 
      "inputs": [[136, 0, 0]]
    }, 
    {
      "op": "ones_like", 
      "name": "ones_like136", 
      "inputs": [[131, 0, 0]]
    }, 
    {
      "op": "broadcast_lesser", 
      "name": "broadcast_lesser136", 
      "inputs": [[131, 0, 0], [138, 0, 0]]
    }, 
    {
      "op": "BlockGrad", 
      "name": "blockgrad546", 
      "inputs": [[139, 0, 0]]
    }, 
    {
      "op": "elemwise_mul", 
      "name": "elemwise_mul568", 
      "inputs": [[137, 0, 0], [140, 0, 0]]
    }, 
    {
      "op": "null", 
      "name": "param_3->1_[3,3]_initialConvs_1_Ord2_radial_(1,1,4,6)_weight", 
      "inputs": []
    }, 
    {
      "op": "broadcast_mul", 
      "name": "broadcast_mul363", 
      "inputs": [[131, 0, 0], [142, 0, 0]]
    }, 
    {
      "op": "null", 
      "name": "param_3->1_[3,3]_initialConvs_1_Ord2_radial_(1,1,4,6)_bias", 
      "inputs": []
    }, 
    {
      "op": "broadcast_add", 
      "name": "broadcast_add340", 
      "inputs": [[143, 0, 0], [144, 0, 0]]
    }, 
    {
      "op": "_mul_scalar", 
      "name": "_mulscalar343", 
      "attrs": {"scalar": "100"}, 
      "inputs": [[145, 0, 0]]
    }, 
    {
      "op": "tanh", 
      "name": "tanh204", 
      "inputs": [[146, 0, 0]]
    }, 
    {
      "op": "elemwise_mul", 
      "name": "_mul204", 
      "inputs": [[145, 0, 0], [147, 0, 0]]
    }, 
    {
      "op": "elemwise_mul", 
      "name": "elemwise_mul570", 
      "inputs": [[141, 0, 0], [148, 0, 0]]
    }, 
    {
      "op": "Concat", 
      "name": "sort_ins3_out1_Re_assm_[3,3]_initialConvs_1", 
      "attrs": {
        "dim": "1", 
        "num_args": "3"
      }, 
      "inputs": [[102, 0, 0], [126, 0, 0], [149, 0, 0]]
    }, 
    {
      "op": "zeros_like", 
      "name": "zeros_like66", 
      "inputs": [[102, 0, 0]]
    }, 
    {
      "op": "sin", 
      "name": "sin134", 
      "inputs": [[113, 0, 0]]
    }, 
    {
      "op": "elemwise_mul", 
      "name": "elemwise_mul559", 
      "inputs": [[152, 0, 0], [117, 0, 0]]
    }, 
    {
      "op": "elemwise_mul", 
      "name": "elemwise_mul561", 
      "inputs": [[153, 0, 0], [125, 0, 0]]
    }, 
    {
      "op": "negative", 
      "name": "negative129", 
      "inputs": [[154, 0, 0]]
    }, 
    {
      "op": "sin", 
      "name": "sin136", 
      "inputs": [[136, 0, 0]]
    }, 
    {
      "op": "elemwise_mul", 
      "name": "elemwise_mul567", 
      "inputs": [[156, 0, 0], [140, 0, 0]]
    }, 
    {
      "op": "elemwise_mul", 
      "name": "elemwise_mul569", 
      "inputs": [[157, 0, 0], [148, 0, 0]]
    }, 
    {
      "op": "negative", 
      "name": "negative130", 
      "inputs": [[158, 0, 0]]
    }, 
    {
      "op": "Concat", 
      "name": "sort_ins3_out1_Im_assm_[3,3]_initialConvs_1", 
      "attrs": {
        "dim": "1", 
        "num_args": "3"
      }, 
      "inputs": [[151, 0, 0], [155, 0, 0], [159, 0, 0]]
    }, 
    {
      "op": "Concat", 
      "name": "ReIm_ins3_out1_assm_[3,3]_initialConvs_1", 
      "attrs": {
        "dim": "1", 
        "num_args": "2"
      }, 
      "inputs": [[150, 0, 0], [160, 0, 0]]
    }, 
    {
      "op": "tile", 
      "name": "tile422", 
      "attrs": {"reps": "(10, 4, 1, 1)"}, 
      "inputs": [[103, 0, 0]]
    }, 
    {
      "op": "BlockGrad", 
      "name": "blockgrad531", 
      "inputs": [[162, 0, 0]]
    }, 
    {
      "op": "_mul_scalar", 
      "name": "_mulscalar335", 
      "attrs": {"scalar": "1"}, 
      "inputs": [[163, 0, 0]]
    }, 
    {
      "op": "tile", 
      "name": "tile421", 
      "attrs": {"reps": "(10, 4, 1, 1)"}, 
      "inputs": [[93, 0, 0]]
    }, 
    {
      "op": "BlockGrad", 
      "name": "blockgrad530", 
      "inputs": [[165, 0, 0]]
    }, 
    {
      "op": "null", 
      "name": "param_1->2_[3,3]_initialConvs_1_Ord1_angular_(1,1,4,10)_weight", 
      "inputs": []
    }, 
    {
      "op": "broadcast_mul", 
      "name": "broadcast_mul355", 
      "inputs": [[166, 0, 0], [167, 0, 0]]
    }, 
    {
      "op": "null", 
      "name": "param_1->2_[3,3]_initialConvs_1_Ord1_angular_(1,1,4,10)_bias", 
      "inputs": []
    }, 
    {
      "op": "broadcast_add", 
      "name": "broadcast_add332", 
      "inputs": [[168, 0, 0], [169, 0, 0]]
    }, 
    {
      "op": "elemwise_add", 
      "name": "elemwise_add155", 
      "inputs": [[164, 0, 0], [170, 0, 0]]
    }, 
    {
      "op": "cos", 
      "name": "cos132", 
      "inputs": [[171, 0, 0]]
    }, 
    {
      "op": "ones_like", 
      "name": "ones_like132", 
      "inputs": [[166, 0, 0]]
    }, 
    {
      "op": "broadcast_lesser", 
      "name": "broadcast_lesser132", 
      "inputs": [[166, 0, 0], [173, 0, 0]]
    }, 
    {
      "op": "BlockGrad", 
      "name": "blockgrad532", 
      "inputs": [[174, 0, 0]]
    }, 
    {
      "op": "elemwise_mul", 
      "name": "elemwise_mul552", 
      "inputs": [[172, 0, 0], [175, 0, 0]]
    }, 
    {
      "op": "null", 
      "name": "param_1->2_[3,3]_initialConvs_1_Ord1_radial_(1,1,4,10)_weight", 
      "inputs": []
    }, 
    {
      "op": "broadcast_mul", 
      "name": "broadcast_mul354", 
      "inputs": [[166, 0, 0], [177, 0, 0]]
    }, 
    {
      "op": "null", 
      "name": "param_1->2_[3,3]_initialConvs_1_Ord1_radial_(1,1,4,10)_bias", 
      "inputs": []
    }, 
    {
      "op": "broadcast_add", 
      "name": "broadcast_add331", 
      "inputs": [[178, 0, 0], [179, 0, 0]]
    }, 
    {
      "op": "_mul_scalar", 
      "name": "_mulscalar334", 
      "attrs": {"scalar": "100"}, 
      "inputs": [[180, 0, 0]]
    }, 
    {
      "op": "tanh", 
      "name": "tanh199", 
      "inputs": [[181, 0, 0]]
    }, 
    {
      "op": "elemwise_mul", 
      "name": "_mul199", 
      "inputs": [[180, 0, 0], [182, 0, 0]]
    }, 
    {
      "op": "elemwise_mul", 
      "name": "elemwise_mul554", 
      "inputs": [[176, 0, 0], [183, 0, 0]]
    }, 
    {
      "op": "tile", 
      "name": "tile427", 
      "attrs": {"reps": "(10, 4, 1, 1)"}, 
      "inputs": [[93, 0, 0]]
    }, 
    {
      "op": "BlockGrad", 
      "name": "blockgrad539", 
      "inputs": [[185, 0, 0]]
    }, 
    {
      "op": "null", 
      "name": "param_2->2_[3,3]_initialConvs_1_Ord0_radial_(1,1,4,10)_weight", 
      "inputs": []
    }, 
    {
      "op": "broadcast_mul", 
      "name": "broadcast_mul360", 
      "inputs": [[186, 0, 0], [187, 0, 0]]
    }, 
    {
      "op": "null", 
      "name": "param_2->2_[3,3]_initialConvs_1_Ord0_radial_(1,1,4,10)_bias", 
      "inputs": []
    }, 
    {
      "op": "broadcast_add", 
      "name": "broadcast_add337", 
      "inputs": [[188, 0, 0], [189, 0, 0]]
    }, 
    {
      "op": "_mul_scalar", 
      "name": "_mulscalar340", 
      "attrs": {"scalar": "100"}, 
      "inputs": [[190, 0, 0]]
    }, 
    {
      "op": "tanh", 
      "name": "tanh202", 
      "inputs": [[191, 0, 0]]
    }, 
    {
      "op": "elemwise_mul", 
      "name": "_mul202", 
      "inputs": [[190, 0, 0], [192, 0, 0]]
    }, 
    {
      "op": "tile", 
      "name": "tile434", 
      "attrs": {"reps": "(10, 4, 1, 1)"}, 
      "inputs": [[103, 0, 0]]
    }, 
    {
      "op": "BlockGrad", 
      "name": "blockgrad548", 
      "inputs": [[194, 0, 0]]
    }, 
    {
      "op": "_mul_scalar", 
      "name": "_mulscalar346", 
      "attrs": {"scalar": "1"}, 
      "inputs": [[195, 0, 0]]
    }, 
    {
      "op": "tile", 
      "name": "tile433", 
      "attrs": {"reps": "(10, 4, 1, 1)"}, 
      "inputs": [[93, 0, 0]]
    }, 
    {
      "op": "BlockGrad", 
      "name": "blockgrad547", 
      "inputs": [[197, 0, 0]]
    }, 
    {
      "op": "null", 
      "name": "param_3->2_[3,3]_initialConvs_1_Ord1_angular_(1,1,4,10)_weight", 
      "inputs": []
    }, 
    {
      "op": "broadcast_mul", 
      "name": "broadcast_mul366", 
      "inputs": [[198, 0, 0], [199, 0, 0]]
    }, 
    {
      "op": "null", 
      "name": "param_3->2_[3,3]_initialConvs_1_Ord1_angular_(1,1,4,10)_bias", 
      "inputs": []
    }, 
    {
      "op": "broadcast_add", 
      "name": "broadcast_add343", 
      "inputs": [[200, 0, 0], [201, 0, 0]]
    }, 
    {
      "op": "elemwise_add", 
      "name": "elemwise_add160", 
      "inputs": [[196, 0, 0], [202, 0, 0]]
    }, 
    {
      "op": "cos", 
      "name": "cos137", 
      "inputs": [[203, 0, 0]]
    }, 
    {
      "op": "ones_like", 
      "name": "ones_like137", 
      "inputs": [[198, 0, 0]]
    }, 
    {
      "op": "broadcast_lesser", 
      "name": "broadcast_lesser137", 
      "inputs": [[198, 0, 0], [205, 0, 0]]
    }, 
    {
      "op": "BlockGrad", 
      "name": "blockgrad549", 
      "inputs": [[206, 0, 0]]
    }, 
    {
      "op": "elemwise_mul", 
      "name": "elemwise_mul572", 
      "inputs": [[204, 0, 0], [207, 0, 0]]
    }, 
    {
      "op": "null", 
      "name": "param_3->2_[3,3]_initialConvs_1_Ord1_radial_(1,1,4,10)_weight", 
      "inputs": []
    }, 
    {
      "op": "broadcast_mul", 
      "name": "broadcast_mul365", 
      "inputs": [[198, 0, 0], [209, 0, 0]]
    }, 
    {
      "op": "null", 
      "name": "param_3->2_[3,3]_initialConvs_1_Ord1_radial_(1,1,4,10)_bias", 
      "inputs": []
    }, 
    {
      "op": "broadcast_add", 
      "name": "broadcast_add342", 
      "inputs": [[210, 0, 0], [211, 0, 0]]
    }, 
    {
      "op": "_mul_scalar", 
      "name": "_mulscalar345", 
      "attrs": {"scalar": "100"}, 
      "inputs": [[212, 0, 0]]
    }, 
    {
      "op": "tanh", 
      "name": "tanh205", 
      "inputs": [[213, 0, 0]]
    }, 
    {
      "op": "elemwise_mul", 
      "name": "_mul205", 
      "inputs": [[212, 0, 0], [214, 0, 0]]
    }, 
    {
      "op": "elemwise_mul", 
      "name": "elemwise_mul574", 
      "inputs": [[208, 0, 0], [215, 0, 0]]
    }, 
    {
      "op": "Concat", 
      "name": "sort_ins3_out2_Re_assm_[3,3]_initialConvs_1", 
      "attrs": {
        "dim": "1", 
        "num_args": "3"
      }, 
      "inputs": [[184, 0, 0], [193, 0, 0], [216, 0, 0]]
    }, 
    {
      "op": "sin", 
      "name": "sin132", 
      "inputs": [[171, 0, 0]]
    }, 
    {
      "op": "elemwise_mul", 
      "name": "elemwise_mul551", 
      "inputs": [[218, 0, 0], [175, 0, 0]]
    }, 
    {
      "op": "elemwise_mul", 
      "name": "elemwise_mul553", 
      "inputs": [[219, 0, 0], [183, 0, 0]]
    }, 
    {
      "op": "zeros_like", 
      "name": "zeros_like67", 
      "inputs": [[193, 0, 0]]
    }, 
    {
      "op": "sin", 
      "name": "sin137", 
      "inputs": [[203, 0, 0]]
    }, 
    {
      "op": "elemwise_mul", 
      "name": "elemwise_mul571", 
      "inputs": [[222, 0, 0], [207, 0, 0]]
    }, 
    {
      "op": "elemwise_mul", 
      "name": "elemwise_mul573", 
      "inputs": [[223, 0, 0], [215, 0, 0]]
    }, 
    {
      "op": "negative", 
      "name": "negative132", 
      "inputs": [[224, 0, 0]]
    }, 
    {
      "op": "Concat", 
      "name": "sort_ins3_out2_Im_assm_[3,3]_initialConvs_1", 
      "attrs": {
        "dim": "1", 
        "num_args": "3"
      }, 
      "inputs": [[220, 0, 0], [221, 0, 0], [225, 0, 0]]
    }, 
    {
      "op": "Concat", 
      "name": "ReIm_ins3_out2_assm_[3,3]_initialConvs_1", 
      "attrs": {
        "dim": "1", 
        "num_args": "2"
      }, 
      "inputs": [[217, 0, 0], [226, 0, 0]]
    }, 
    {
      "op": "tile", 
      "name": "tile424", 
      "attrs": {"reps": "(5, 4, 1, 1)"}, 
      "inputs": [[103, 0, 0]]
    }, 
    {
      "op": "BlockGrad", 
      "name": "blockgrad534", 
      "inputs": [[228, 0, 0]]
    }, 
    {
      "op": "_mul_scalar", 
      "name": "_mulscalar337", 
      "attrs": {"scalar": "2"}, 
      "inputs": [[229, 0, 0]]
    }, 
    {
      "op": "tile", 
      "name": "tile423", 
      "attrs": {"reps": "(5, 4, 1, 1)"}, 
      "inputs": [[93, 0, 0]]
    }, 
    {
      "op": "BlockGrad", 
      "name": "blockgrad533", 
      "inputs": [[231, 0, 0]]
    }, 
    {
      "op": "null", 
      "name": "param_1->3_[3,3]_initialConvs_1_Ord2_angular_(1,1,4,5)_weight", 
      "inputs": []
    }, 
    {
      "op": "broadcast_mul", 
      "name": "broadcast_mul357", 
      "inputs": [[232, 0, 0], [233, 0, 0]]
    }, 
    {
      "op": "null", 
      "name": "param_1->3_[3,3]_initialConvs_1_Ord2_angular_(1,1,4,5)_bias", 
      "inputs": []
    }, 
    {
      "op": "broadcast_add", 
      "name": "broadcast_add334", 
      "inputs": [[234, 0, 0], [235, 0, 0]]
    }, 
    {
      "op": "elemwise_add", 
      "name": "elemwise_add156", 
      "inputs": [[230, 0, 0], [236, 0, 0]]
    }, 
    {
      "op": "cos", 
      "name": "cos133", 
      "inputs": [[237, 0, 0]]
    }, 
    {
      "op": "ones_like", 
      "name": "ones_like133", 
      "inputs": [[232, 0, 0]]
    }, 
    {
      "op": "broadcast_lesser", 
      "name": "broadcast_lesser133", 
      "inputs": [[232, 0, 0], [239, 0, 0]]
    }, 
    {
      "op": "BlockGrad", 
      "name": "blockgrad535", 
      "inputs": [[240, 0, 0]]
    }, 
    {
      "op": "elemwise_mul", 
      "name": "elemwise_mul556", 
      "inputs": [[238, 0, 0], [241, 0, 0]]
    }, 
    {
      "op": "null", 
      "name": "param_1->3_[3,3]_initialConvs_1_Ord2_radial_(1,1,4,5)_weight", 
      "inputs": []
    }, 
    {
      "op": "broadcast_mul", 
      "name": "broadcast_mul356", 
      "inputs": [[232, 0, 0], [243, 0, 0]]
    }, 
    {
      "op": "null", 
      "name": "param_1->3_[3,3]_initialConvs_1_Ord2_radial_(1,1,4,5)_bias", 
      "inputs": []
    }, 
    {
      "op": "broadcast_add", 
      "name": "broadcast_add333", 
      "inputs": [[244, 0, 0], [245, 0, 0]]
    }, 
    {
      "op": "_mul_scalar", 
      "name": "_mulscalar336", 
      "attrs": {"scalar": "100"}, 
      "inputs": [[246, 0, 0]]
    }, 
    {
      "op": "tanh", 
      "name": "tanh200", 
      "inputs": [[247, 0, 0]]
    }, 
    {
      "op": "elemwise_mul", 
      "name": "_mul200", 
      "inputs": [[246, 0, 0], [248, 0, 0]]
    }, 
    {
      "op": "elemwise_mul", 
      "name": "elemwise_mul558", 
      "inputs": [[242, 0, 0], [249, 0, 0]]
    }, 
    {
      "op": "tile", 
      "name": "tile430", 
      "attrs": {"reps": "(5, 4, 1, 1)"}, 
      "inputs": [[103, 0, 0]]
    }, 
    {
      "op": "BlockGrad", 
      "name": "blockgrad542", 
      "inputs": [[251, 0, 0]]
    }, 
    {
      "op": "_mul_scalar", 
      "name": "_mulscalar342", 
      "attrs": {"scalar": "1"}, 
      "inputs": [[252, 0, 0]]
    }, 
    {
      "op": "tile", 
      "name": "tile429", 
      "attrs": {"reps": "(5, 4, 1, 1)"}, 
      "inputs": [[93, 0, 0]]
    }, 
    {
      "op": "BlockGrad", 
      "name": "blockgrad541", 
      "inputs": [[254, 0, 0]]
    }, 
    {
      "op": "null", 
      "name": "param_2->3_[3,3]_initialConvs_1_Ord1_angular_(1,1,4,5)_weight", 
      "inputs": []
    }, 
    {
      "op": "broadcast_mul", 
      "name": "broadcast_mul362", 
      "inputs": [[255, 0, 0], [256, 0, 0]]
    }, 
    {
      "op": "null", 
      "name": "param_2->3_[3,3]_initialConvs_1_Ord1_angular_(1,1,4,5)_bias", 
      "inputs": []
    }, 
    {
      "op": "broadcast_add", 
      "name": "broadcast_add339", 
      "inputs": [[257, 0, 0], [258, 0, 0]]
    }, 
    {
      "op": "elemwise_add", 
      "name": "elemwise_add158", 
      "inputs": [[253, 0, 0], [259, 0, 0]]
    }, 
    {
      "op": "cos", 
      "name": "cos135", 
      "inputs": [[260, 0, 0]]
    }, 
    {
      "op": "ones_like", 
      "name": "ones_like135", 
      "inputs": [[255, 0, 0]]
    }, 
    {
      "op": "broadcast_lesser", 
      "name": "broadcast_lesser135", 
      "inputs": [[255, 0, 0], [262, 0, 0]]
    }, 
    {
      "op": "BlockGrad", 
      "name": "blockgrad543", 
      "inputs": [[263, 0, 0]]
    }, 
    {
      "op": "elemwise_mul", 
      "name": "elemwise_mul564", 
      "inputs": [[261, 0, 0], [264, 0, 0]]
    }, 
    {
      "op": "null", 
      "name": "param_2->3_[3,3]_initialConvs_1_Ord1_radial_(1,1,4,5)_weight", 
      "inputs": []
    }, 
    {
      "op": "broadcast_mul", 
      "name": "broadcast_mul361", 
      "inputs": [[255, 0, 0], [266, 0, 0]]
    }, 
    {
      "op": "null", 
      "name": "param_2->3_[3,3]_initialConvs_1_Ord1_radial_(1,1,4,5)_bias", 
      "inputs": []
    }, 
    {
      "op": "broadcast_add", 
      "name": "broadcast_add338", 
      "inputs": [[267, 0, 0], [268, 0, 0]]
    }, 
    {
      "op": "_mul_scalar", 
      "name": "_mulscalar341", 
      "attrs": {"scalar": "100"}, 
      "inputs": [[269, 0, 0]]
    }, 
    {
      "op": "tanh", 
      "name": "tanh203", 
      "inputs": [[270, 0, 0]]
    }, 
    {
      "op": "elemwise_mul", 
      "name": "_mul203", 
      "inputs": [[269, 0, 0], [271, 0, 0]]
    }, 
    {
      "op": "elemwise_mul", 
      "name": "elemwise_mul566", 
      "inputs": [[265, 0, 0], [272, 0, 0]]
    }, 
    {
      "op": "tile", 
      "name": "tile435", 
      "attrs": {"reps": "(5, 4, 1, 1)"}, 
      "inputs": [[93, 0, 0]]
    }, 
    {
      "op": "BlockGrad", 
      "name": "blockgrad550", 
      "inputs": [[274, 0, 0]]
    }, 
    {
      "op": "null", 
      "name": "param_3->3_[3,3]_initialConvs_1_Ord0_radial_(1,1,4,5)_weight", 
      "inputs": []
    }, 
    {
      "op": "broadcast_mul", 
      "name": "broadcast_mul367", 
      "inputs": [[275, 0, 0], [276, 0, 0]]
    }, 
    {
      "op": "null", 
      "name": "param_3->3_[3,3]_initialConvs_1_Ord0_radial_(1,1,4,5)_bias", 
      "inputs": []
    }, 
    {
      "op": "broadcast_add", 
      "name": "broadcast_add344", 
      "inputs": [[277, 0, 0], [278, 0, 0]]
    }, 
    {
      "op": "_mul_scalar", 
      "name": "_mulscalar347", 
      "attrs": {"scalar": "100"}, 
      "inputs": [[279, 0, 0]]
    }, 
    {
      "op": "tanh", 
      "name": "tanh206", 
      "inputs": [[280, 0, 0]]
    }, 
    {
      "op": "elemwise_mul", 
      "name": "_mul206", 
      "inputs": [[279, 0, 0], [281, 0, 0]]
    }, 
    {
      "op": "Concat", 
      "name": "sort_ins3_out3_Re_assm_[3,3]_initialConvs_1", 
      "attrs": {
        "dim": "1", 
        "num_args": "3"
      }, 
      "inputs": [[250, 0, 0], [273, 0, 0], [282, 0, 0]]
    }, 
    {
      "op": "sin", 
      "name": "sin133", 
      "inputs": [[237, 0, 0]]
    }, 
    {
      "op": "elemwise_mul", 
      "name": "elemwise_mul555", 
      "inputs": [[284, 0, 0], [241, 0, 0]]
    }, 
    {
      "op": "elemwise_mul", 
      "name": "elemwise_mul557", 
      "inputs": [[285, 0, 0], [249, 0, 0]]
    }, 
    {
      "op": "sin", 
      "name": "sin135", 
      "inputs": [[260, 0, 0]]
    }, 
    {
      "op": "elemwise_mul", 
      "name": "elemwise_mul563", 
      "inputs": [[287, 0, 0], [264, 0, 0]]
    }, 
    {
      "op": "elemwise_mul", 
      "name": "elemwise_mul565", 
      "inputs": [[288, 0, 0], [272, 0, 0]]
    }, 
    {
      "op": "zeros_like", 
      "name": "zeros_like68", 
      "inputs": [[282, 0, 0]]
    }, 
    {
      "op": "Concat", 
      "name": "sort_ins3_out3_Im_assm_[3,3]_initialConvs_1", 
      "attrs": {
        "dim": "1", 
        "num_args": "3"
      }, 
      "inputs": [[286, 0, 0], [289, 0, 0], [290, 0, 0]]
    }, 
    {
      "op": "Concat", 
      "name": "ReIm_ins3_out3_assm_[3,3]_initialConvs_1", 
      "attrs": {
        "dim": "1", 
        "num_args": "2"
      }, 
      "inputs": [[283, 0, 0], [291, 0, 0]]
    }, 
    {
      "op": "negative", 
      "name": "negative131", 
      "inputs": [[160, 0, 0]]
    }, 
    {
      "op": "Concat", 
      "name": "ImRe_ins3_out1_assm_[3,3]_initialConvs_1", 
      "attrs": {
        "dim": "1", 
        "num_args": "2"
      }, 
      "inputs": [[293, 0, 0], [150, 0, 0]]
    }, 
    {
      "op": "negative", 
      "name": "negative133", 
      "inputs": [[226, 0, 0]]
    }, 
    {
      "op": "Concat", 
      "name": "ImRe_ins3_out2_assm_[3,3]_initialConvs_1", 
      "attrs": {
        "dim": "1", 
        "num_args": "2"
      }, 
      "inputs": [[295, 0, 0], [217, 0, 0]]
    }, 
    {
      "op": "negative", 
      "name": "negative134", 
      "inputs": [[291, 0, 0]]
    }, 
    {
      "op": "Concat", 
      "name": "ImRe_ins3_out3_assm_[3,3]_initialConvs_1", 
      "attrs": {
        "dim": "1", 
        "num_args": "2"
      }, 
      "inputs": [[297, 0, 0], [283, 0, 0]]
    }, 
    {
      "op": "Concat", 
      "name": "assembledFilter_in3_out3_assm_[3,3]_initialConvs_1", 
      "attrs": {
        "dim": "0", 
        "num_args": "6"
      }, 
      "inputs": [[161, 0, 0], [227, 0, 0], [292, 0, 0], [294, 0, 0], [296, 0, 0], [298, 0, 0]]
    }, 
    {
      "op": "Convolution", 
      "name": "conv_[3,3]_initialConvs_1", 
      "attrs": {
        "dilate": "(1, 1)", 
        "kernel": "(3, 3)", 
        "no_bias": "1", 
        "num_filter": "42", 
        "pad": "(0, 0)", 
        "stride": "(1, 1)"
      }, 
      "inputs": [[92, 0, 0], [299, 0, 0]]
    }, 
    {
      "op": "square", 
      "name": "square46", 
      "inputs": [[300, 0, 0]]
    }, 
    {
      "op": "SliceChannel", 
      "name": "split23", 
      "attrs": {
        "axis": "1", 
        "num_outputs": "2"
      }, 
      "inputs": [[301, 0, 0]]
    }, 
    {
      "op": "elemwise_add", 
      "name": "elemwise_add161", 
      "inputs": [[302, 0, 0], [302, 1, 0]]
    }, 
    {
      "op": "_plus_scalar", 
      "name": "_plusscalar70", 
      "attrs": {"scalar": "2e-05"}, 
      "inputs": [[303, 0, 0]]
    }, 
    {
      "op": "sqrt", 
      "name": "sqrt46", 
      "inputs": [[304, 0, 0]]
    }, 
    {
      "op": "square", 
      "name": "square47", 
      "inputs": [[305, 0, 0]]
    }, 
    {
      "op": "_plus_scalar", 
      "name": "_plusscalar72", 
      "attrs": {"scalar": "1"}, 
      "inputs": [[306, 0, 0]]
    }, 
    {
      "op": "sqrt", 
      "name": "sqrt47", 
      "inputs": [[307, 0, 0]]
    }, 
    {
      "op": "elemwise_div", 
      "name": "_div46", 
      "inputs": [[305, 0, 0], [308, 0, 0]]
    }, 
    {
      "op": "null", 
      "name": "initialConvs_1_(1,1,21,1)_mag_weight", 
      "inputs": []
    }, 
    {
      "op": "LeakyReLU", 
      "name": "leakyrelu23", 
      "attrs": {
        "act_type": "elu", 
        "slope": "1"
      }, 
      "inputs": [[310, 0, 0]]
    }, 
    {
      "op": "_plus_scalar", 
      "name": "_plusscalar71", 
      "attrs": {"scalar": "1"}, 
      "inputs": [[311, 0, 0]]
    }, 
    {
      "op": "broadcast_mul", 
      "name": "broadcast_mul368", 
      "inputs": [[309, 0, 0], [312, 0, 0]]
    }, 
    {
      "op": "elemwise_div", 
      "name": "_div47", 
      "inputs": [[313, 0, 0], [305, 0, 0]]
    }, 
    {
      "op": "tile", 
      "name": "tile437", 
      "attrs": {"reps": "(1, 2, 1, 1)"}, 
      "inputs": [[314, 0, 0]]
    }, 
    {
      "op": "elemwise_mul", 
      "name": "elemwise_mul575", 
      "inputs": [[300, 0, 0], [315, 0, 0]]
    }, 
    {
      "op": "Pad", 
      "name": "pad25", 
      "attrs": {
        "mode": "edge", 
        "pad_width": "(0, 0, 0, 0, 1, 1, 1, 1)"
      }, 
      "inputs": [[316, 0, 0]]
    }, 
    {
      "op": "tile", 
      "name": "tile457", 
      "attrs": {"reps": "(6, 6, 1, 1)"}, 
      "inputs": [[93, 0, 0]]
    }, 
    {
      "op": "BlockGrad", 
      "name": "blockgrad576", 
      "inputs": [[318, 0, 0]]
    }, 
    {
      "op": "null", 
      "name": "param_1->1_[3,3]_1_2_s63_Ord0_radial_(1,1,6,6)_weight", 
      "inputs": []
    }, 
    {
      "op": "broadcast_mul", 
      "name": "broadcast_mul385", 
      "inputs": [[319, 0, 0], [320, 0, 0]]
    }, 
    {
      "op": "null", 
      "name": "param_1->1_[3,3]_1_2_s63_Ord0_radial_(1,1,6,6)_bias", 
      "inputs": []
    }, 
    {
      "op": "broadcast_add", 
      "name": "broadcast_add360", 
      "inputs": [[321, 0, 0], [322, 0, 0]]
    }, 
    {
      "op": "_mul_scalar", 
      "name": "_mulscalar363", 
      "attrs": {"scalar": "100"}, 
      "inputs": [[323, 0, 0]]
    }, 
    {
      "op": "tanh", 
      "name": "tanh216", 
      "inputs": [[324, 0, 0]]
    }, 
    {
      "op": "elemwise_mul", 
      "name": "_mul216", 
      "inputs": [[323, 0, 0], [325, 0, 0]]
    }, 
    {
      "op": "tile", 
      "name": "tile464", 
      "attrs": {"reps": "(6, 10, 1, 1)"}, 
      "inputs": [[103, 0, 0]]
    }, 
    {
      "op": "BlockGrad", 
      "name": "blockgrad585", 
      "inputs": [[327, 0, 0]]
    }, 
    {
      "op": "_mul_scalar", 
      "name": "_mulscalar369", 
      "attrs": {"scalar": "1"}, 
      "inputs": [[328, 0, 0]]
    }, 
    {
      "op": "tile", 
      "name": "tile463", 
      "attrs": {"reps": "(6, 10, 1, 1)"}, 
      "inputs": [[93, 0, 0]]
    }, 
    {
      "op": "BlockGrad", 
      "name": "blockgrad584", 
      "inputs": [[330, 0, 0]]
    }, 
    {
      "op": "null", 
      "name": "param_2->1_[3,3]_1_2_s63_Ord1_angular_(1,1,10,6)_weight", 
      "inputs": []
    }, 
    {
      "op": "broadcast_mul", 
      "name": "broadcast_mul391", 
      "inputs": [[331, 0, 0], [332, 0, 0]]
    }, 
    {
      "op": "null", 
      "name": "param_2->1_[3,3]_1_2_s63_Ord1_angular_(1,1,10,6)_bias", 
      "inputs": []
    }, 
    {
      "op": "broadcast_add", 
      "name": "broadcast_add366", 
      "inputs": [[333, 0, 0], [334, 0, 0]]
    }, 
    {
      "op": "elemwise_add", 
      "name": "elemwise_add171", 
      "inputs": [[329, 0, 0], [335, 0, 0]]
    }, 
    {
      "op": "cos", 
      "name": "cos146", 
      "inputs": [[336, 0, 0]]
    }, 
    {
      "op": "ones_like", 
      "name": "ones_like146", 
      "inputs": [[331, 0, 0]]
    }, 
    {
      "op": "broadcast_lesser", 
      "name": "broadcast_lesser146", 
      "inputs": [[331, 0, 0], [338, 0, 0]]
    }, 
    {
      "op": "BlockGrad", 
      "name": "blockgrad586", 
      "inputs": [[339, 0, 0]]
    }, 
    {
      "op": "elemwise_mul", 
      "name": "elemwise_mul610", 
      "inputs": [[337, 0, 0], [340, 0, 0]]
    }, 
    {
      "op": "null", 
      "name": "param_2->1_[3,3]_1_2_s63_Ord1_radial_(1,1,10,6)_weight", 
      "inputs": []
    }, 
    {
      "op": "broadcast_mul", 
      "name": "broadcast_mul390", 
      "inputs": [[331, 0, 0], [342, 0, 0]]
    }, 
    {
      "op": "null", 
      "name": "param_2->1_[3,3]_1_2_s63_Ord1_radial_(1,1,10,6)_bias", 
      "inputs": []
    }, 
    {
      "op": "broadcast_add", 
      "name": "broadcast_add365", 
      "inputs": [[343, 0, 0], [344, 0, 0]]
    }, 
    {
      "op": "_mul_scalar", 
      "name": "_mulscalar368", 
      "attrs": {"scalar": "100"}, 
      "inputs": [[345, 0, 0]]
    }, 
    {
      "op": "tanh", 
      "name": "tanh219", 
      "inputs": [[346, 0, 0]]
    }, 
    {
      "op": "elemwise_mul", 
      "name": "_mul219", 
      "inputs": [[345, 0, 0], [347, 0, 0]]
    }, 
    {
      "op": "elemwise_mul", 
      "name": "elemwise_mul612", 
      "inputs": [[341, 0, 0], [348, 0, 0]]
    }, 
    {
      "op": "tile", 
      "name": "tile470", 
      "attrs": {"reps": "(6, 5, 1, 1)"}, 
      "inputs": [[103, 0, 0]]
    }, 
    {
      "op": "BlockGrad", 
      "name": "blockgrad593", 
      "inputs": [[350, 0, 0]]
    }, 
    {
      "op": "_mul_scalar", 
      "name": "_mulscalar374", 
      "attrs": {"scalar": "2"}, 
      "inputs": [[351, 0, 0]]
    }, 
    {
      "op": "tile", 
      "name": "tile469", 
      "attrs": {"reps": "(6, 5, 1, 1)"}, 
      "inputs": [[93, 0, 0]]
    }, 
    {
      "op": "BlockGrad", 
      "name": "blockgrad592", 
      "inputs": [[353, 0, 0]]
    }, 
    {
      "op": "null", 
      "name": "param_3->1_[3,3]_1_2_s63_Ord2_angular_(1,1,5,6)_weight", 
      "inputs": []
    }, 
    {
      "op": "broadcast_mul", 
      "name": "broadcast_mul396", 
      "inputs": [[354, 0, 0], [355, 0, 0]]
    }, 
    {
      "op": "null", 
      "name": "param_3->1_[3,3]_1_2_s63_Ord2_angular_(1,1,5,6)_bias", 
      "inputs": []
    }, 
    {
      "op": "broadcast_add", 
      "name": "broadcast_add371", 
      "inputs": [[356, 0, 0], [357, 0, 0]]
    }, 
    {
      "op": "elemwise_add", 
      "name": "elemwise_add173", 
      "inputs": [[352, 0, 0], [358, 0, 0]]
    }, 
    {
      "op": "cos", 
      "name": "cos148", 
      "inputs": [[359, 0, 0]]
    }, 
    {
      "op": "ones_like", 
      "name": "ones_like148", 
      "inputs": [[354, 0, 0]]
    }, 
    {
      "op": "broadcast_lesser", 
      "name": "broadcast_lesser148", 
      "inputs": [[354, 0, 0], [361, 0, 0]]
    }, 
    {
      "op": "BlockGrad", 
      "name": "blockgrad594", 
      "inputs": [[362, 0, 0]]
    }, 
    {
      "op": "elemwise_mul", 
      "name": "elemwise_mul618", 
      "inputs": [[360, 0, 0], [363, 0, 0]]
    }, 
    {
      "op": "null", 
      "name": "param_3->1_[3,3]_1_2_s63_Ord2_radial_(1,1,5,6)_weight", 
      "inputs": []
    }, 
    {
      "op": "broadcast_mul", 
      "name": "broadcast_mul395", 
      "inputs": [[354, 0, 0], [365, 0, 0]]
    }, 
    {
      "op": "null", 
      "name": "param_3->1_[3,3]_1_2_s63_Ord2_radial_(1,1,5,6)_bias", 
      "inputs": []
    }, 
    {
      "op": "broadcast_add", 
      "name": "broadcast_add370", 
      "inputs": [[366, 0, 0], [367, 0, 0]]
    }, 
    {
      "op": "_mul_scalar", 
      "name": "_mulscalar373", 
      "attrs": {"scalar": "100"}, 
      "inputs": [[368, 0, 0]]
    }, 
    {
      "op": "tanh", 
      "name": "tanh222", 
      "inputs": [[369, 0, 0]]
    }, 
    {
      "op": "elemwise_mul", 
      "name": "_mul222", 
      "inputs": [[368, 0, 0], [370, 0, 0]]
    }, 
    {
      "op": "elemwise_mul", 
      "name": "elemwise_mul620", 
      "inputs": [[364, 0, 0], [371, 0, 0]]
    }, 
    {
      "op": "Concat", 
      "name": "sort_ins3_out1_Re_assm_[3,3]_1_2_s63", 
      "attrs": {
        "dim": "1", 
        "num_args": "3"
      }, 
      "inputs": [[326, 0, 0], [349, 0, 0], [372, 0, 0]]
    }, 
    {
      "op": "zeros_like", 
      "name": "zeros_like72", 
      "inputs": [[326, 0, 0]]
    }, 
    {
      "op": "sin", 
      "name": "sin146", 
      "inputs": [[336, 0, 0]]
    }, 
    {
      "op": "elemwise_mul", 
      "name": "elemwise_mul609", 
      "inputs": [[375, 0, 0], [340, 0, 0]]
    }, 
    {
      "op": "elemwise_mul", 
      "name": "elemwise_mul611", 
      "inputs": [[376, 0, 0], [348, 0, 0]]
    }, 
    {
      "op": "negative", 
      "name": "negative141", 
      "inputs": [[377, 0, 0]]
    }, 
    {
      "op": "sin", 
      "name": "sin148", 
      "inputs": [[359, 0, 0]]
    }, 
    {
      "op": "elemwise_mul", 
      "name": "elemwise_mul617", 
      "inputs": [[379, 0, 0], [363, 0, 0]]
    }, 
    {
      "op": "elemwise_mul", 
      "name": "elemwise_mul619", 
      "inputs": [[380, 0, 0], [371, 0, 0]]
    }, 
    {
      "op": "negative", 
      "name": "negative142", 
      "inputs": [[381, 0, 0]]
    }, 
    {
      "op": "Concat", 
      "name": "sort_ins3_out1_Im_assm_[3,3]_1_2_s63", 
      "attrs": {
        "dim": "1", 
        "num_args": "3"
      }, 
      "inputs": [[374, 0, 0], [378, 0, 0], [382, 0, 0]]
    }, 
    {
      "op": "Concat", 
      "name": "ReIm_ins3_out1_assm_[3,3]_1_2_s63", 
      "attrs": {
        "dim": "1", 
        "num_args": "2"
      }, 
      "inputs": [[373, 0, 0], [383, 0, 0]]
    }, 
    {
      "op": "tile", 
      "name": "tile460", 
      "attrs": {"reps": "(10, 6, 1, 1)"}, 
      "inputs": [[103, 0, 0]]
    }, 
    {
      "op": "BlockGrad", 
      "name": "blockgrad579", 
      "inputs": [[385, 0, 0]]
    }, 
    {
      "op": "_mul_scalar", 
      "name": "_mulscalar365", 
      "attrs": {"scalar": "1"}, 
      "inputs": [[386, 0, 0]]
    }, 
    {
      "op": "tile", 
      "name": "tile459", 
      "attrs": {"reps": "(10, 6, 1, 1)"}, 
      "inputs": [[93, 0, 0]]
    }, 
    {
      "op": "BlockGrad", 
      "name": "blockgrad578", 
      "inputs": [[388, 0, 0]]
    }, 
    {
      "op": "null", 
      "name": "param_1->2_[3,3]_1_2_s63_Ord1_angular_(1,1,6,10)_weight", 
      "inputs": []
    }, 
    {
      "op": "broadcast_mul", 
      "name": "broadcast_mul387", 
      "inputs": [[389, 0, 0], [390, 0, 0]]
    }, 
    {
      "op": "null", 
      "name": "param_1->2_[3,3]_1_2_s63_Ord1_angular_(1,1,6,10)_bias", 
      "inputs": []
    }, 
    {
      "op": "broadcast_add", 
      "name": "broadcast_add362", 
      "inputs": [[391, 0, 0], [392, 0, 0]]
    }, 
    {
      "op": "elemwise_add", 
      "name": "elemwise_add169", 
      "inputs": [[387, 0, 0], [393, 0, 0]]
    }, 
    {
      "op": "cos", 
      "name": "cos144", 
      "inputs": [[394, 0, 0]]
    }, 
    {
      "op": "ones_like", 
      "name": "ones_like144", 
      "inputs": [[389, 0, 0]]
    }, 
    {
      "op": "broadcast_lesser", 
      "name": "broadcast_lesser144", 
      "inputs": [[389, 0, 0], [396, 0, 0]]
    }, 
    {
      "op": "BlockGrad", 
      "name": "blockgrad580", 
      "inputs": [[397, 0, 0]]
    }, 
    {
      "op": "elemwise_mul", 
      "name": "elemwise_mul602", 
      "inputs": [[395, 0, 0], [398, 0, 0]]
    }, 
    {
      "op": "null", 
      "name": "param_1->2_[3,3]_1_2_s63_Ord1_radial_(1,1,6,10)_weight", 
      "inputs": []
    }, 
    {
      "op": "broadcast_mul", 
      "name": "broadcast_mul386", 
      "inputs": [[389, 0, 0], [400, 0, 0]]
    }, 
    {
      "op": "null", 
      "name": "param_1->2_[3,3]_1_2_s63_Ord1_radial_(1,1,6,10)_bias", 
      "inputs": []
    }, 
    {
      "op": "broadcast_add", 
      "name": "broadcast_add361", 
      "inputs": [[401, 0, 0], [402, 0, 0]]
    }, 
    {
      "op": "_mul_scalar", 
      "name": "_mulscalar364", 
      "attrs": {"scalar": "100"}, 
      "inputs": [[403, 0, 0]]
    }, 
    {
      "op": "tanh", 
      "name": "tanh217", 
      "inputs": [[404, 0, 0]]
    }, 
    {
      "op": "elemwise_mul", 
      "name": "_mul217", 
      "inputs": [[403, 0, 0], [405, 0, 0]]
    }, 
    {
      "op": "elemwise_mul", 
      "name": "elemwise_mul604", 
      "inputs": [[399, 0, 0], [406, 0, 0]]
    }, 
    {
      "op": "tile", 
      "name": "tile465", 
      "attrs": {"reps": "(10, 10, 1, 1)"}, 
      "inputs": [[93, 0, 0]]
    }, 
    {
      "op": "BlockGrad", 
      "name": "blockgrad587", 
      "inputs": [[408, 0, 0]]
    }, 
    {
      "op": "null", 
      "name": "param_2->2_[3,3]_1_2_s63_Ord0_radial_(1,1,10,10)_weight", 
      "inputs": []
    }, 
    {
      "op": "broadcast_mul", 
      "name": "broadcast_mul392", 
      "inputs": [[409, 0, 0], [410, 0, 0]]
    }, 
    {
      "op": "null", 
      "name": "param_2->2_[3,3]_1_2_s63_Ord0_radial_(1,1,10,10)_bias", 
      "inputs": []
    }, 
    {
      "op": "broadcast_add", 
      "name": "broadcast_add367", 
      "inputs": [[411, 0, 0], [412, 0, 0]]
    }, 
    {
      "op": "_mul_scalar", 
      "name": "_mulscalar370", 
      "attrs": {"scalar": "100"}, 
      "inputs": [[413, 0, 0]]
    }, 
    {
      "op": "tanh", 
      "name": "tanh220", 
      "inputs": [[414, 0, 0]]
    }, 
    {
      "op": "elemwise_mul", 
      "name": "_mul220", 
      "inputs": [[413, 0, 0], [415, 0, 0]]
    }, 
    {
      "op": "tile", 
      "name": "tile472", 
      "attrs": {"reps": "(10, 5, 1, 1)"}, 
      "inputs": [[103, 0, 0]]
    }, 
    {
      "op": "BlockGrad", 
      "name": "blockgrad596", 
      "inputs": [[417, 0, 0]]
    }, 
    {
      "op": "_mul_scalar", 
      "name": "_mulscalar376", 
      "attrs": {"scalar": "1"}, 
      "inputs": [[418, 0, 0]]
    }, 
    {
      "op": "tile", 
      "name": "tile471", 
      "attrs": {"reps": "(10, 5, 1, 1)"}, 
      "inputs": [[93, 0, 0]]
    }, 
    {
      "op": "BlockGrad", 
      "name": "blockgrad595", 
      "inputs": [[420, 0, 0]]
    }, 
    {
      "op": "null", 
      "name": "param_3->2_[3,3]_1_2_s63_Ord1_angular_(1,1,5,10)_weight", 
      "inputs": []
    }, 
    {
      "op": "broadcast_mul", 
      "name": "broadcast_mul398", 
      "inputs": [[421, 0, 0], [422, 0, 0]]
    }, 
    {
      "op": "null", 
      "name": "param_3->2_[3,3]_1_2_s63_Ord1_angular_(1,1,5,10)_bias", 
      "inputs": []
    }, 
    {
      "op": "broadcast_add", 
      "name": "broadcast_add373", 
      "inputs": [[423, 0, 0], [424, 0, 0]]
    }, 
    {
      "op": "elemwise_add", 
      "name": "elemwise_add174", 
      "inputs": [[419, 0, 0], [425, 0, 0]]
    }, 
    {
      "op": "cos", 
      "name": "cos149", 
      "inputs": [[426, 0, 0]]
    }, 
    {
      "op": "ones_like", 
      "name": "ones_like149", 
      "inputs": [[421, 0, 0]]
    }, 
    {
      "op": "broadcast_lesser", 
      "name": "broadcast_lesser149", 
      "inputs": [[421, 0, 0], [428, 0, 0]]
    }, 
    {
      "op": "BlockGrad", 
      "name": "blockgrad597", 
      "inputs": [[429, 0, 0]]
    }, 
    {
      "op": "elemwise_mul", 
      "name": "elemwise_mul622", 
      "inputs": [[427, 0, 0], [430, 0, 0]]
    }, 
    {
      "op": "null", 
      "name": "param_3->2_[3,3]_1_2_s63_Ord1_radial_(1,1,5,10)_weight", 
      "inputs": []
    }, 
    {
      "op": "broadcast_mul", 
      "name": "broadcast_mul397", 
      "inputs": [[421, 0, 0], [432, 0, 0]]
    }, 
    {
      "op": "null", 
      "name": "param_3->2_[3,3]_1_2_s63_Ord1_radial_(1,1,5,10)_bias", 
      "inputs": []
    }, 
    {
      "op": "broadcast_add", 
      "name": "broadcast_add372", 
      "inputs": [[433, 0, 0], [434, 0, 0]]
    }, 
    {
      "op": "_mul_scalar", 
      "name": "_mulscalar375", 
      "attrs": {"scalar": "100"}, 
      "inputs": [[435, 0, 0]]
    }, 
    {
      "op": "tanh", 
      "name": "tanh223", 
      "inputs": [[436, 0, 0]]
    }, 
    {
      "op": "elemwise_mul", 
      "name": "_mul223", 
      "inputs": [[435, 0, 0], [437, 0, 0]]
    }, 
    {
      "op": "elemwise_mul", 
      "name": "elemwise_mul624", 
      "inputs": [[431, 0, 0], [438, 0, 0]]
    }, 
    {
      "op": "Concat", 
      "name": "sort_ins3_out2_Re_assm_[3,3]_1_2_s63", 
      "attrs": {
        "dim": "1", 
        "num_args": "3"
      }, 
      "inputs": [[407, 0, 0], [416, 0, 0], [439, 0, 0]]
    }, 
    {
      "op": "sin", 
      "name": "sin144", 
      "inputs": [[394, 0, 0]]
    }, 
    {
      "op": "elemwise_mul", 
      "name": "elemwise_mul601", 
      "inputs": [[441, 0, 0], [398, 0, 0]]
    }, 
    {
      "op": "elemwise_mul", 
      "name": "elemwise_mul603", 
      "inputs": [[442, 0, 0], [406, 0, 0]]
    }, 
    {
      "op": "zeros_like", 
      "name": "zeros_like73", 
      "inputs": [[416, 0, 0]]
    }, 
    {
      "op": "sin", 
      "name": "sin149", 
      "inputs": [[426, 0, 0]]
    }, 
    {
      "op": "elemwise_mul", 
      "name": "elemwise_mul621", 
      "inputs": [[445, 0, 0], [430, 0, 0]]
    }, 
    {
      "op": "elemwise_mul", 
      "name": "elemwise_mul623", 
      "inputs": [[446, 0, 0], [438, 0, 0]]
    }, 
    {
      "op": "negative", 
      "name": "negative144", 
      "inputs": [[447, 0, 0]]
    }, 
    {
      "op": "Concat", 
      "name": "sort_ins3_out2_Im_assm_[3,3]_1_2_s63", 
      "attrs": {
        "dim": "1", 
        "num_args": "3"
      }, 
      "inputs": [[443, 0, 0], [444, 0, 0], [448, 0, 0]]
    }, 
    {
      "op": "Concat", 
      "name": "ReIm_ins3_out2_assm_[3,3]_1_2_s63", 
      "attrs": {
        "dim": "1", 
        "num_args": "2"
      }, 
      "inputs": [[440, 0, 0], [449, 0, 0]]
    }, 
    {
      "op": "tile", 
      "name": "tile462", 
      "attrs": {"reps": "(5, 6, 1, 1)"}, 
      "inputs": [[103, 0, 0]]
    }, 
    {
      "op": "BlockGrad", 
      "name": "blockgrad582", 
      "inputs": [[451, 0, 0]]
    }, 
    {
      "op": "_mul_scalar", 
      "name": "_mulscalar367", 
      "attrs": {"scalar": "2"}, 
      "inputs": [[452, 0, 0]]
    }, 
    {
      "op": "tile", 
      "name": "tile461", 
      "attrs": {"reps": "(5, 6, 1, 1)"}, 
      "inputs": [[93, 0, 0]]
    }, 
    {
      "op": "BlockGrad", 
      "name": "blockgrad581", 
      "inputs": [[454, 0, 0]]
    }, 
    {
      "op": "null", 
      "name": "param_1->3_[3,3]_1_2_s63_Ord2_angular_(1,1,6,5)_weight", 
      "inputs": []
    }, 
    {
      "op": "broadcast_mul", 
      "name": "broadcast_mul389", 
      "inputs": [[455, 0, 0], [456, 0, 0]]
    }, 
    {
      "op": "null", 
      "name": "param_1->3_[3,3]_1_2_s63_Ord2_angular_(1,1,6,5)_bias", 
      "inputs": []
    }, 
    {
      "op": "broadcast_add", 
      "name": "broadcast_add364", 
      "inputs": [[457, 0, 0], [458, 0, 0]]
    }, 
    {
      "op": "elemwise_add", 
      "name": "elemwise_add170", 
      "inputs": [[453, 0, 0], [459, 0, 0]]
    }, 
    {
      "op": "cos", 
      "name": "cos145", 
      "inputs": [[460, 0, 0]]
    }, 
    {
      "op": "ones_like", 
      "name": "ones_like145", 
      "inputs": [[455, 0, 0]]
    }, 
    {
      "op": "broadcast_lesser", 
      "name": "broadcast_lesser145", 
      "inputs": [[455, 0, 0], [462, 0, 0]]
    }, 
    {
      "op": "BlockGrad", 
      "name": "blockgrad583", 
      "inputs": [[463, 0, 0]]
    }, 
    {
      "op": "elemwise_mul", 
      "name": "elemwise_mul606", 
      "inputs": [[461, 0, 0], [464, 0, 0]]
    }, 
    {
      "op": "null", 
      "name": "param_1->3_[3,3]_1_2_s63_Ord2_radial_(1,1,6,5)_weight", 
      "inputs": []
    }, 
    {
      "op": "broadcast_mul", 
      "name": "broadcast_mul388", 
      "inputs": [[455, 0, 0], [466, 0, 0]]
    }, 
    {
      "op": "null", 
      "name": "param_1->3_[3,3]_1_2_s63_Ord2_radial_(1,1,6,5)_bias", 
      "inputs": []
    }, 
    {
      "op": "broadcast_add", 
      "name": "broadcast_add363", 
      "inputs": [[467, 0, 0], [468, 0, 0]]
    }, 
    {
      "op": "_mul_scalar", 
      "name": "_mulscalar366", 
      "attrs": {"scalar": "100"}, 
      "inputs": [[469, 0, 0]]
    }, 
    {
      "op": "tanh", 
      "name": "tanh218", 
      "inputs": [[470, 0, 0]]
    }, 
    {
      "op": "elemwise_mul", 
      "name": "_mul218", 
      "inputs": [[469, 0, 0], [471, 0, 0]]
    }, 
    {
      "op": "elemwise_mul", 
      "name": "elemwise_mul608", 
      "inputs": [[465, 0, 0], [472, 0, 0]]
    }, 
    {
      "op": "tile", 
      "name": "tile468", 
      "attrs": {"reps": "(5, 10, 1, 1)"}, 
      "inputs": [[103, 0, 0]]
    }, 
    {
      "op": "BlockGrad", 
      "name": "blockgrad590", 
      "inputs": [[474, 0, 0]]
    }, 
    {
      "op": "_mul_scalar", 
      "name": "_mulscalar372", 
      "attrs": {"scalar": "1"}, 
      "inputs": [[475, 0, 0]]
    }, 
    {
      "op": "tile", 
      "name": "tile467", 
      "attrs": {"reps": "(5, 10, 1, 1)"}, 
      "inputs": [[93, 0, 0]]
    }, 
    {
      "op": "BlockGrad", 
      "name": "blockgrad589", 
      "inputs": [[477, 0, 0]]
    }, 
    {
      "op": "null", 
      "name": "param_2->3_[3,3]_1_2_s63_Ord1_angular_(1,1,10,5)_weight", 
      "inputs": []
    }, 
    {
      "op": "broadcast_mul", 
      "name": "broadcast_mul394", 
      "inputs": [[478, 0, 0], [479, 0, 0]]
    }, 
    {
      "op": "null", 
      "name": "param_2->3_[3,3]_1_2_s63_Ord1_angular_(1,1,10,5)_bias", 
      "inputs": []
    }, 
    {
      "op": "broadcast_add", 
      "name": "broadcast_add369", 
      "inputs": [[480, 0, 0], [481, 0, 0]]
    }, 
    {
      "op": "elemwise_add", 
      "name": "elemwise_add172", 
      "inputs": [[476, 0, 0], [482, 0, 0]]
    }, 
    {
      "op": "cos", 
      "name": "cos147", 
      "inputs": [[483, 0, 0]]
    }, 
    {
      "op": "ones_like", 
      "name": "ones_like147", 
      "inputs": [[478, 0, 0]]
    }, 
    {
      "op": "broadcast_lesser", 
      "name": "broadcast_lesser147", 
      "inputs": [[478, 0, 0], [485, 0, 0]]
    }, 
    {
      "op": "BlockGrad", 
      "name": "blockgrad591", 
      "inputs": [[486, 0, 0]]
    }, 
    {
      "op": "elemwise_mul", 
      "name": "elemwise_mul614", 
      "inputs": [[484, 0, 0], [487, 0, 0]]
    }, 
    {
      "op": "null", 
      "name": "param_2->3_[3,3]_1_2_s63_Ord1_radial_(1,1,10,5)_weight", 
      "inputs": []
    }, 
    {
      "op": "broadcast_mul", 
      "name": "broadcast_mul393", 
      "inputs": [[478, 0, 0], [489, 0, 0]]
    }, 
    {
      "op": "null", 
      "name": "param_2->3_[3,3]_1_2_s63_Ord1_radial_(1,1,10,5)_bias", 
      "inputs": []
    }, 
    {
      "op": "broadcast_add", 
      "name": "broadcast_add368", 
      "inputs": [[490, 0, 0], [491, 0, 0]]
    }, 
    {
      "op": "_mul_scalar", 
      "name": "_mulscalar371", 
      "attrs": {"scalar": "100"}, 
      "inputs": [[492, 0, 0]]
    }, 
    {
      "op": "tanh", 
      "name": "tanh221", 
      "inputs": [[493, 0, 0]]
    }, 
    {
      "op": "elemwise_mul", 
      "name": "_mul221", 
      "inputs": [[492, 0, 0], [494, 0, 0]]
    }, 
    {
      "op": "elemwise_mul", 
      "name": "elemwise_mul616", 
      "inputs": [[488, 0, 0], [495, 0, 0]]
    }, 
    {
      "op": "tile", 
      "name": "tile473", 
      "attrs": {"reps": "(5, 5, 1, 1)"}, 
      "inputs": [[93, 0, 0]]
    }, 
    {
      "op": "BlockGrad", 
      "name": "blockgrad598", 
      "inputs": [[497, 0, 0]]
    }, 
    {
      "op": "null", 
      "name": "param_3->3_[3,3]_1_2_s63_Ord0_radial_(1,1,5,5)_weight", 
      "inputs": []
    }, 
    {
      "op": "broadcast_mul", 
      "name": "broadcast_mul399", 
      "inputs": [[498, 0, 0], [499, 0, 0]]
    }, 
    {
      "op": "null", 
      "name": "param_3->3_[3,3]_1_2_s63_Ord0_radial_(1,1,5,5)_bias", 
      "inputs": []
    }, 
    {
      "op": "broadcast_add", 
      "name": "broadcast_add374", 
      "inputs": [[500, 0, 0], [501, 0, 0]]
    }, 
    {
      "op": "_mul_scalar", 
      "name": "_mulscalar377", 
      "attrs": {"scalar": "100"}, 
      "inputs": [[502, 0, 0]]
    }, 
    {
      "op": "tanh", 
      "name": "tanh224", 
      "inputs": [[503, 0, 0]]
    }, 
    {
      "op": "elemwise_mul", 
      "name": "_mul224", 
      "inputs": [[502, 0, 0], [504, 0, 0]]
    }, 
    {
      "op": "Concat", 
      "name": "sort_ins3_out3_Re_assm_[3,3]_1_2_s63", 
      "attrs": {
        "dim": "1", 
        "num_args": "3"
      }, 
      "inputs": [[473, 0, 0], [496, 0, 0], [505, 0, 0]]
    }, 
    {
      "op": "sin", 
      "name": "sin145", 
      "inputs": [[460, 0, 0]]
    }, 
    {
      "op": "elemwise_mul", 
      "name": "elemwise_mul605", 
      "inputs": [[507, 0, 0], [464, 0, 0]]
    }, 
    {
      "op": "elemwise_mul", 
      "name": "elemwise_mul607", 
      "inputs": [[508, 0, 0], [472, 0, 0]]
    }, 
    {
      "op": "sin", 
      "name": "sin147", 
      "inputs": [[483, 0, 0]]
    }, 
    {
      "op": "elemwise_mul", 
      "name": "elemwise_mul613", 
      "inputs": [[510, 0, 0], [487, 0, 0]]
    }, 
    {
      "op": "elemwise_mul", 
      "name": "elemwise_mul615", 
      "inputs": [[511, 0, 0], [495, 0, 0]]
    }, 
    {
      "op": "zeros_like", 
      "name": "zeros_like74", 
      "inputs": [[505, 0, 0]]
    }, 
    {
      "op": "Concat", 
      "name": "sort_ins3_out3_Im_assm_[3,3]_1_2_s63", 
      "attrs": {
        "dim": "1", 
        "num_args": "3"
      }, 
      "inputs": [[509, 0, 0], [512, 0, 0], [513, 0, 0]]
    }, 
    {
      "op": "Concat", 
      "name": "ReIm_ins3_out3_assm_[3,3]_1_2_s63", 
      "attrs": {
        "dim": "1", 
        "num_args": "2"
      }, 
      "inputs": [[506, 0, 0], [514, 0, 0]]
    }, 
    {
      "op": "negative", 
      "name": "negative143", 
      "inputs": [[383, 0, 0]]
    }, 
    {
      "op": "Concat", 
      "name": "ImRe_ins3_out1_assm_[3,3]_1_2_s63", 
      "attrs": {
        "dim": "1", 
        "num_args": "2"
      }, 
      "inputs": [[516, 0, 0], [373, 0, 0]]
    }, 
    {
      "op": "negative", 
      "name": "negative145", 
      "inputs": [[449, 0, 0]]
    }, 
    {
      "op": "Concat", 
      "name": "ImRe_ins3_out2_assm_[3,3]_1_2_s63", 
      "attrs": {
        "dim": "1", 
        "num_args": "2"
      }, 
      "inputs": [[518, 0, 0], [440, 0, 0]]
    }, 
    {
      "op": "negative", 
      "name": "negative146", 
      "inputs": [[514, 0, 0]]
    }, 
    {
      "op": "Concat", 
      "name": "ImRe_ins3_out3_assm_[3,3]_1_2_s63", 
      "attrs": {
        "dim": "1", 
        "num_args": "2"
      }, 
      "inputs": [[520, 0, 0], [506, 0, 0]]
    }, 
    {
      "op": "Concat", 
      "name": "assembledFilter_in3_out3_assm_[3,3]_1_2_s63", 
      "attrs": {
        "dim": "0", 
        "num_args": "6"
      }, 
      "inputs": [[384, 0, 0], [450, 0, 0], [515, 0, 0], [517, 0, 0], [519, 0, 0], [521, 0, 0]]
    }, 
    {
      "op": "Convolution", 
      "name": "conv_[3,3]_1_2_s63", 
      "attrs": {
        "dilate": "(1, 1)", 
        "kernel": "(3, 3)", 
        "no_bias": "1", 
        "num_filter": "42", 
        "pad": "(0, 0)", 
        "stride": "(1, 1)"
      }, 
      "inputs": [[317, 0, 0], [522, 0, 0]]
    }, 
    {
      "op": "square", 
      "name": "square50", 
      "inputs": [[523, 0, 0]]
    }, 
    {
      "op": "SliceChannel", 
      "name": "split25", 
      "attrs": {
        "axis": "1", 
        "num_outputs": "2"
      }, 
      "inputs": [[524, 0, 0]]
    }, 
    {
      "op": "elemwise_add", 
      "name": "elemwise_add175", 
      "inputs": [[525, 0, 0], [525, 1, 0]]
    }, 
    {
      "op": "_plus_scalar", 
      "name": "_plusscalar76", 
      "attrs": {"scalar": "2e-05"}, 
      "inputs": [[526, 0, 0]]
    }, 
    {
      "op": "sqrt", 
      "name": "sqrt50", 
      "inputs": [[527, 0, 0]]
    }, 
    {
      "op": "square", 
      "name": "square51", 
      "inputs": [[528, 0, 0]]
    }, 
    {
      "op": "_plus_scalar", 
      "name": "_plusscalar78", 
      "attrs": {"scalar": "1"}, 
      "inputs": [[529, 0, 0]]
    }, 
    {
      "op": "sqrt", 
      "name": "sqrt51", 
      "inputs": [[530, 0, 0]]
    }, 
    {
      "op": "elemwise_div", 
      "name": "_div50", 
      "inputs": [[528, 0, 0], [531, 0, 0]]
    }, 
    {
      "op": "null", 
      "name": "1_2_s63_(1,1,21,1)_mag_weight", 
      "inputs": []
    }, 
    {
      "op": "LeakyReLU", 
      "name": "leakyrelu25", 
      "attrs": {
        "act_type": "elu", 
        "slope": "1"
      }, 
      "inputs": [[533, 0, 0]]
    }, 
    {
      "op": "_plus_scalar", 
      "name": "_plusscalar77", 
      "attrs": {"scalar": "1"}, 
      "inputs": [[534, 0, 0]]
    }, 
    {
      "op": "broadcast_mul", 
      "name": "broadcast_mul400", 
      "inputs": [[532, 0, 0], [535, 0, 0]]
    }, 
    {
      "op": "elemwise_div", 
      "name": "_div51", 
      "inputs": [[536, 0, 0], [528, 0, 0]]
    }, 
    {
      "op": "tile", 
      "name": "tile475", 
      "attrs": {"reps": "(1, 2, 1, 1)"}, 
      "inputs": [[537, 0, 0]]
    }, 
    {
      "op": "elemwise_mul", 
      "name": "elemwise_mul625", 
      "inputs": [[523, 0, 0], [538, 0, 0]]
    }, 
    {
      "op": "elemwise_add", 
      "name": "skipConn_1", 
      "inputs": [[316, 0, 0], [539, 0, 0]]
    }, 
    {
      "op": "Pad", 
      "name": "pad27", 
      "attrs": {
        "mode": "edge", 
        "pad_width": "(0, 0, 0, 0, 2, 2, 2, 2)"
      }, 
      "inputs": [[540, 0, 0]]
    }, 
    {
      "op": "tile", 
      "name": "tile495", 
      "attrs": {"reps": "(6, 6, 1, 1)"}, 
      "inputs": [[93, 0, 0]]
    }, 
    {
      "op": "BlockGrad", 
      "name": "blockgrad624", 
      "inputs": [[542, 0, 0]]
    }, 
    {
      "op": "null", 
      "name": "param_1->1_[3,3]_2_2_s48_Ord0_radial_(1,1,6,6)_weight", 
      "inputs": []
    }, 
    {
      "op": "broadcast_mul", 
      "name": "broadcast_mul417", 
      "inputs": [[543, 0, 0], [544, 0, 0]]
    }, 
    {
      "op": "null", 
      "name": "param_1->1_[3,3]_2_2_s48_Ord0_radial_(1,1,6,6)_bias", 
      "inputs": []
    }, 
    {
      "op": "broadcast_add", 
      "name": "broadcast_add390", 
      "inputs": [[545, 0, 0], [546, 0, 0]]
    }, 
    {
      "op": "_mul_scalar", 
      "name": "_mulscalar393", 
      "attrs": {"scalar": "100"}, 
      "inputs": [[547, 0, 0]]
    }, 
    {
      "op": "tanh", 
      "name": "tanh234", 
      "inputs": [[548, 0, 0]]
    }, 
    {
      "op": "elemwise_mul", 
      "name": "_mul234", 
      "inputs": [[547, 0, 0], [549, 0, 0]]
    }, 
    {
      "op": "tile", 
      "name": "tile502", 
      "attrs": {"reps": "(6, 10, 1, 1)"}, 
      "inputs": [[103, 0, 0]]
    }, 
    {
      "op": "BlockGrad", 
      "name": "blockgrad633", 
      "inputs": [[551, 0, 0]]
    }, 
    {
      "op": "_mul_scalar", 
      "name": "_mulscalar399", 
      "attrs": {"scalar": "1"}, 
      "inputs": [[552, 0, 0]]
    }, 
    {
      "op": "tile", 
      "name": "tile501", 
      "attrs": {"reps": "(6, 10, 1, 1)"}, 
      "inputs": [[93, 0, 0]]
    }, 
    {
      "op": "BlockGrad", 
      "name": "blockgrad632", 
      "inputs": [[554, 0, 0]]
    }, 
    {
      "op": "null", 
      "name": "param_2->1_[3,3]_2_2_s48_Ord1_angular_(1,1,10,6)_weight", 
      "inputs": []
    }, 
    {
      "op": "broadcast_mul", 
      "name": "broadcast_mul423", 
      "inputs": [[555, 0, 0], [556, 0, 0]]
    }, 
    {
      "op": "null", 
      "name": "param_2->1_[3,3]_2_2_s48_Ord1_angular_(1,1,10,6)_bias", 
      "inputs": []
    }, 
    {
      "op": "broadcast_add", 
      "name": "broadcast_add396", 
      "inputs": [[557, 0, 0], [558, 0, 0]]
    }, 
    {
      "op": "elemwise_add", 
      "name": "elemwise_add185", 
      "inputs": [[553, 0, 0], [559, 0, 0]]
    }, 
    {
      "op": "cos", 
      "name": "cos158", 
      "inputs": [[560, 0, 0]]
    }, 
    {
      "op": "ones_like", 
      "name": "ones_like158", 
      "inputs": [[555, 0, 0]]
    }, 
    {
      "op": "broadcast_lesser", 
      "name": "broadcast_lesser158", 
      "inputs": [[555, 0, 0], [562, 0, 0]]
    }, 
    {
      "op": "BlockGrad", 
      "name": "blockgrad634", 
      "inputs": [[563, 0, 0]]
    }, 
    {
      "op": "elemwise_mul", 
      "name": "elemwise_mul660", 
      "inputs": [[561, 0, 0], [564, 0, 0]]
    }, 
    {
      "op": "null", 
      "name": "param_2->1_[3,3]_2_2_s48_Ord1_radial_(1,1,10,6)_weight", 
      "inputs": []
    }, 
    {
      "op": "broadcast_mul", 
      "name": "broadcast_mul422", 
      "inputs": [[555, 0, 0], [566, 0, 0]]
    }, 
    {
      "op": "null", 
      "name": "param_2->1_[3,3]_2_2_s48_Ord1_radial_(1,1,10,6)_bias", 
      "inputs": []
    }, 
    {
      "op": "broadcast_add", 
      "name": "broadcast_add395", 
      "inputs": [[567, 0, 0], [568, 0, 0]]
    }, 
    {
      "op": "_mul_scalar", 
      "name": "_mulscalar398", 
      "attrs": {"scalar": "100"}, 
      "inputs": [[569, 0, 0]]
    }, 
    {
      "op": "tanh", 
      "name": "tanh237", 
      "inputs": [[570, 0, 0]]
    }, 
    {
      "op": "elemwise_mul", 
      "name": "_mul237", 
      "inputs": [[569, 0, 0], [571, 0, 0]]
    }, 
    {
      "op": "elemwise_mul", 
      "name": "elemwise_mul662", 
      "inputs": [[565, 0, 0], [572, 0, 0]]
    }, 
    {
      "op": "tile", 
      "name": "tile508", 
      "attrs": {"reps": "(6, 5, 1, 1)"}, 
      "inputs": [[103, 0, 0]]
    }, 
    {
      "op": "BlockGrad", 
      "name": "blockgrad641", 
      "inputs": [[574, 0, 0]]
    }, 
    {
      "op": "_mul_scalar", 
      "name": "_mulscalar404", 
      "attrs": {"scalar": "2"}, 
      "inputs": [[575, 0, 0]]
    }, 
    {
      "op": "tile", 
      "name": "tile507", 
      "attrs": {"reps": "(6, 5, 1, 1)"}, 
      "inputs": [[93, 0, 0]]
    }, 
    {
      "op": "BlockGrad", 
      "name": "blockgrad640", 
      "inputs": [[577, 0, 0]]
    }, 
    {
      "op": "null", 
      "name": "param_3->1_[3,3]_2_2_s48_Ord2_angular_(1,1,5,6)_weight", 
      "inputs": []
    }, 
    {
      "op": "broadcast_mul", 
      "name": "broadcast_mul428", 
      "inputs": [[578, 0, 0], [579, 0, 0]]
    }, 
    {
      "op": "null", 
      "name": "param_3->1_[3,3]_2_2_s48_Ord2_angular_(1,1,5,6)_bias", 
      "inputs": []
    }, 
    {
      "op": "broadcast_add", 
      "name": "broadcast_add401", 
      "inputs": [[580, 0, 0], [581, 0, 0]]
    }, 
    {
      "op": "elemwise_add", 
      "name": "elemwise_add187", 
      "inputs": [[576, 0, 0], [582, 0, 0]]
    }, 
    {
      "op": "cos", 
      "name": "cos160", 
      "inputs": [[583, 0, 0]]
    }, 
    {
      "op": "ones_like", 
      "name": "ones_like160", 
      "inputs": [[578, 0, 0]]
    }, 
    {
      "op": "broadcast_lesser", 
      "name": "broadcast_lesser160", 
      "inputs": [[578, 0, 0], [585, 0, 0]]
    }, 
    {
      "op": "BlockGrad", 
      "name": "blockgrad642", 
      "inputs": [[586, 0, 0]]
    }, 
    {
      "op": "elemwise_mul", 
      "name": "elemwise_mul668", 
      "inputs": [[584, 0, 0], [587, 0, 0]]
    }, 
    {
      "op": "null", 
      "name": "param_3->1_[3,3]_2_2_s48_Ord2_radial_(1,1,5,6)_weight", 
      "inputs": []
    }, 
    {
      "op": "broadcast_mul", 
      "name": "broadcast_mul427", 
      "inputs": [[578, 0, 0], [589, 0, 0]]
    }, 
    {
      "op": "null", 
      "name": "param_3->1_[3,3]_2_2_s48_Ord2_radial_(1,1,5,6)_bias", 
      "inputs": []
    }, 
    {
      "op": "broadcast_add", 
      "name": "broadcast_add400", 
      "inputs": [[590, 0, 0], [591, 0, 0]]
    }, 
    {
      "op": "_mul_scalar", 
      "name": "_mulscalar403", 
      "attrs": {"scalar": "100"}, 
      "inputs": [[592, 0, 0]]
    }, 
    {
      "op": "tanh", 
      "name": "tanh240", 
      "inputs": [[593, 0, 0]]
    }, 
    {
      "op": "elemwise_mul", 
      "name": "_mul240", 
      "inputs": [[592, 0, 0], [594, 0, 0]]
    }, 
    {
      "op": "elemwise_mul", 
      "name": "elemwise_mul670", 
      "inputs": [[588, 0, 0], [595, 0, 0]]
    }, 
    {
      "op": "Concat", 
      "name": "sort_ins3_out1_Re_assm_[3,3]_2_2_s48", 
      "attrs": {
        "dim": "1", 
        "num_args": "3"
      }, 
      "inputs": [[550, 0, 0], [573, 0, 0], [596, 0, 0]]
    }, 
    {
      "op": "zeros_like", 
      "name": "zeros_like78", 
      "inputs": [[550, 0, 0]]
    }, 
    {
      "op": "sin", 
      "name": "sin158", 
      "inputs": [[560, 0, 0]]
    }, 
    {
      "op": "elemwise_mul", 
      "name": "elemwise_mul659", 
      "inputs": [[599, 0, 0], [564, 0, 0]]
    }, 
    {
      "op": "elemwise_mul", 
      "name": "elemwise_mul661", 
      "inputs": [[600, 0, 0], [572, 0, 0]]
    }, 
    {
      "op": "negative", 
      "name": "negative153", 
      "inputs": [[601, 0, 0]]
    }, 
    {
      "op": "sin", 
      "name": "sin160", 
      "inputs": [[583, 0, 0]]
    }, 
    {
      "op": "elemwise_mul", 
      "name": "elemwise_mul667", 
      "inputs": [[603, 0, 0], [587, 0, 0]]
    }, 
    {
      "op": "elemwise_mul", 
      "name": "elemwise_mul669", 
      "inputs": [[604, 0, 0], [595, 0, 0]]
    }, 
    {
      "op": "negative", 
      "name": "negative154", 
      "inputs": [[605, 0, 0]]
    }, 
    {
      "op": "Concat", 
      "name": "sort_ins3_out1_Im_assm_[3,3]_2_2_s48", 
      "attrs": {
        "dim": "1", 
        "num_args": "3"
      }, 
      "inputs": [[598, 0, 0], [602, 0, 0], [606, 0, 0]]
    }, 
    {
      "op": "Concat", 
      "name": "ReIm_ins3_out1_assm_[3,3]_2_2_s48", 
      "attrs": {
        "dim": "1", 
        "num_args": "2"
      }, 
      "inputs": [[597, 0, 0], [607, 0, 0]]
    }, 
    {
      "op": "tile", 
      "name": "tile498", 
      "attrs": {"reps": "(10, 6, 1, 1)"}, 
      "inputs": [[103, 0, 0]]
    }, 
    {
      "op": "BlockGrad", 
      "name": "blockgrad627", 
      "inputs": [[609, 0, 0]]
    }, 
    {
      "op": "_mul_scalar", 
      "name": "_mulscalar395", 
      "attrs": {"scalar": "1"}, 
      "inputs": [[610, 0, 0]]
    }, 
    {
      "op": "tile", 
      "name": "tile497", 
      "attrs": {"reps": "(10, 6, 1, 1)"}, 
      "inputs": [[93, 0, 0]]
    }, 
    {
      "op": "BlockGrad", 
      "name": "blockgrad626", 
      "inputs": [[612, 0, 0]]
    }, 
    {
      "op": "null", 
      "name": "param_1->2_[3,3]_2_2_s48_Ord1_angular_(1,1,6,10)_weight", 
      "inputs": []
    }, 
    {
      "op": "broadcast_mul", 
      "name": "broadcast_mul419", 
      "inputs": [[613, 0, 0], [614, 0, 0]]
    }, 
    {
      "op": "null", 
      "name": "param_1->2_[3,3]_2_2_s48_Ord1_angular_(1,1,6,10)_bias", 
      "inputs": []
    }, 
    {
      "op": "broadcast_add", 
      "name": "broadcast_add392", 
      "inputs": [[615, 0, 0], [616, 0, 0]]
    }, 
    {
      "op": "elemwise_add", 
      "name": "elemwise_add183", 
      "inputs": [[611, 0, 0], [617, 0, 0]]
    }, 
    {
      "op": "cos", 
      "name": "cos156", 
      "inputs": [[618, 0, 0]]
    }, 
    {
      "op": "ones_like", 
      "name": "ones_like156", 
      "inputs": [[613, 0, 0]]
    }, 
    {
      "op": "broadcast_lesser", 
      "name": "broadcast_lesser156", 
      "inputs": [[613, 0, 0], [620, 0, 0]]
    }, 
    {
      "op": "BlockGrad", 
      "name": "blockgrad628", 
      "inputs": [[621, 0, 0]]
    }, 
    {
      "op": "elemwise_mul", 
      "name": "elemwise_mul652", 
      "inputs": [[619, 0, 0], [622, 0, 0]]
    }, 
    {
      "op": "null", 
      "name": "param_1->2_[3,3]_2_2_s48_Ord1_radial_(1,1,6,10)_weight", 
      "inputs": []
    }, 
    {
      "op": "broadcast_mul", 
      "name": "broadcast_mul418", 
      "inputs": [[613, 0, 0], [624, 0, 0]]
    }, 
    {
      "op": "null", 
      "name": "param_1->2_[3,3]_2_2_s48_Ord1_radial_(1,1,6,10)_bias", 
      "inputs": []
    }, 
    {
      "op": "broadcast_add", 
      "name": "broadcast_add391", 
      "inputs": [[625, 0, 0], [626, 0, 0]]
    }, 
    {
      "op": "_mul_scalar", 
      "name": "_mulscalar394", 
      "attrs": {"scalar": "100"}, 
      "inputs": [[627, 0, 0]]
    }, 
    {
      "op": "tanh", 
      "name": "tanh235", 
      "inputs": [[628, 0, 0]]
    }, 
    {
      "op": "elemwise_mul", 
      "name": "_mul235", 
      "inputs": [[627, 0, 0], [629, 0, 0]]
    }, 
    {
      "op": "elemwise_mul", 
      "name": "elemwise_mul654", 
      "inputs": [[623, 0, 0], [630, 0, 0]]
    }, 
    {
      "op": "tile", 
      "name": "tile503", 
      "attrs": {"reps": "(10, 10, 1, 1)"}, 
      "inputs": [[93, 0, 0]]
    }, 
    {
      "op": "BlockGrad", 
      "name": "blockgrad635", 
      "inputs": [[632, 0, 0]]
    }, 
    {
      "op": "null", 
      "name": "param_2->2_[3,3]_2_2_s48_Ord0_radial_(1,1,10,10)_weight", 
      "inputs": []
    }, 
    {
      "op": "broadcast_mul", 
      "name": "broadcast_mul424", 
      "inputs": [[633, 0, 0], [634, 0, 0]]
    }, 
    {
      "op": "null", 
      "name": "param_2->2_[3,3]_2_2_s48_Ord0_radial_(1,1,10,10)_bias", 
      "inputs": []
    }, 
    {
      "op": "broadcast_add", 
      "name": "broadcast_add397", 
      "inputs": [[635, 0, 0], [636, 0, 0]]
    }, 
    {
      "op": "_mul_scalar", 
      "name": "_mulscalar400", 
      "attrs": {"scalar": "100"}, 
      "inputs": [[637, 0, 0]]
    }, 
    {
      "op": "tanh", 
      "name": "tanh238", 
      "inputs": [[638, 0, 0]]
    }, 
    {
      "op": "elemwise_mul", 
      "name": "_mul238", 
      "inputs": [[637, 0, 0], [639, 0, 0]]
    }, 
    {
      "op": "tile", 
      "name": "tile510", 
      "attrs": {"reps": "(10, 5, 1, 1)"}, 
      "inputs": [[103, 0, 0]]
    }, 
    {
      "op": "BlockGrad", 
      "name": "blockgrad644", 
      "inputs": [[641, 0, 0]]
    }, 
    {
      "op": "_mul_scalar", 
      "name": "_mulscalar406", 
      "attrs": {"scalar": "1"}, 
      "inputs": [[642, 0, 0]]
    }, 
    {
      "op": "tile", 
      "name": "tile509", 
      "attrs": {"reps": "(10, 5, 1, 1)"}, 
      "inputs": [[93, 0, 0]]
    }, 
    {
      "op": "BlockGrad", 
      "name": "blockgrad643", 
      "inputs": [[644, 0, 0]]
    }, 
    {
      "op": "null", 
      "name": "param_3->2_[3,3]_2_2_s48_Ord1_angular_(1,1,5,10)_weight", 
      "inputs": []
    }, 
    {
      "op": "broadcast_mul", 
      "name": "broadcast_mul430", 
      "inputs": [[645, 0, 0], [646, 0, 0]]
    }, 
    {
      "op": "null", 
      "name": "param_3->2_[3,3]_2_2_s48_Ord1_angular_(1,1,5,10)_bias", 
      "inputs": []
    }, 
    {
      "op": "broadcast_add", 
      "name": "broadcast_add403", 
      "inputs": [[647, 0, 0], [648, 0, 0]]
    }, 
    {
      "op": "elemwise_add", 
      "name": "elemwise_add188", 
      "inputs": [[643, 0, 0], [649, 0, 0]]
    }, 
    {
      "op": "cos", 
      "name": "cos161", 
      "inputs": [[650, 0, 0]]
    }, 
    {
      "op": "ones_like", 
      "name": "ones_like161", 
      "inputs": [[645, 0, 0]]
    }, 
    {
      "op": "broadcast_lesser", 
      "name": "broadcast_lesser161", 
      "inputs": [[645, 0, 0], [652, 0, 0]]
    }, 
    {
      "op": "BlockGrad", 
      "name": "blockgrad645", 
      "inputs": [[653, 0, 0]]
    }, 
    {
      "op": "elemwise_mul", 
      "name": "elemwise_mul672", 
      "inputs": [[651, 0, 0], [654, 0, 0]]
    }, 
    {
      "op": "null", 
      "name": "param_3->2_[3,3]_2_2_s48_Ord1_radial_(1,1,5,10)_weight", 
      "inputs": []
    }, 
    {
      "op": "broadcast_mul", 
      "name": "broadcast_mul429", 
      "inputs": [[645, 0, 0], [656, 0, 0]]
    }, 
    {
      "op": "null", 
      "name": "param_3->2_[3,3]_2_2_s48_Ord1_radial_(1,1,5,10)_bias", 
      "inputs": []
    }, 
    {
      "op": "broadcast_add", 
      "name": "broadcast_add402", 
      "inputs": [[657, 0, 0], [658, 0, 0]]
    }, 
    {
      "op": "_mul_scalar", 
      "name": "_mulscalar405", 
      "attrs": {"scalar": "100"}, 
      "inputs": [[659, 0, 0]]
    }, 
    {
      "op": "tanh", 
      "name": "tanh241", 
      "inputs": [[660, 0, 0]]
    }, 
    {
      "op": "elemwise_mul", 
      "name": "_mul241", 
      "inputs": [[659, 0, 0], [661, 0, 0]]
    }, 
    {
      "op": "elemwise_mul", 
      "name": "elemwise_mul674", 
      "inputs": [[655, 0, 0], [662, 0, 0]]
    }, 
    {
      "op": "Concat", 
      "name": "sort_ins3_out2_Re_assm_[3,3]_2_2_s48", 
      "attrs": {
        "dim": "1", 
        "num_args": "3"
      }, 
      "inputs": [[631, 0, 0], [640, 0, 0], [663, 0, 0]]
    }, 
    {
      "op": "sin", 
      "name": "sin156", 
      "inputs": [[618, 0, 0]]
    }, 
    {
      "op": "elemwise_mul", 
      "name": "elemwise_mul651", 
      "inputs": [[665, 0, 0], [622, 0, 0]]
    }, 
    {
      "op": "elemwise_mul", 
      "name": "elemwise_mul653", 
      "inputs": [[666, 0, 0], [630, 0, 0]]
    }, 
    {
      "op": "zeros_like", 
      "name": "zeros_like79", 
      "inputs": [[640, 0, 0]]
    }, 
    {
      "op": "sin", 
      "name": "sin161", 
      "inputs": [[650, 0, 0]]
    }, 
    {
      "op": "elemwise_mul", 
      "name": "elemwise_mul671", 
      "inputs": [[669, 0, 0], [654, 0, 0]]
    }, 
    {
      "op": "elemwise_mul", 
      "name": "elemwise_mul673", 
      "inputs": [[670, 0, 0], [662, 0, 0]]
    }, 
    {
      "op": "negative", 
      "name": "negative156", 
      "inputs": [[671, 0, 0]]
    }, 
    {
      "op": "Concat", 
      "name": "sort_ins3_out2_Im_assm_[3,3]_2_2_s48", 
      "attrs": {
        "dim": "1", 
        "num_args": "3"
      }, 
      "inputs": [[667, 0, 0], [668, 0, 0], [672, 0, 0]]
    }, 
    {
      "op": "Concat", 
      "name": "ReIm_ins3_out2_assm_[3,3]_2_2_s48", 
      "attrs": {
        "dim": "1", 
        "num_args": "2"
      }, 
      "inputs": [[664, 0, 0], [673, 0, 0]]
    }, 
    {
      "op": "tile", 
      "name": "tile500", 
      "attrs": {"reps": "(5, 6, 1, 1)"}, 
      "inputs": [[103, 0, 0]]
    }, 
    {
      "op": "BlockGrad", 
      "name": "blockgrad630", 
      "inputs": [[675, 0, 0]]
    }, 
    {
      "op": "_mul_scalar", 
      "name": "_mulscalar397", 
      "attrs": {"scalar": "2"}, 
      "inputs": [[676, 0, 0]]
    }, 
    {
      "op": "tile", 
      "name": "tile499", 
      "attrs": {"reps": "(5, 6, 1, 1)"}, 
      "inputs": [[93, 0, 0]]
    }, 
    {
      "op": "BlockGrad", 
      "name": "blockgrad629", 
      "inputs": [[678, 0, 0]]
    }, 
    {
      "op": "null", 
      "name": "param_1->3_[3,3]_2_2_s48_Ord2_angular_(1,1,6,5)_weight", 
      "inputs": []
    }, 
    {
      "op": "broadcast_mul", 
      "name": "broadcast_mul421", 
      "inputs": [[679, 0, 0], [680, 0, 0]]
    }, 
    {
      "op": "null", 
      "name": "param_1->3_[3,3]_2_2_s48_Ord2_angular_(1,1,6,5)_bias", 
      "inputs": []
    }, 
    {
      "op": "broadcast_add", 
      "name": "broadcast_add394", 
      "inputs": [[681, 0, 0], [682, 0, 0]]
    }, 
    {
      "op": "elemwise_add", 
      "name": "elemwise_add184", 
      "inputs": [[677, 0, 0], [683, 0, 0]]
    }, 
    {
      "op": "cos", 
      "name": "cos157", 
      "inputs": [[684, 0, 0]]
    }, 
    {
      "op": "ones_like", 
      "name": "ones_like157", 
      "inputs": [[679, 0, 0]]
    }, 
    {
      "op": "broadcast_lesser", 
      "name": "broadcast_lesser157", 
      "inputs": [[679, 0, 0], [686, 0, 0]]
    }, 
    {
      "op": "BlockGrad", 
      "name": "blockgrad631", 
      "inputs": [[687, 0, 0]]
    }, 
    {
      "op": "elemwise_mul", 
      "name": "elemwise_mul656", 
      "inputs": [[685, 0, 0], [688, 0, 0]]
    }, 
    {
      "op": "null", 
      "name": "param_1->3_[3,3]_2_2_s48_Ord2_radial_(1,1,6,5)_weight", 
      "inputs": []
    }, 
    {
      "op": "broadcast_mul", 
      "name": "broadcast_mul420", 
      "inputs": [[679, 0, 0], [690, 0, 0]]
    }, 
    {
      "op": "null", 
      "name": "param_1->3_[3,3]_2_2_s48_Ord2_radial_(1,1,6,5)_bias", 
      "inputs": []
    }, 
    {
      "op": "broadcast_add", 
      "name": "broadcast_add393", 
      "inputs": [[691, 0, 0], [692, 0, 0]]
    }, 
    {
      "op": "_mul_scalar", 
      "name": "_mulscalar396", 
      "attrs": {"scalar": "100"}, 
      "inputs": [[693, 0, 0]]
    }, 
    {
      "op": "tanh", 
      "name": "tanh236", 
      "inputs": [[694, 0, 0]]
    }, 
    {
      "op": "elemwise_mul", 
      "name": "_mul236", 
      "inputs": [[693, 0, 0], [695, 0, 0]]
    }, 
    {
      "op": "elemwise_mul", 
      "name": "elemwise_mul658", 
      "inputs": [[689, 0, 0], [696, 0, 0]]
    }, 
    {
      "op": "tile", 
      "name": "tile506", 
      "attrs": {"reps": "(5, 10, 1, 1)"}, 
      "inputs": [[103, 0, 0]]
    }, 
    {
      "op": "BlockGrad", 
      "name": "blockgrad638", 
      "inputs": [[698, 0, 0]]
    }, 
    {
      "op": "_mul_scalar", 
      "name": "_mulscalar402", 
      "attrs": {"scalar": "1"}, 
      "inputs": [[699, 0, 0]]
    }, 
    {
      "op": "tile", 
      "name": "tile505", 
      "attrs": {"reps": "(5, 10, 1, 1)"}, 
      "inputs": [[93, 0, 0]]
    }, 
    {
      "op": "BlockGrad", 
      "name": "blockgrad637", 
      "inputs": [[701, 0, 0]]
    }, 
    {
      "op": "null", 
      "name": "param_2->3_[3,3]_2_2_s48_Ord1_angular_(1,1,10,5)_weight", 
      "inputs": []
    }, 
    {
      "op": "broadcast_mul", 
      "name": "broadcast_mul426", 
      "inputs": [[702, 0, 0], [703, 0, 0]]
    }, 
    {
      "op": "null", 
      "name": "param_2->3_[3,3]_2_2_s48_Ord1_angular_(1,1,10,5)_bias", 
      "inputs": []
    }, 
    {
      "op": "broadcast_add", 
      "name": "broadcast_add399", 
      "inputs": [[704, 0, 0], [705, 0, 0]]
    }, 
    {
      "op": "elemwise_add", 
      "name": "elemwise_add186", 
      "inputs": [[700, 0, 0], [706, 0, 0]]
    }, 
    {
      "op": "cos", 
      "name": "cos159", 
      "inputs": [[707, 0, 0]]
    }, 
    {
      "op": "ones_like", 
      "name": "ones_like159", 
      "inputs": [[702, 0, 0]]
    }, 
    {
      "op": "broadcast_lesser", 
      "name": "broadcast_lesser159", 
      "inputs": [[702, 0, 0], [709, 0, 0]]
    }, 
    {
      "op": "BlockGrad", 
      "name": "blockgrad639", 
      "inputs": [[710, 0, 0]]
    }, 
    {
      "op": "elemwise_mul", 
      "name": "elemwise_mul664", 
      "inputs": [[708, 0, 0], [711, 0, 0]]
    }, 
    {
      "op": "null", 
      "name": "param_2->3_[3,3]_2_2_s48_Ord1_radial_(1,1,10,5)_weight", 
      "inputs": []
    }, 
    {
      "op": "broadcast_mul", 
      "name": "broadcast_mul425", 
      "inputs": [[702, 0, 0], [713, 0, 0]]
    }, 
    {
      "op": "null", 
      "name": "param_2->3_[3,3]_2_2_s48_Ord1_radial_(1,1,10,5)_bias", 
      "inputs": []
    }, 
    {
      "op": "broadcast_add", 
      "name": "broadcast_add398", 
      "inputs": [[714, 0, 0], [715, 0, 0]]
    }, 
    {
      "op": "_mul_scalar", 
      "name": "_mulscalar401", 
      "attrs": {"scalar": "100"}, 
      "inputs": [[716, 0, 0]]
    }, 
    {
      "op": "tanh", 
      "name": "tanh239", 
      "inputs": [[717, 0, 0]]
    }, 
    {
      "op": "elemwise_mul", 
      "name": "_mul239", 
      "inputs": [[716, 0, 0], [718, 0, 0]]
    }, 
    {
      "op": "elemwise_mul", 
      "name": "elemwise_mul666", 
      "inputs": [[712, 0, 0], [719, 0, 0]]
    }, 
    {
      "op": "tile", 
      "name": "tile511", 
      "attrs": {"reps": "(5, 5, 1, 1)"}, 
      "inputs": [[93, 0, 0]]
    }, 
    {
      "op": "BlockGrad", 
      "name": "blockgrad646", 
      "inputs": [[721, 0, 0]]
    }, 
    {
      "op": "null", 
      "name": "param_3->3_[3,3]_2_2_s48_Ord0_radial_(1,1,5,5)_weight", 
      "inputs": []
    }, 
    {
      "op": "broadcast_mul", 
      "name": "broadcast_mul431", 
      "inputs": [[722, 0, 0], [723, 0, 0]]
    }, 
    {
      "op": "null", 
      "name": "param_3->3_[3,3]_2_2_s48_Ord0_radial_(1,1,5,5)_bias", 
      "inputs": []
    }, 
    {
      "op": "broadcast_add", 
      "name": "broadcast_add404", 
      "inputs": [[724, 0, 0], [725, 0, 0]]
    }, 
    {
      "op": "_mul_scalar", 
      "name": "_mulscalar407", 
      "attrs": {"scalar": "100"}, 
      "inputs": [[726, 0, 0]]
    }, 
    {
      "op": "tanh", 
      "name": "tanh242", 
      "inputs": [[727, 0, 0]]
    }, 
    {
      "op": "elemwise_mul", 
      "name": "_mul242", 
      "inputs": [[726, 0, 0], [728, 0, 0]]
    }, 
    {
      "op": "Concat", 
      "name": "sort_ins3_out3_Re_assm_[3,3]_2_2_s48", 
      "attrs": {
        "dim": "1", 
        "num_args": "3"
      }, 
      "inputs": [[697, 0, 0], [720, 0, 0], [729, 0, 0]]
    }, 
    {
      "op": "sin", 
      "name": "sin157", 
      "inputs": [[684, 0, 0]]
    }, 
    {
      "op": "elemwise_mul", 
      "name": "elemwise_mul655", 
      "inputs": [[731, 0, 0], [688, 0, 0]]
    }, 
    {
      "op": "elemwise_mul", 
      "name": "elemwise_mul657", 
      "inputs": [[732, 0, 0], [696, 0, 0]]
    }, 
    {
      "op": "sin", 
      "name": "sin159", 
      "inputs": [[707, 0, 0]]
    }, 
    {
      "op": "elemwise_mul", 
      "name": "elemwise_mul663", 
      "inputs": [[734, 0, 0], [711, 0, 0]]
    }, 
    {
      "op": "elemwise_mul", 
      "name": "elemwise_mul665", 
      "inputs": [[735, 0, 0], [719, 0, 0]]
    }, 
    {
      "op": "zeros_like", 
      "name": "zeros_like80", 
      "inputs": [[729, 0, 0]]
    }, 
    {
      "op": "Concat", 
      "name": "sort_ins3_out3_Im_assm_[3,3]_2_2_s48", 
      "attrs": {
        "dim": "1", 
        "num_args": "3"
      }, 
      "inputs": [[733, 0, 0], [736, 0, 0], [737, 0, 0]]
    }, 
    {
      "op": "Concat", 
      "name": "ReIm_ins3_out3_assm_[3,3]_2_2_s48", 
      "attrs": {
        "dim": "1", 
        "num_args": "2"
      }, 
      "inputs": [[730, 0, 0], [738, 0, 0]]
    }, 
    {
      "op": "negative", 
      "name": "negative155", 
      "inputs": [[607, 0, 0]]
    }, 
    {
      "op": "Concat", 
      "name": "ImRe_ins3_out1_assm_[3,3]_2_2_s48", 
      "attrs": {
        "dim": "1", 
        "num_args": "2"
      }, 
      "inputs": [[740, 0, 0], [597, 0, 0]]
    }, 
    {
      "op": "negative", 
      "name": "negative157", 
      "inputs": [[673, 0, 0]]
    }, 
    {
      "op": "Concat", 
      "name": "ImRe_ins3_out2_assm_[3,3]_2_2_s48", 
      "attrs": {
        "dim": "1", 
        "num_args": "2"
      }, 
      "inputs": [[742, 0, 0], [664, 0, 0]]
    }, 
    {
      "op": "negative", 
      "name": "negative158", 
      "inputs": [[738, 0, 0]]
    }, 
    {
      "op": "Concat", 
      "name": "ImRe_ins3_out3_assm_[3,3]_2_2_s48", 
      "attrs": {
        "dim": "1", 
        "num_args": "2"
      }, 
      "inputs": [[744, 0, 0], [730, 0, 0]]
    }, 
    {
      "op": "Concat", 
      "name": "assembledFilter_in3_out3_assm_[3,3]_2_2_s48", 
      "attrs": {
        "dim": "0", 
        "num_args": "6"
      }, 
      "inputs": [[608, 0, 0], [674, 0, 0], [739, 0, 0], [741, 0, 0], [743, 0, 0], [745, 0, 0]]
    }, 
    {
      "op": "Convolution", 
      "name": "conv_[3,3]_2_2_s48", 
      "attrs": {
        "dilate": "(2, 2)", 
        "kernel": "(3, 3)", 
        "no_bias": "1", 
        "num_filter": "42", 
        "pad": "(0, 0)", 
        "stride": "(1, 1)"
      }, 
      "inputs": [[541, 0, 0], [746, 0, 0]]
    }, 
    {
      "op": "square", 
      "name": "square54", 
      "inputs": [[747, 0, 0]]
    }, 
    {
      "op": "SliceChannel", 
      "name": "split27", 
      "attrs": {
        "axis": "1", 
        "num_outputs": "2"
      }, 
      "inputs": [[748, 0, 0]]
    }, 
    {
      "op": "elemwise_add", 
      "name": "elemwise_add189", 
      "inputs": [[749, 0, 0], [749, 1, 0]]
    }, 
    {
      "op": "_plus_scalar", 
      "name": "_plusscalar82", 
      "attrs": {"scalar": "2e-05"}, 
      "inputs": [[750, 0, 0]]
    }, 
    {
      "op": "sqrt", 
      "name": "sqrt54", 
      "inputs": [[751, 0, 0]]
    }, 
    {
      "op": "square", 
      "name": "square55", 
      "inputs": [[752, 0, 0]]
    }, 
    {
      "op": "_plus_scalar", 
      "name": "_plusscalar84", 
      "attrs": {"scalar": "1"}, 
      "inputs": [[753, 0, 0]]
    }, 
    {
      "op": "sqrt", 
      "name": "sqrt55", 
      "inputs": [[754, 0, 0]]
    }, 
    {
      "op": "elemwise_div", 
      "name": "_div54", 
      "inputs": [[752, 0, 0], [755, 0, 0]]
    }, 
    {
      "op": "null", 
      "name": "2_2_s48_(1,1,21,1)_mag_weight", 
      "inputs": []
    }, 
    {
      "op": "LeakyReLU", 
      "name": "leakyrelu27", 
      "attrs": {
        "act_type": "elu", 
        "slope": "1"
      }, 
      "inputs": [[757, 0, 0]]
    }, 
    {
      "op": "_plus_scalar", 
      "name": "_plusscalar83", 
      "attrs": {"scalar": "1"}, 
      "inputs": [[758, 0, 0]]
    }, 
    {
      "op": "broadcast_mul", 
      "name": "broadcast_mul432", 
      "inputs": [[756, 0, 0], [759, 0, 0]]
    }, 
    {
      "op": "elemwise_div", 
      "name": "_div55", 
      "inputs": [[760, 0, 0], [752, 0, 0]]
    }, 
    {
      "op": "tile", 
      "name": "tile513", 
      "attrs": {"reps": "(1, 2, 1, 1)"}, 
      "inputs": [[761, 0, 0]]
    }, 
    {
      "op": "elemwise_mul", 
      "name": "elemwise_mul675", 
      "inputs": [[747, 0, 0], [762, 0, 0]]
    }, 
    {
      "op": "elemwise_add", 
      "name": "skipConn_2", 
      "inputs": [[540, 0, 0], [763, 0, 0]]
    }, 
    {
      "op": "Pad", 
      "name": "pad29", 
      "attrs": {
        "mode": "edge", 
        "pad_width": "(0, 0, 0, 0, 4, 4, 4, 4)"
      }, 
      "inputs": [[764, 0, 0]]
    }, 
    {
      "op": "tile", 
      "name": "tile533", 
      "attrs": {"reps": "(6, 6, 1, 1)"}, 
      "inputs": [[93, 0, 0]]
    }, 
    {
      "op": "BlockGrad", 
      "name": "blockgrad672", 
      "inputs": [[766, 0, 0]]
    }, 
    {
      "op": "null", 
      "name": "param_1->1_[3,3]_3_2_s17_Ord0_radial_(1,1,6,6)_weight", 
      "inputs": []
    }, 
    {
      "op": "broadcast_mul", 
      "name": "broadcast_mul449", 
      "inputs": [[767, 0, 0], [768, 0, 0]]
    }, 
    {
      "op": "null", 
      "name": "param_1->1_[3,3]_3_2_s17_Ord0_radial_(1,1,6,6)_bias", 
      "inputs": []
    }, 
    {
      "op": "broadcast_add", 
      "name": "broadcast_add420", 
      "inputs": [[769, 0, 0], [770, 0, 0]]
    }, 
    {
      "op": "_mul_scalar", 
      "name": "_mulscalar423", 
      "attrs": {"scalar": "100"}, 
      "inputs": [[771, 0, 0]]
    }, 
    {
      "op": "tanh", 
      "name": "tanh252", 
      "inputs": [[772, 0, 0]]
    }, 
    {
      "op": "elemwise_mul", 
      "name": "_mul252", 
      "inputs": [[771, 0, 0], [773, 0, 0]]
    }, 
    {
      "op": "tile", 
      "name": "tile540", 
      "attrs": {"reps": "(6, 10, 1, 1)"}, 
      "inputs": [[103, 0, 0]]
    }, 
    {
      "op": "BlockGrad", 
      "name": "blockgrad681", 
      "inputs": [[775, 0, 0]]
    }, 
    {
      "op": "_mul_scalar", 
      "name": "_mulscalar429", 
      "attrs": {"scalar": "1"}, 
      "inputs": [[776, 0, 0]]
    }, 
    {
      "op": "tile", 
      "name": "tile539", 
      "attrs": {"reps": "(6, 10, 1, 1)"}, 
      "inputs": [[93, 0, 0]]
    }, 
    {
      "op": "BlockGrad", 
      "name": "blockgrad680", 
      "inputs": [[778, 0, 0]]
    }, 
    {
      "op": "null", 
      "name": "param_2->1_[3,3]_3_2_s17_Ord1_angular_(1,1,10,6)_weight", 
      "inputs": []
    }, 
    {
      "op": "broadcast_mul", 
      "name": "broadcast_mul455", 
      "inputs": [[779, 0, 0], [780, 0, 0]]
    }, 
    {
      "op": "null", 
      "name": "param_2->1_[3,3]_3_2_s17_Ord1_angular_(1,1,10,6)_bias", 
      "inputs": []
    }, 
    {
      "op": "broadcast_add", 
      "name": "broadcast_add426", 
      "inputs": [[781, 0, 0], [782, 0, 0]]
    }, 
    {
      "op": "elemwise_add", 
      "name": "elemwise_add199", 
      "inputs": [[777, 0, 0], [783, 0, 0]]
    }, 
    {
      "op": "cos", 
      "name": "cos170", 
      "inputs": [[784, 0, 0]]
    }, 
    {
      "op": "ones_like", 
      "name": "ones_like170", 
      "inputs": [[779, 0, 0]]
    }, 
    {
      "op": "broadcast_lesser", 
      "name": "broadcast_lesser170", 
      "inputs": [[779, 0, 0], [786, 0, 0]]
    }, 
    {
      "op": "BlockGrad", 
      "name": "blockgrad682", 
      "inputs": [[787, 0, 0]]
    }, 
    {
      "op": "elemwise_mul", 
      "name": "elemwise_mul710", 
      "inputs": [[785, 0, 0], [788, 0, 0]]
    }, 
    {
      "op": "null", 
      "name": "param_2->1_[3,3]_3_2_s17_Ord1_radial_(1,1,10,6)_weight", 
      "inputs": []
    }, 
    {
      "op": "broadcast_mul", 
      "name": "broadcast_mul454", 
      "inputs": [[779, 0, 0], [790, 0, 0]]
    }, 
    {
      "op": "null", 
      "name": "param_2->1_[3,3]_3_2_s17_Ord1_radial_(1,1,10,6)_bias", 
      "inputs": []
    }, 
    {
      "op": "broadcast_add", 
      "name": "broadcast_add425", 
      "inputs": [[791, 0, 0], [792, 0, 0]]
    }, 
    {
      "op": "_mul_scalar", 
      "name": "_mulscalar428", 
      "attrs": {"scalar": "100"}, 
      "inputs": [[793, 0, 0]]
    }, 
    {
      "op": "tanh", 
      "name": "tanh255", 
      "inputs": [[794, 0, 0]]
    }, 
    {
      "op": "elemwise_mul", 
      "name": "_mul255", 
      "inputs": [[793, 0, 0], [795, 0, 0]]
    }, 
    {
      "op": "elemwise_mul", 
      "name": "elemwise_mul712", 
      "inputs": [[789, 0, 0], [796, 0, 0]]
    }, 
    {
      "op": "tile", 
      "name": "tile546", 
      "attrs": {"reps": "(6, 5, 1, 1)"}, 
      "inputs": [[103, 0, 0]]
    }, 
    {
      "op": "BlockGrad", 
      "name": "blockgrad689", 
      "inputs": [[798, 0, 0]]
    }, 
    {
      "op": "_mul_scalar", 
      "name": "_mulscalar434", 
      "attrs": {"scalar": "2"}, 
      "inputs": [[799, 0, 0]]
    }, 
    {
      "op": "tile", 
      "name": "tile545", 
      "attrs": {"reps": "(6, 5, 1, 1)"}, 
      "inputs": [[93, 0, 0]]
    }, 
    {
      "op": "BlockGrad", 
      "name": "blockgrad688", 
      "inputs": [[801, 0, 0]]
    }, 
    {
      "op": "null", 
      "name": "param_3->1_[3,3]_3_2_s17_Ord2_angular_(1,1,5,6)_weight", 
      "inputs": []
    }, 
    {
      "op": "broadcast_mul", 
      "name": "broadcast_mul460", 
      "inputs": [[802, 0, 0], [803, 0, 0]]
    }, 
    {
      "op": "null", 
      "name": "param_3->1_[3,3]_3_2_s17_Ord2_angular_(1,1,5,6)_bias", 
      "inputs": []
    }, 
    {
      "op": "broadcast_add", 
      "name": "broadcast_add431", 
      "inputs": [[804, 0, 0], [805, 0, 0]]
    }, 
    {
      "op": "elemwise_add", 
      "name": "elemwise_add201", 
      "inputs": [[800, 0, 0], [806, 0, 0]]
    }, 
    {
      "op": "cos", 
      "name": "cos172", 
      "inputs": [[807, 0, 0]]
    }, 
    {
      "op": "ones_like", 
      "name": "ones_like172", 
      "inputs": [[802, 0, 0]]
    }, 
    {
      "op": "broadcast_lesser", 
      "name": "broadcast_lesser172", 
      "inputs": [[802, 0, 0], [809, 0, 0]]
    }, 
    {
      "op": "BlockGrad", 
      "name": "blockgrad690", 
      "inputs": [[810, 0, 0]]
    }, 
    {
      "op": "elemwise_mul", 
      "name": "elemwise_mul718", 
      "inputs": [[808, 0, 0], [811, 0, 0]]
    }, 
    {
      "op": "null", 
      "name": "param_3->1_[3,3]_3_2_s17_Ord2_radial_(1,1,5,6)_weight", 
      "inputs": []
    }, 
    {
      "op": "broadcast_mul", 
      "name": "broadcast_mul459", 
      "inputs": [[802, 0, 0], [813, 0, 0]]
    }, 
    {
      "op": "null", 
      "name": "param_3->1_[3,3]_3_2_s17_Ord2_radial_(1,1,5,6)_bias", 
      "inputs": []
    }, 
    {
      "op": "broadcast_add", 
      "name": "broadcast_add430", 
      "inputs": [[814, 0, 0], [815, 0, 0]]
    }, 
    {
      "op": "_mul_scalar", 
      "name": "_mulscalar433", 
      "attrs": {"scalar": "100"}, 
      "inputs": [[816, 0, 0]]
    }, 
    {
      "op": "tanh", 
      "name": "tanh258", 
      "inputs": [[817, 0, 0]]
    }, 
    {
      "op": "elemwise_mul", 
      "name": "_mul258", 
      "inputs": [[816, 0, 0], [818, 0, 0]]
    }, 
    {
      "op": "elemwise_mul", 
      "name": "elemwise_mul720", 
      "inputs": [[812, 0, 0], [819, 0, 0]]
    }, 
    {
      "op": "Concat", 
      "name": "sort_ins3_out1_Re_assm_[3,3]_3_2_s17", 
      "attrs": {
        "dim": "1", 
        "num_args": "3"
      }, 
      "inputs": [[774, 0, 0], [797, 0, 0], [820, 0, 0]]
    }, 
    {
      "op": "zeros_like", 
      "name": "zeros_like84", 
      "inputs": [[774, 0, 0]]
    }, 
    {
      "op": "sin", 
      "name": "sin170", 
      "inputs": [[784, 0, 0]]
    }, 
    {
      "op": "elemwise_mul", 
      "name": "elemwise_mul709", 
      "inputs": [[823, 0, 0], [788, 0, 0]]
    }, 
    {
      "op": "elemwise_mul", 
      "name": "elemwise_mul711", 
      "inputs": [[824, 0, 0], [796, 0, 0]]
    }, 
    {
      "op": "negative", 
      "name": "negative165", 
      "inputs": [[825, 0, 0]]
    }, 
    {
      "op": "sin", 
      "name": "sin172", 
      "inputs": [[807, 0, 0]]
    }, 
    {
      "op": "elemwise_mul", 
      "name": "elemwise_mul717", 
      "inputs": [[827, 0, 0], [811, 0, 0]]
    }, 
    {
      "op": "elemwise_mul", 
      "name": "elemwise_mul719", 
      "inputs": [[828, 0, 0], [819, 0, 0]]
    }, 
    {
      "op": "negative", 
      "name": "negative166", 
      "inputs": [[829, 0, 0]]
    }, 
    {
      "op": "Concat", 
      "name": "sort_ins3_out1_Im_assm_[3,3]_3_2_s17", 
      "attrs": {
        "dim": "1", 
        "num_args": "3"
      }, 
      "inputs": [[822, 0, 0], [826, 0, 0], [830, 0, 0]]
    }, 
    {
      "op": "Concat", 
      "name": "ReIm_ins3_out1_assm_[3,3]_3_2_s17", 
      "attrs": {
        "dim": "1", 
        "num_args": "2"
      }, 
      "inputs": [[821, 0, 0], [831, 0, 0]]
    }, 
    {
      "op": "tile", 
      "name": "tile536", 
      "attrs": {"reps": "(10, 6, 1, 1)"}, 
      "inputs": [[103, 0, 0]]
    }, 
    {
      "op": "BlockGrad", 
      "name": "blockgrad675", 
      "inputs": [[833, 0, 0]]
    }, 
    {
      "op": "_mul_scalar", 
      "name": "_mulscalar425", 
      "attrs": {"scalar": "1"}, 
      "inputs": [[834, 0, 0]]
    }, 
    {
      "op": "tile", 
      "name": "tile535", 
      "attrs": {"reps": "(10, 6, 1, 1)"}, 
      "inputs": [[93, 0, 0]]
    }, 
    {
      "op": "BlockGrad", 
      "name": "blockgrad674", 
      "inputs": [[836, 0, 0]]
    }, 
    {
      "op": "null", 
      "name": "param_1->2_[3,3]_3_2_s17_Ord1_angular_(1,1,6,10)_weight", 
      "inputs": []
    }, 
    {
      "op": "broadcast_mul", 
      "name": "broadcast_mul451", 
      "inputs": [[837, 0, 0], [838, 0, 0]]
    }, 
    {
      "op": "null", 
      "name": "param_1->2_[3,3]_3_2_s17_Ord1_angular_(1,1,6,10)_bias", 
      "inputs": []
    }, 
    {
      "op": "broadcast_add", 
      "name": "broadcast_add422", 
      "inputs": [[839, 0, 0], [840, 0, 0]]
    }, 
    {
      "op": "elemwise_add", 
      "name": "elemwise_add197", 
      "inputs": [[835, 0, 0], [841, 0, 0]]
    }, 
    {
      "op": "cos", 
      "name": "cos168", 
      "inputs": [[842, 0, 0]]
    }, 
    {
      "op": "ones_like", 
      "name": "ones_like168", 
      "inputs": [[837, 0, 0]]
    }, 
    {
      "op": "broadcast_lesser", 
      "name": "broadcast_lesser168", 
      "inputs": [[837, 0, 0], [844, 0, 0]]
    }, 
    {
      "op": "BlockGrad", 
      "name": "blockgrad676", 
      "inputs": [[845, 0, 0]]
    }, 
    {
      "op": "elemwise_mul", 
      "name": "elemwise_mul702", 
      "inputs": [[843, 0, 0], [846, 0, 0]]
    }, 
    {
      "op": "null", 
      "name": "param_1->2_[3,3]_3_2_s17_Ord1_radial_(1,1,6,10)_weight", 
      "inputs": []
    }, 
    {
      "op": "broadcast_mul", 
      "name": "broadcast_mul450", 
      "inputs": [[837, 0, 0], [848, 0, 0]]
    }, 
    {
      "op": "null", 
      "name": "param_1->2_[3,3]_3_2_s17_Ord1_radial_(1,1,6,10)_bias", 
      "inputs": []
    }, 
    {
      "op": "broadcast_add", 
      "name": "broadcast_add421", 
      "inputs": [[849, 0, 0], [850, 0, 0]]
    }, 
    {
      "op": "_mul_scalar", 
      "name": "_mulscalar424", 
      "attrs": {"scalar": "100"}, 
      "inputs": [[851, 0, 0]]
    }, 
    {
      "op": "tanh", 
      "name": "tanh253", 
      "inputs": [[852, 0, 0]]
    }, 
    {
      "op": "elemwise_mul", 
      "name": "_mul253", 
      "inputs": [[851, 0, 0], [853, 0, 0]]
    }, 
    {
      "op": "elemwise_mul", 
      "name": "elemwise_mul704", 
      "inputs": [[847, 0, 0], [854, 0, 0]]
    }, 
    {
      "op": "tile", 
      "name": "tile541", 
      "attrs": {"reps": "(10, 10, 1, 1)"}, 
      "inputs": [[93, 0, 0]]
    }, 
    {
      "op": "BlockGrad", 
      "name": "blockgrad683", 
      "inputs": [[856, 0, 0]]
    }, 
    {
      "op": "null", 
      "name": "param_2->2_[3,3]_3_2_s17_Ord0_radial_(1,1,10,10)_weight", 
      "inputs": []
    }, 
    {
      "op": "broadcast_mul", 
      "name": "broadcast_mul456", 
      "inputs": [[857, 0, 0], [858, 0, 0]]
    }, 
    {
      "op": "null", 
      "name": "param_2->2_[3,3]_3_2_s17_Ord0_radial_(1,1,10,10)_bias", 
      "inputs": []
    }, 
    {
      "op": "broadcast_add", 
      "name": "broadcast_add427", 
      "inputs": [[859, 0, 0], [860, 0, 0]]
    }, 
    {
      "op": "_mul_scalar", 
      "name": "_mulscalar430", 
      "attrs": {"scalar": "100"}, 
      "inputs": [[861, 0, 0]]
    }, 
    {
      "op": "tanh", 
      "name": "tanh256", 
      "inputs": [[862, 0, 0]]
    }, 
    {
      "op": "elemwise_mul", 
      "name": "_mul256", 
      "inputs": [[861, 0, 0], [863, 0, 0]]
    }, 
    {
      "op": "tile", 
      "name": "tile548", 
      "attrs": {"reps": "(10, 5, 1, 1)"}, 
      "inputs": [[103, 0, 0]]
    }, 
    {
      "op": "BlockGrad", 
      "name": "blockgrad692", 
      "inputs": [[865, 0, 0]]
    }, 
    {
      "op": "_mul_scalar", 
      "name": "_mulscalar436", 
      "attrs": {"scalar": "1"}, 
      "inputs": [[866, 0, 0]]
    }, 
    {
      "op": "tile", 
      "name": "tile547", 
      "attrs": {"reps": "(10, 5, 1, 1)"}, 
      "inputs": [[93, 0, 0]]
    }, 
    {
      "op": "BlockGrad", 
      "name": "blockgrad691", 
      "inputs": [[868, 0, 0]]
    }, 
    {
      "op": "null", 
      "name": "param_3->2_[3,3]_3_2_s17_Ord1_angular_(1,1,5,10)_weight", 
      "inputs": []
    }, 
    {
      "op": "broadcast_mul", 
      "name": "broadcast_mul462", 
      "inputs": [[869, 0, 0], [870, 0, 0]]
    }, 
    {
      "op": "null", 
      "name": "param_3->2_[3,3]_3_2_s17_Ord1_angular_(1,1,5,10)_bias", 
      "inputs": []
    }, 
    {
      "op": "broadcast_add", 
      "name": "broadcast_add433", 
      "inputs": [[871, 0, 0], [872, 0, 0]]
    }, 
    {
      "op": "elemwise_add", 
      "name": "elemwise_add202", 
      "inputs": [[867, 0, 0], [873, 0, 0]]
    }, 
    {
      "op": "cos", 
      "name": "cos173", 
      "inputs": [[874, 0, 0]]
    }, 
    {
      "op": "ones_like", 
      "name": "ones_like173", 
      "inputs": [[869, 0, 0]]
    }, 
    {
      "op": "broadcast_lesser", 
      "name": "broadcast_lesser173", 
      "inputs": [[869, 0, 0], [876, 0, 0]]
    }, 
    {
      "op": "BlockGrad", 
      "name": "blockgrad693", 
      "inputs": [[877, 0, 0]]
    }, 
    {
      "op": "elemwise_mul", 
      "name": "elemwise_mul722", 
      "inputs": [[875, 0, 0], [878, 0, 0]]
    }, 
    {
      "op": "null", 
      "name": "param_3->2_[3,3]_3_2_s17_Ord1_radial_(1,1,5,10)_weight", 
      "inputs": []
    }, 
    {
      "op": "broadcast_mul", 
      "name": "broadcast_mul461", 
      "inputs": [[869, 0, 0], [880, 0, 0]]
    }, 
    {
      "op": "null", 
      "name": "param_3->2_[3,3]_3_2_s17_Ord1_radial_(1,1,5,10)_bias", 
      "inputs": []
    }, 
    {
      "op": "broadcast_add", 
      "name": "broadcast_add432", 
      "inputs": [[881, 0, 0], [882, 0, 0]]
    }, 
    {
      "op": "_mul_scalar", 
      "name": "_mulscalar435", 
      "attrs": {"scalar": "100"}, 
      "inputs": [[883, 0, 0]]
    }, 
    {
      "op": "tanh", 
      "name": "tanh259", 
      "inputs": [[884, 0, 0]]
    }, 
    {
      "op": "elemwise_mul", 
      "name": "_mul259", 
      "inputs": [[883, 0, 0], [885, 0, 0]]
    }, 
    {
      "op": "elemwise_mul", 
      "name": "elemwise_mul724", 
      "inputs": [[879, 0, 0], [886, 0, 0]]
    }, 
    {
      "op": "Concat", 
      "name": "sort_ins3_out2_Re_assm_[3,3]_3_2_s17", 
      "attrs": {
        "dim": "1", 
        "num_args": "3"
      }, 
      "inputs": [[855, 0, 0], [864, 0, 0], [887, 0, 0]]
    }, 
    {
      "op": "sin", 
      "name": "sin168", 
      "inputs": [[842, 0, 0]]
    }, 
    {
      "op": "elemwise_mul", 
      "name": "elemwise_mul701", 
      "inputs": [[889, 0, 0], [846, 0, 0]]
    }, 
    {
      "op": "elemwise_mul", 
      "name": "elemwise_mul703", 
      "inputs": [[890, 0, 0], [854, 0, 0]]
    }, 
    {
      "op": "zeros_like", 
      "name": "zeros_like85", 
      "inputs": [[864, 0, 0]]
    }, 
    {
      "op": "sin", 
      "name": "sin173", 
      "inputs": [[874, 0, 0]]
    }, 
    {
      "op": "elemwise_mul", 
      "name": "elemwise_mul721", 
      "inputs": [[893, 0, 0], [878, 0, 0]]
    }, 
    {
      "op": "elemwise_mul", 
      "name": "elemwise_mul723", 
      "inputs": [[894, 0, 0], [886, 0, 0]]
    }, 
    {
      "op": "negative", 
      "name": "negative168", 
      "inputs": [[895, 0, 0]]
    }, 
    {
      "op": "Concat", 
      "name": "sort_ins3_out2_Im_assm_[3,3]_3_2_s17", 
      "attrs": {
        "dim": "1", 
        "num_args": "3"
      }, 
      "inputs": [[891, 0, 0], [892, 0, 0], [896, 0, 0]]
    }, 
    {
      "op": "Concat", 
      "name": "ReIm_ins3_out2_assm_[3,3]_3_2_s17", 
      "attrs": {
        "dim": "1", 
        "num_args": "2"
      }, 
      "inputs": [[888, 0, 0], [897, 0, 0]]
    }, 
    {
      "op": "tile", 
      "name": "tile538", 
      "attrs": {"reps": "(5, 6, 1, 1)"}, 
      "inputs": [[103, 0, 0]]
    }, 
    {
      "op": "BlockGrad", 
      "name": "blockgrad678", 
      "inputs": [[899, 0, 0]]
    }, 
    {
      "op": "_mul_scalar", 
      "name": "_mulscalar427", 
      "attrs": {"scalar": "2"}, 
      "inputs": [[900, 0, 0]]
    }, 
    {
      "op": "tile", 
      "name": "tile537", 
      "attrs": {"reps": "(5, 6, 1, 1)"}, 
      "inputs": [[93, 0, 0]]
    }, 
    {
      "op": "BlockGrad", 
      "name": "blockgrad677", 
      "inputs": [[902, 0, 0]]
    }, 
    {
      "op": "null", 
      "name": "param_1->3_[3,3]_3_2_s17_Ord2_angular_(1,1,6,5)_weight", 
      "inputs": []
    }, 
    {
      "op": "broadcast_mul", 
      "name": "broadcast_mul453", 
      "inputs": [[903, 0, 0], [904, 0, 0]]
    }, 
    {
      "op": "null", 
      "name": "param_1->3_[3,3]_3_2_s17_Ord2_angular_(1,1,6,5)_bias", 
      "inputs": []
    }, 
    {
      "op": "broadcast_add", 
      "name": "broadcast_add424", 
      "inputs": [[905, 0, 0], [906, 0, 0]]
    }, 
    {
      "op": "elemwise_add", 
      "name": "elemwise_add198", 
      "inputs": [[901, 0, 0], [907, 0, 0]]
    }, 
    {
      "op": "cos", 
      "name": "cos169", 
      "inputs": [[908, 0, 0]]
    }, 
    {
      "op": "ones_like", 
      "name": "ones_like169", 
      "inputs": [[903, 0, 0]]
    }, 
    {
      "op": "broadcast_lesser", 
      "name": "broadcast_lesser169", 
      "inputs": [[903, 0, 0], [910, 0, 0]]
    }, 
    {
      "op": "BlockGrad", 
      "name": "blockgrad679", 
      "inputs": [[911, 0, 0]]
    }, 
    {
      "op": "elemwise_mul", 
      "name": "elemwise_mul706", 
      "inputs": [[909, 0, 0], [912, 0, 0]]
    }, 
    {
      "op": "null", 
      "name": "param_1->3_[3,3]_3_2_s17_Ord2_radial_(1,1,6,5)_weight", 
      "inputs": []
    }, 
    {
      "op": "broadcast_mul", 
      "name": "broadcast_mul452", 
      "inputs": [[903, 0, 0], [914, 0, 0]]
    }, 
    {
      "op": "null", 
      "name": "param_1->3_[3,3]_3_2_s17_Ord2_radial_(1,1,6,5)_bias", 
      "inputs": []
    }, 
    {
      "op": "broadcast_add", 
      "name": "broadcast_add423", 
      "inputs": [[915, 0, 0], [916, 0, 0]]
    }, 
    {
      "op": "_mul_scalar", 
      "name": "_mulscalar426", 
      "attrs": {"scalar": "100"}, 
      "inputs": [[917, 0, 0]]
    }, 
    {
      "op": "tanh", 
      "name": "tanh254", 
      "inputs": [[918, 0, 0]]
    }, 
    {
      "op": "elemwise_mul", 
      "name": "_mul254", 
      "inputs": [[917, 0, 0], [919, 0, 0]]
    }, 
    {
      "op": "elemwise_mul", 
      "name": "elemwise_mul708", 
      "inputs": [[913, 0, 0], [920, 0, 0]]
    }, 
    {
      "op": "tile", 
      "name": "tile544", 
      "attrs": {"reps": "(5, 10, 1, 1)"}, 
      "inputs": [[103, 0, 0]]
    }, 
    {
      "op": "BlockGrad", 
      "name": "blockgrad686", 
      "inputs": [[922, 0, 0]]
    }, 
    {
      "op": "_mul_scalar", 
      "name": "_mulscalar432", 
      "attrs": {"scalar": "1"}, 
      "inputs": [[923, 0, 0]]
    }, 
    {
      "op": "tile", 
      "name": "tile543", 
      "attrs": {"reps": "(5, 10, 1, 1)"}, 
      "inputs": [[93, 0, 0]]
    }, 
    {
      "op": "BlockGrad", 
      "name": "blockgrad685", 
      "inputs": [[925, 0, 0]]
    }, 
    {
      "op": "null", 
      "name": "param_2->3_[3,3]_3_2_s17_Ord1_angular_(1,1,10,5)_weight", 
      "inputs": []
    }, 
    {
      "op": "broadcast_mul", 
      "name": "broadcast_mul458", 
      "inputs": [[926, 0, 0], [927, 0, 0]]
    }, 
    {
      "op": "null", 
      "name": "param_2->3_[3,3]_3_2_s17_Ord1_angular_(1,1,10,5)_bias", 
      "inputs": []
    }, 
    {
      "op": "broadcast_add", 
      "name": "broadcast_add429", 
      "inputs": [[928, 0, 0], [929, 0, 0]]
    }, 
    {
      "op": "elemwise_add", 
      "name": "elemwise_add200", 
      "inputs": [[924, 0, 0], [930, 0, 0]]
    }, 
    {
      "op": "cos", 
      "name": "cos171", 
      "inputs": [[931, 0, 0]]
    }, 
    {
      "op": "ones_like", 
      "name": "ones_like171", 
      "inputs": [[926, 0, 0]]
    }, 
    {
      "op": "broadcast_lesser", 
      "name": "broadcast_lesser171", 
      "inputs": [[926, 0, 0], [933, 0, 0]]
    }, 
    {
      "op": "BlockGrad", 
      "name": "blockgrad687", 
      "inputs": [[934, 0, 0]]
    }, 
    {
      "op": "elemwise_mul", 
      "name": "elemwise_mul714", 
      "inputs": [[932, 0, 0], [935, 0, 0]]
    }, 
    {
      "op": "null", 
      "name": "param_2->3_[3,3]_3_2_s17_Ord1_radial_(1,1,10,5)_weight", 
      "inputs": []
    }, 
    {
      "op": "broadcast_mul", 
      "name": "broadcast_mul457", 
      "inputs": [[926, 0, 0], [937, 0, 0]]
    }, 
    {
      "op": "null", 
      "name": "param_2->3_[3,3]_3_2_s17_Ord1_radial_(1,1,10,5)_bias", 
      "inputs": []
    }, 
    {
      "op": "broadcast_add", 
      "name": "broadcast_add428", 
      "inputs": [[938, 0, 0], [939, 0, 0]]
    }, 
    {
      "op": "_mul_scalar", 
      "name": "_mulscalar431", 
      "attrs": {"scalar": "100"}, 
      "inputs": [[940, 0, 0]]
    }, 
    {
      "op": "tanh", 
      "name": "tanh257", 
      "inputs": [[941, 0, 0]]
    }, 
    {
      "op": "elemwise_mul", 
      "name": "_mul257", 
      "inputs": [[940, 0, 0], [942, 0, 0]]
    }, 
    {
      "op": "elemwise_mul", 
      "name": "elemwise_mul716", 
      "inputs": [[936, 0, 0], [943, 0, 0]]
    }, 
    {
      "op": "tile", 
      "name": "tile549", 
      "attrs": {"reps": "(5, 5, 1, 1)"}, 
      "inputs": [[93, 0, 0]]
    }, 
    {
      "op": "BlockGrad", 
      "name": "blockgrad694", 
      "inputs": [[945, 0, 0]]
    }, 
    {
      "op": "null", 
      "name": "param_3->3_[3,3]_3_2_s17_Ord0_radial_(1,1,5,5)_weight", 
      "inputs": []
    }, 
    {
      "op": "broadcast_mul", 
      "name": "broadcast_mul463", 
      "inputs": [[946, 0, 0], [947, 0, 0]]
    }, 
    {
      "op": "null", 
      "name": "param_3->3_[3,3]_3_2_s17_Ord0_radial_(1,1,5,5)_bias", 
      "inputs": []
    }, 
    {
      "op": "broadcast_add", 
      "name": "broadcast_add434", 
      "inputs": [[948, 0, 0], [949, 0, 0]]
    }, 
    {
      "op": "_mul_scalar", 
      "name": "_mulscalar437", 
      "attrs": {"scalar": "100"}, 
      "inputs": [[950, 0, 0]]
    }, 
    {
      "op": "tanh", 
      "name": "tanh260", 
      "inputs": [[951, 0, 0]]
    }, 
    {
      "op": "elemwise_mul", 
      "name": "_mul260", 
      "inputs": [[950, 0, 0], [952, 0, 0]]
    }, 
    {
      "op": "Concat", 
      "name": "sort_ins3_out3_Re_assm_[3,3]_3_2_s17", 
      "attrs": {
        "dim": "1", 
        "num_args": "3"
      }, 
      "inputs": [[921, 0, 0], [944, 0, 0], [953, 0, 0]]
    }, 
    {
      "op": "sin", 
      "name": "sin169", 
      "inputs": [[908, 0, 0]]
    }, 
    {
      "op": "elemwise_mul", 
      "name": "elemwise_mul705", 
      "inputs": [[955, 0, 0], [912, 0, 0]]
    }, 
    {
      "op": "elemwise_mul", 
      "name": "elemwise_mul707", 
      "inputs": [[956, 0, 0], [920, 0, 0]]
    }, 
    {
      "op": "sin", 
      "name": "sin171", 
      "inputs": [[931, 0, 0]]
    }, 
    {
      "op": "elemwise_mul", 
      "name": "elemwise_mul713", 
      "inputs": [[958, 0, 0], [935, 0, 0]]
    }, 
    {
      "op": "elemwise_mul", 
      "name": "elemwise_mul715", 
      "inputs": [[959, 0, 0], [943, 0, 0]]
    }, 
    {
      "op": "zeros_like", 
      "name": "zeros_like86", 
      "inputs": [[953, 0, 0]]
    }, 
    {
      "op": "Concat", 
      "name": "sort_ins3_out3_Im_assm_[3,3]_3_2_s17", 
      "attrs": {
        "dim": "1", 
        "num_args": "3"
      }, 
      "inputs": [[957, 0, 0], [960, 0, 0], [961, 0, 0]]
    }, 
    {
      "op": "Concat", 
      "name": "ReIm_ins3_out3_assm_[3,3]_3_2_s17", 
      "attrs": {
        "dim": "1", 
        "num_args": "2"
      }, 
      "inputs": [[954, 0, 0], [962, 0, 0]]
    }, 
    {
      "op": "negative", 
      "name": "negative167", 
      "inputs": [[831, 0, 0]]
    }, 
    {
      "op": "Concat", 
      "name": "ImRe_ins3_out1_assm_[3,3]_3_2_s17", 
      "attrs": {
        "dim": "1", 
        "num_args": "2"
      }, 
      "inputs": [[964, 0, 0], [821, 0, 0]]
    }, 
    {
      "op": "negative", 
      "name": "negative169", 
      "inputs": [[897, 0, 0]]
    }, 
    {
      "op": "Concat", 
      "name": "ImRe_ins3_out2_assm_[3,3]_3_2_s17", 
      "attrs": {
        "dim": "1", 
        "num_args": "2"
      }, 
      "inputs": [[966, 0, 0], [888, 0, 0]]
    }, 
    {
      "op": "negative", 
      "name": "negative170", 
      "inputs": [[962, 0, 0]]
    }, 
    {
      "op": "Concat", 
      "name": "ImRe_ins3_out3_assm_[3,3]_3_2_s17", 
      "attrs": {
        "dim": "1", 
        "num_args": "2"
      }, 
      "inputs": [[968, 0, 0], [954, 0, 0]]
    }, 
    {
      "op": "Concat", 
      "name": "assembledFilter_in3_out3_assm_[3,3]_3_2_s17", 
      "attrs": {
        "dim": "0", 
        "num_args": "6"
      }, 
      "inputs": [[832, 0, 0], [898, 0, 0], [963, 0, 0], [965, 0, 0], [967, 0, 0], [969, 0, 0]]
    }, 
    {
      "op": "Convolution", 
      "name": "conv_[3,3]_3_2_s17", 
      "attrs": {
        "dilate": "(4, 4)", 
        "kernel": "(3, 3)", 
        "no_bias": "1", 
        "num_filter": "42", 
        "pad": "(0, 0)", 
        "stride": "(1, 1)"
      }, 
      "inputs": [[765, 0, 0], [970, 0, 0]]
    }, 
    {
      "op": "square", 
      "name": "square58", 
      "inputs": [[971, 0, 0]]
    }, 
    {
      "op": "SliceChannel", 
      "name": "split29", 
      "attrs": {
        "axis": "1", 
        "num_outputs": "2"
      }, 
      "inputs": [[972, 0, 0]]
    }, 
    {
      "op": "elemwise_add", 
      "name": "elemwise_add203", 
      "inputs": [[973, 0, 0], [973, 1, 0]]
    }, 
    {
      "op": "_plus_scalar", 
      "name": "_plusscalar88", 
      "attrs": {"scalar": "2e-05"}, 
      "inputs": [[974, 0, 0]]
    }, 
    {
      "op": "sqrt", 
      "name": "sqrt58", 
      "inputs": [[975, 0, 0]]
    }, 
    {
      "op": "square", 
      "name": "square59", 
      "inputs": [[976, 0, 0]]
    }, 
    {
      "op": "_plus_scalar", 
      "name": "_plusscalar90", 
      "attrs": {"scalar": "1"}, 
      "inputs": [[977, 0, 0]]
    }, 
    {
      "op": "sqrt", 
      "name": "sqrt59", 
      "inputs": [[978, 0, 0]]
    }, 
    {
      "op": "elemwise_div", 
      "name": "_div58", 
      "inputs": [[976, 0, 0], [979, 0, 0]]
    }, 
    {
      "op": "null", 
      "name": "3_2_s17_(1,1,21,1)_mag_weight", 
      "inputs": []
    }, 
    {
      "op": "LeakyReLU", 
      "name": "leakyrelu29", 
      "attrs": {
        "act_type": "elu", 
        "slope": "1"
      }, 
      "inputs": [[981, 0, 0]]
    }, 
    {
      "op": "_plus_scalar", 
      "name": "_plusscalar89", 
      "attrs": {"scalar": "1"}, 
      "inputs": [[982, 0, 0]]
    }, 
    {
      "op": "broadcast_mul", 
      "name": "broadcast_mul464", 
      "inputs": [[980, 0, 0], [983, 0, 0]]
    }, 
    {
      "op": "elemwise_div", 
      "name": "_div59", 
      "inputs": [[984, 0, 0], [976, 0, 0]]
    }, 
    {
      "op": "tile", 
      "name": "tile551", 
      "attrs": {"reps": "(1, 2, 1, 1)"}, 
      "inputs": [[985, 0, 0]]
    }, 
    {
      "op": "elemwise_mul", 
      "name": "elemwise_mul725", 
      "inputs": [[971, 0, 0], [986, 0, 0]]
    }, 
    {
      "op": "elemwise_add", 
      "name": "skipConn_3", 
      "inputs": [[764, 0, 0], [987, 0, 0]]
    }, 
    {
      "op": "Pad", 
      "name": "pad31", 
      "attrs": {
        "mode": "edge", 
        "pad_width": "(0, 0, 0, 0, 8, 8, 8, 8)"
      }, 
      "inputs": [[988, 0, 0]]
    }, 
    {
      "op": "tile", 
      "name": "tile571", 
      "attrs": {"reps": "(6, 6, 1, 1)"}, 
      "inputs": [[93, 0, 0]]
    }, 
    {
      "op": "BlockGrad", 
      "name": "blockgrad720", 
      "inputs": [[990, 0, 0]]
    }, 
    {
      "op": "null", 
      "name": "param_1->1_[3,3]_4_2_s67_Ord0_radial_(1,1,6,6)_weight", 
      "inputs": []
    }, 
    {
      "op": "broadcast_mul", 
      "name": "broadcast_mul481", 
      "inputs": [[991, 0, 0], [992, 0, 0]]
    }, 
    {
      "op": "null", 
      "name": "param_1->1_[3,3]_4_2_s67_Ord0_radial_(1,1,6,6)_bias", 
      "inputs": []
    }, 
    {
      "op": "broadcast_add", 
      "name": "broadcast_add450", 
      "inputs": [[993, 0, 0], [994, 0, 0]]
    }, 
    {
      "op": "_mul_scalar", 
      "name": "_mulscalar453", 
      "attrs": {"scalar": "100"}, 
      "inputs": [[995, 0, 0]]
    }, 
    {
      "op": "tanh", 
      "name": "tanh270", 
      "inputs": [[996, 0, 0]]
    }, 
    {
      "op": "elemwise_mul", 
      "name": "_mul270", 
      "inputs": [[995, 0, 0], [997, 0, 0]]
    }, 
    {
      "op": "tile", 
      "name": "tile578", 
      "attrs": {"reps": "(6, 10, 1, 1)"}, 
      "inputs": [[103, 0, 0]]
    }, 
    {
      "op": "BlockGrad", 
      "name": "blockgrad729", 
      "inputs": [[999, 0, 0]]
    }, 
    {
      "op": "_mul_scalar", 
      "name": "_mulscalar459", 
      "attrs": {"scalar": "1"}, 
      "inputs": [[1000, 0, 0]]
    }, 
    {
      "op": "tile", 
      "name": "tile577", 
      "attrs": {"reps": "(6, 10, 1, 1)"}, 
      "inputs": [[93, 0, 0]]
    }, 
    {
      "op": "BlockGrad", 
      "name": "blockgrad728", 
      "inputs": [[1002, 0, 0]]
    }, 
    {
      "op": "null", 
      "name": "param_2->1_[3,3]_4_2_s67_Ord1_angular_(1,1,10,6)_weight", 
      "inputs": []
    }, 
    {
      "op": "broadcast_mul", 
      "name": "broadcast_mul487", 
      "inputs": [[1003, 0, 0], [1004, 0, 0]]
    }, 
    {
      "op": "null", 
      "name": "param_2->1_[3,3]_4_2_s67_Ord1_angular_(1,1,10,6)_bias", 
      "inputs": []
    }, 
    {
      "op": "broadcast_add", 
      "name": "broadcast_add456", 
      "inputs": [[1005, 0, 0], [1006, 0, 0]]
    }, 
    {
      "op": "elemwise_add", 
      "name": "elemwise_add213", 
      "inputs": [[1001, 0, 0], [1007, 0, 0]]
    }, 
    {
      "op": "cos", 
      "name": "cos182", 
      "inputs": [[1008, 0, 0]]
    }, 
    {
      "op": "ones_like", 
      "name": "ones_like182", 
      "inputs": [[1003, 0, 0]]
    }, 
    {
      "op": "broadcast_lesser", 
      "name": "broadcast_lesser182", 
      "inputs": [[1003, 0, 0], [1010, 0, 0]]
    }, 
    {
      "op": "BlockGrad", 
      "name": "blockgrad730", 
      "inputs": [[1011, 0, 0]]
    }, 
    {
      "op": "elemwise_mul", 
      "name": "elemwise_mul760", 
      "inputs": [[1009, 0, 0], [1012, 0, 0]]
    }, 
    {
      "op": "null", 
      "name": "param_2->1_[3,3]_4_2_s67_Ord1_radial_(1,1,10,6)_weight", 
      "inputs": []
    }, 
    {
      "op": "broadcast_mul", 
      "name": "broadcast_mul486", 
      "inputs": [[1003, 0, 0], [1014, 0, 0]]
    }, 
    {
      "op": "null", 
      "name": "param_2->1_[3,3]_4_2_s67_Ord1_radial_(1,1,10,6)_bias", 
      "inputs": []
    }, 
    {
      "op": "broadcast_add", 
      "name": "broadcast_add455", 
      "inputs": [[1015, 0, 0], [1016, 0, 0]]
    }, 
    {
      "op": "_mul_scalar", 
      "name": "_mulscalar458", 
      "attrs": {"scalar": "100"}, 
      "inputs": [[1017, 0, 0]]
    }, 
    {
      "op": "tanh", 
      "name": "tanh273", 
      "inputs": [[1018, 0, 0]]
    }, 
    {
      "op": "elemwise_mul", 
      "name": "_mul273", 
      "inputs": [[1017, 0, 0], [1019, 0, 0]]
    }, 
    {
      "op": "elemwise_mul", 
      "name": "elemwise_mul762", 
      "inputs": [[1013, 0, 0], [1020, 0, 0]]
    }, 
    {
      "op": "tile", 
      "name": "tile584", 
      "attrs": {"reps": "(6, 5, 1, 1)"}, 
      "inputs": [[103, 0, 0]]
    }, 
    {
      "op": "BlockGrad", 
      "name": "blockgrad737", 
      "inputs": [[1022, 0, 0]]
    }, 
    {
      "op": "_mul_scalar", 
      "name": "_mulscalar464", 
      "attrs": {"scalar": "2"}, 
      "inputs": [[1023, 0, 0]]
    }, 
    {
      "op": "tile", 
      "name": "tile583", 
      "attrs": {"reps": "(6, 5, 1, 1)"}, 
      "inputs": [[93, 0, 0]]
    }, 
    {
      "op": "BlockGrad", 
      "name": "blockgrad736", 
      "inputs": [[1025, 0, 0]]
    }, 
    {
      "op": "null", 
      "name": "param_3->1_[3,3]_4_2_s67_Ord2_angular_(1,1,5,6)_weight", 
      "inputs": []
    }, 
    {
      "op": "broadcast_mul", 
      "name": "broadcast_mul492", 
      "inputs": [[1026, 0, 0], [1027, 0, 0]]
    }, 
    {
      "op": "null", 
      "name": "param_3->1_[3,3]_4_2_s67_Ord2_angular_(1,1,5,6)_bias", 
      "inputs": []
    }, 
    {
      "op": "broadcast_add", 
      "name": "broadcast_add461", 
      "inputs": [[1028, 0, 0], [1029, 0, 0]]
    }, 
    {
      "op": "elemwise_add", 
      "name": "elemwise_add215", 
      "inputs": [[1024, 0, 0], [1030, 0, 0]]
    }, 
    {
      "op": "cos", 
      "name": "cos184", 
      "inputs": [[1031, 0, 0]]
    }, 
    {
      "op": "ones_like", 
      "name": "ones_like184", 
      "inputs": [[1026, 0, 0]]
    }, 
    {
      "op": "broadcast_lesser", 
      "name": "broadcast_lesser184", 
      "inputs": [[1026, 0, 0], [1033, 0, 0]]
    }, 
    {
      "op": "BlockGrad", 
      "name": "blockgrad738", 
      "inputs": [[1034, 0, 0]]
    }, 
    {
      "op": "elemwise_mul", 
      "name": "elemwise_mul768", 
      "inputs": [[1032, 0, 0], [1035, 0, 0]]
    }, 
    {
      "op": "null", 
      "name": "param_3->1_[3,3]_4_2_s67_Ord2_radial_(1,1,5,6)_weight", 
      "inputs": []
    }, 
    {
      "op": "broadcast_mul", 
      "name": "broadcast_mul491", 
      "inputs": [[1026, 0, 0], [1037, 0, 0]]
    }, 
    {
      "op": "null", 
      "name": "param_3->1_[3,3]_4_2_s67_Ord2_radial_(1,1,5,6)_bias", 
      "inputs": []
    }, 
    {
      "op": "broadcast_add", 
      "name": "broadcast_add460", 
      "inputs": [[1038, 0, 0], [1039, 0, 0]]
    }, 
    {
      "op": "_mul_scalar", 
      "name": "_mulscalar463", 
      "attrs": {"scalar": "100"}, 
      "inputs": [[1040, 0, 0]]
    }, 
    {
      "op": "tanh", 
      "name": "tanh276", 
      "inputs": [[1041, 0, 0]]
    }, 
    {
      "op": "elemwise_mul", 
      "name": "_mul276", 
      "inputs": [[1040, 0, 0], [1042, 0, 0]]
    }, 
    {
      "op": "elemwise_mul", 
      "name": "elemwise_mul770", 
      "inputs": [[1036, 0, 0], [1043, 0, 0]]
    }, 
    {
      "op": "Concat", 
      "name": "sort_ins3_out1_Re_assm_[3,3]_4_2_s67", 
      "attrs": {
        "dim": "1", 
        "num_args": "3"
      }, 
      "inputs": [[998, 0, 0], [1021, 0, 0], [1044, 0, 0]]
    }, 
    {
      "op": "zeros_like", 
      "name": "zeros_like90", 
      "inputs": [[998, 0, 0]]
    }, 
    {
      "op": "sin", 
      "name": "sin182", 
      "inputs": [[1008, 0, 0]]
    }, 
    {
      "op": "elemwise_mul", 
      "name": "elemwise_mul759", 
      "inputs": [[1047, 0, 0], [1012, 0, 0]]
    }, 
    {
      "op": "elemwise_mul", 
      "name": "elemwise_mul761", 
      "inputs": [[1048, 0, 0], [1020, 0, 0]]
    }, 
    {
      "op": "negative", 
      "name": "negative177", 
      "inputs": [[1049, 0, 0]]
    }, 
    {
      "op": "sin", 
      "name": "sin184", 
      "inputs": [[1031, 0, 0]]
    }, 
    {
      "op": "elemwise_mul", 
      "name": "elemwise_mul767", 
      "inputs": [[1051, 0, 0], [1035, 0, 0]]
    }, 
    {
      "op": "elemwise_mul", 
      "name": "elemwise_mul769", 
      "inputs": [[1052, 0, 0], [1043, 0, 0]]
    }, 
    {
      "op": "negative", 
      "name": "negative178", 
      "inputs": [[1053, 0, 0]]
    }, 
    {
      "op": "Concat", 
      "name": "sort_ins3_out1_Im_assm_[3,3]_4_2_s67", 
      "attrs": {
        "dim": "1", 
        "num_args": "3"
      }, 
      "inputs": [[1046, 0, 0], [1050, 0, 0], [1054, 0, 0]]
    }, 
    {
      "op": "Concat", 
      "name": "ReIm_ins3_out1_assm_[3,3]_4_2_s67", 
      "attrs": {
        "dim": "1", 
        "num_args": "2"
      }, 
      "inputs": [[1045, 0, 0], [1055, 0, 0]]
    }, 
    {
      "op": "tile", 
      "name": "tile574", 
      "attrs": {"reps": "(10, 6, 1, 1)"}, 
      "inputs": [[103, 0, 0]]
    }, 
    {
      "op": "BlockGrad", 
      "name": "blockgrad723", 
      "inputs": [[1057, 0, 0]]
    }, 
    {
      "op": "_mul_scalar", 
      "name": "_mulscalar455", 
      "attrs": {"scalar": "1"}, 
      "inputs": [[1058, 0, 0]]
    }, 
    {
      "op": "tile", 
      "name": "tile573", 
      "attrs": {"reps": "(10, 6, 1, 1)"}, 
      "inputs": [[93, 0, 0]]
    }, 
    {
      "op": "BlockGrad", 
      "name": "blockgrad722", 
      "inputs": [[1060, 0, 0]]
    }, 
    {
      "op": "null", 
      "name": "param_1->2_[3,3]_4_2_s67_Ord1_angular_(1,1,6,10)_weight", 
      "inputs": []
    }, 
    {
      "op": "broadcast_mul", 
      "name": "broadcast_mul483", 
      "inputs": [[1061, 0, 0], [1062, 0, 0]]
    }, 
    {
      "op": "null", 
      "name": "param_1->2_[3,3]_4_2_s67_Ord1_angular_(1,1,6,10)_bias", 
      "inputs": []
    }, 
    {
      "op": "broadcast_add", 
      "name": "broadcast_add452", 
      "inputs": [[1063, 0, 0], [1064, 0, 0]]
    }, 
    {
      "op": "elemwise_add", 
      "name": "elemwise_add211", 
      "inputs": [[1059, 0, 0], [1065, 0, 0]]
    }, 
    {
      "op": "cos", 
      "name": "cos180", 
      "inputs": [[1066, 0, 0]]
    }, 
    {
      "op": "ones_like", 
      "name": "ones_like180", 
      "inputs": [[1061, 0, 0]]
    }, 
    {
      "op": "broadcast_lesser", 
      "name": "broadcast_lesser180", 
      "inputs": [[1061, 0, 0], [1068, 0, 0]]
    }, 
    {
      "op": "BlockGrad", 
      "name": "blockgrad724", 
      "inputs": [[1069, 0, 0]]
    }, 
    {
      "op": "elemwise_mul", 
      "name": "elemwise_mul752", 
      "inputs": [[1067, 0, 0], [1070, 0, 0]]
    }, 
    {
      "op": "null", 
      "name": "param_1->2_[3,3]_4_2_s67_Ord1_radial_(1,1,6,10)_weight", 
      "inputs": []
    }, 
    {
      "op": "broadcast_mul", 
      "name": "broadcast_mul482", 
      "inputs": [[1061, 0, 0], [1072, 0, 0]]
    }, 
    {
      "op": "null", 
      "name": "param_1->2_[3,3]_4_2_s67_Ord1_radial_(1,1,6,10)_bias", 
      "inputs": []
    }, 
    {
      "op": "broadcast_add", 
      "name": "broadcast_add451", 
      "inputs": [[1073, 0, 0], [1074, 0, 0]]
    }, 
    {
      "op": "_mul_scalar", 
      "name": "_mulscalar454", 
      "attrs": {"scalar": "100"}, 
      "inputs": [[1075, 0, 0]]
    }, 
    {
      "op": "tanh", 
      "name": "tanh271", 
      "inputs": [[1076, 0, 0]]
    }, 
    {
      "op": "elemwise_mul", 
      "name": "_mul271", 
      "inputs": [[1075, 0, 0], [1077, 0, 0]]
    }, 
    {
      "op": "elemwise_mul", 
      "name": "elemwise_mul754", 
      "inputs": [[1071, 0, 0], [1078, 0, 0]]
    }, 
    {
      "op": "tile", 
      "name": "tile579", 
      "attrs": {"reps": "(10, 10, 1, 1)"}, 
      "inputs": [[93, 0, 0]]
    }, 
    {
      "op": "BlockGrad", 
      "name": "blockgrad731", 
      "inputs": [[1080, 0, 0]]
    }, 
    {
      "op": "null", 
      "name": "param_2->2_[3,3]_4_2_s67_Ord0_radial_(1,1,10,10)_weight", 
      "inputs": []
    }, 
    {
      "op": "broadcast_mul", 
      "name": "broadcast_mul488", 
      "inputs": [[1081, 0, 0], [1082, 0, 0]]
    }, 
    {
      "op": "null", 
      "name": "param_2->2_[3,3]_4_2_s67_Ord0_radial_(1,1,10,10)_bias", 
      "inputs": []
    }, 
    {
      "op": "broadcast_add", 
      "name": "broadcast_add457", 
      "inputs": [[1083, 0, 0], [1084, 0, 0]]
    }, 
    {
      "op": "_mul_scalar", 
      "name": "_mulscalar460", 
      "attrs": {"scalar": "100"}, 
      "inputs": [[1085, 0, 0]]
    }, 
    {
      "op": "tanh", 
      "name": "tanh274", 
      "inputs": [[1086, 0, 0]]
    }, 
    {
      "op": "elemwise_mul", 
      "name": "_mul274", 
      "inputs": [[1085, 0, 0], [1087, 0, 0]]
    }, 
    {
      "op": "tile", 
      "name": "tile586", 
      "attrs": {"reps": "(10, 5, 1, 1)"}, 
      "inputs": [[103, 0, 0]]
    }, 
    {
      "op": "BlockGrad", 
      "name": "blockgrad740", 
      "inputs": [[1089, 0, 0]]
    }, 
    {
      "op": "_mul_scalar", 
      "name": "_mulscalar466", 
      "attrs": {"scalar": "1"}, 
      "inputs": [[1090, 0, 0]]
    }, 
    {
      "op": "tile", 
      "name": "tile585", 
      "attrs": {"reps": "(10, 5, 1, 1)"}, 
      "inputs": [[93, 0, 0]]
    }, 
    {
      "op": "BlockGrad", 
      "name": "blockgrad739", 
      "inputs": [[1092, 0, 0]]
    }, 
    {
      "op": "null", 
      "name": "param_3->2_[3,3]_4_2_s67_Ord1_angular_(1,1,5,10)_weight", 
      "inputs": []
    }, 
    {
      "op": "broadcast_mul", 
      "name": "broadcast_mul494", 
      "inputs": [[1093, 0, 0], [1094, 0, 0]]
    }, 
    {
      "op": "null", 
      "name": "param_3->2_[3,3]_4_2_s67_Ord1_angular_(1,1,5,10)_bias", 
      "inputs": []
    }, 
    {
      "op": "broadcast_add", 
      "name": "broadcast_add463", 
      "inputs": [[1095, 0, 0], [1096, 0, 0]]
    }, 
    {
      "op": "elemwise_add", 
      "name": "elemwise_add216", 
      "inputs": [[1091, 0, 0], [1097, 0, 0]]
    }, 
    {
      "op": "cos", 
      "name": "cos185", 
      "inputs": [[1098, 0, 0]]
    }, 
    {
      "op": "ones_like", 
      "name": "ones_like185", 
      "inputs": [[1093, 0, 0]]
    }, 
    {
      "op": "broadcast_lesser", 
      "name": "broadcast_lesser185", 
      "inputs": [[1093, 0, 0], [1100, 0, 0]]
    }, 
    {
      "op": "BlockGrad", 
      "name": "blockgrad741", 
      "inputs": [[1101, 0, 0]]
    }, 
    {
      "op": "elemwise_mul", 
      "name": "elemwise_mul772", 
      "inputs": [[1099, 0, 0], [1102, 0, 0]]
    }, 
    {
      "op": "null", 
      "name": "param_3->2_[3,3]_4_2_s67_Ord1_radial_(1,1,5,10)_weight", 
      "inputs": []
    }, 
    {
      "op": "broadcast_mul", 
      "name": "broadcast_mul493", 
      "inputs": [[1093, 0, 0], [1104, 0, 0]]
    }, 
    {
      "op": "null", 
      "name": "param_3->2_[3,3]_4_2_s67_Ord1_radial_(1,1,5,10)_bias", 
      "inputs": []
    }, 
    {
      "op": "broadcast_add", 
      "name": "broadcast_add462", 
      "inputs": [[1105, 0, 0], [1106, 0, 0]]
    }, 
    {
      "op": "_mul_scalar", 
      "name": "_mulscalar465", 
      "attrs": {"scalar": "100"}, 
      "inputs": [[1107, 0, 0]]
    }, 
    {
      "op": "tanh", 
      "name": "tanh277", 
      "inputs": [[1108, 0, 0]]
    }, 
    {
      "op": "elemwise_mul", 
      "name": "_mul277", 
      "inputs": [[1107, 0, 0], [1109, 0, 0]]
    }, 
    {
      "op": "elemwise_mul", 
      "name": "elemwise_mul774", 
      "inputs": [[1103, 0, 0], [1110, 0, 0]]
    }, 
    {
      "op": "Concat", 
      "name": "sort_ins3_out2_Re_assm_[3,3]_4_2_s67", 
      "attrs": {
        "dim": "1", 
        "num_args": "3"
      }, 
      "inputs": [[1079, 0, 0], [1088, 0, 0], [1111, 0, 0]]
    }, 
    {
      "op": "sin", 
      "name": "sin180", 
      "inputs": [[1066, 0, 0]]
    }, 
    {
      "op": "elemwise_mul", 
      "name": "elemwise_mul751", 
      "inputs": [[1113, 0, 0], [1070, 0, 0]]
    }, 
    {
      "op": "elemwise_mul", 
      "name": "elemwise_mul753", 
      "inputs": [[1114, 0, 0], [1078, 0, 0]]
    }, 
    {
      "op": "zeros_like", 
      "name": "zeros_like91", 
      "inputs": [[1088, 0, 0]]
    }, 
    {
      "op": "sin", 
      "name": "sin185", 
      "inputs": [[1098, 0, 0]]
    }, 
    {
      "op": "elemwise_mul", 
      "name": "elemwise_mul771", 
      "inputs": [[1117, 0, 0], [1102, 0, 0]]
    }, 
    {
      "op": "elemwise_mul", 
      "name": "elemwise_mul773", 
      "inputs": [[1118, 0, 0], [1110, 0, 0]]
    }, 
    {
      "op": "negative", 
      "name": "negative180", 
      "inputs": [[1119, 0, 0]]
    }, 
    {
      "op": "Concat", 
      "name": "sort_ins3_out2_Im_assm_[3,3]_4_2_s67", 
      "attrs": {
        "dim": "1", 
        "num_args": "3"
      }, 
      "inputs": [[1115, 0, 0], [1116, 0, 0], [1120, 0, 0]]
    }, 
    {
      "op": "Concat", 
      "name": "ReIm_ins3_out2_assm_[3,3]_4_2_s67", 
      "attrs": {
        "dim": "1", 
        "num_args": "2"
      }, 
      "inputs": [[1112, 0, 0], [1121, 0, 0]]
    }, 
    {
      "op": "tile", 
      "name": "tile576", 
      "attrs": {"reps": "(5, 6, 1, 1)"}, 
      "inputs": [[103, 0, 0]]
    }, 
    {
      "op": "BlockGrad", 
      "name": "blockgrad726", 
      "inputs": [[1123, 0, 0]]
    }, 
    {
      "op": "_mul_scalar", 
      "name": "_mulscalar457", 
      "attrs": {"scalar": "2"}, 
      "inputs": [[1124, 0, 0]]
    }, 
    {
      "op": "tile", 
      "name": "tile575", 
      "attrs": {"reps": "(5, 6, 1, 1)"}, 
      "inputs": [[93, 0, 0]]
    }, 
    {
      "op": "BlockGrad", 
      "name": "blockgrad725", 
      "inputs": [[1126, 0, 0]]
    }, 
    {
      "op": "null", 
      "name": "param_1->3_[3,3]_4_2_s67_Ord2_angular_(1,1,6,5)_weight", 
      "inputs": []
    }, 
    {
      "op": "broadcast_mul", 
      "name": "broadcast_mul485", 
      "inputs": [[1127, 0, 0], [1128, 0, 0]]
    }, 
    {
      "op": "null", 
      "name": "param_1->3_[3,3]_4_2_s67_Ord2_angular_(1,1,6,5)_bias", 
      "inputs": []
    }, 
    {
      "op": "broadcast_add", 
      "name": "broadcast_add454", 
      "inputs": [[1129, 0, 0], [1130, 0, 0]]
    }, 
    {
      "op": "elemwise_add", 
      "name": "elemwise_add212", 
      "inputs": [[1125, 0, 0], [1131, 0, 0]]
    }, 
    {
      "op": "cos", 
      "name": "cos181", 
      "inputs": [[1132, 0, 0]]
    }, 
    {
      "op": "ones_like", 
      "name": "ones_like181", 
      "inputs": [[1127, 0, 0]]
    }, 
    {
      "op": "broadcast_lesser", 
      "name": "broadcast_lesser181", 
      "inputs": [[1127, 0, 0], [1134, 0, 0]]
    }, 
    {
      "op": "BlockGrad", 
      "name": "blockgrad727", 
      "inputs": [[1135, 0, 0]]
    }, 
    {
      "op": "elemwise_mul", 
      "name": "elemwise_mul756", 
      "inputs": [[1133, 0, 0], [1136, 0, 0]]
    }, 
    {
      "op": "null", 
      "name": "param_1->3_[3,3]_4_2_s67_Ord2_radial_(1,1,6,5)_weight", 
      "inputs": []
    }, 
    {
      "op": "broadcast_mul", 
      "name": "broadcast_mul484", 
      "inputs": [[1127, 0, 0], [1138, 0, 0]]
    }, 
    {
      "op": "null", 
      "name": "param_1->3_[3,3]_4_2_s67_Ord2_radial_(1,1,6,5)_bias", 
      "inputs": []
    }, 
    {
      "op": "broadcast_add", 
      "name": "broadcast_add453", 
      "inputs": [[1139, 0, 0], [1140, 0, 0]]
    }, 
    {
      "op": "_mul_scalar", 
      "name": "_mulscalar456", 
      "attrs": {"scalar": "100"}, 
      "inputs": [[1141, 0, 0]]
    }, 
    {
      "op": "tanh", 
      "name": "tanh272", 
      "inputs": [[1142, 0, 0]]
    }, 
    {
      "op": "elemwise_mul", 
      "name": "_mul272", 
      "inputs": [[1141, 0, 0], [1143, 0, 0]]
    }, 
    {
      "op": "elemwise_mul", 
      "name": "elemwise_mul758", 
      "inputs": [[1137, 0, 0], [1144, 0, 0]]
    }, 
    {
      "op": "tile", 
      "name": "tile582", 
      "attrs": {"reps": "(5, 10, 1, 1)"}, 
      "inputs": [[103, 0, 0]]
    }, 
    {
      "op": "BlockGrad", 
      "name": "blockgrad734", 
      "inputs": [[1146, 0, 0]]
    }, 
    {
      "op": "_mul_scalar", 
      "name": "_mulscalar462", 
      "attrs": {"scalar": "1"}, 
      "inputs": [[1147, 0, 0]]
    }, 
    {
      "op": "tile", 
      "name": "tile581", 
      "attrs": {"reps": "(5, 10, 1, 1)"}, 
      "inputs": [[93, 0, 0]]
    }, 
    {
      "op": "BlockGrad", 
      "name": "blockgrad733", 
      "inputs": [[1149, 0, 0]]
    }, 
    {
      "op": "null", 
      "name": "param_2->3_[3,3]_4_2_s67_Ord1_angular_(1,1,10,5)_weight", 
      "inputs": []
    }, 
    {
      "op": "broadcast_mul", 
      "name": "broadcast_mul490", 
      "inputs": [[1150, 0, 0], [1151, 0, 0]]
    }, 
    {
      "op": "null", 
      "name": "param_2->3_[3,3]_4_2_s67_Ord1_angular_(1,1,10,5)_bias", 
      "inputs": []
    }, 
    {
      "op": "broadcast_add", 
      "name": "broadcast_add459", 
      "inputs": [[1152, 0, 0], [1153, 0, 0]]
    }, 
    {
      "op": "elemwise_add", 
      "name": "elemwise_add214", 
      "inputs": [[1148, 0, 0], [1154, 0, 0]]
    }, 
    {
      "op": "cos", 
      "name": "cos183", 
      "inputs": [[1155, 0, 0]]
    }, 
    {
      "op": "ones_like", 
      "name": "ones_like183", 
      "inputs": [[1150, 0, 0]]
    }, 
    {
      "op": "broadcast_lesser", 
      "name": "broadcast_lesser183", 
      "inputs": [[1150, 0, 0], [1157, 0, 0]]
    }, 
    {
      "op": "BlockGrad", 
      "name": "blockgrad735", 
      "inputs": [[1158, 0, 0]]
    }, 
    {
      "op": "elemwise_mul", 
      "name": "elemwise_mul764", 
      "inputs": [[1156, 0, 0], [1159, 0, 0]]
    }, 
    {
      "op": "null", 
      "name": "param_2->3_[3,3]_4_2_s67_Ord1_radial_(1,1,10,5)_weight", 
      "inputs": []
    }, 
    {
      "op": "broadcast_mul", 
      "name": "broadcast_mul489", 
      "inputs": [[1150, 0, 0], [1161, 0, 0]]
    }, 
    {
      "op": "null", 
      "name": "param_2->3_[3,3]_4_2_s67_Ord1_radial_(1,1,10,5)_bias", 
      "inputs": []
    }, 
    {
      "op": "broadcast_add", 
      "name": "broadcast_add458", 
      "inputs": [[1162, 0, 0], [1163, 0, 0]]
    }, 
    {
      "op": "_mul_scalar", 
      "name": "_mulscalar461", 
      "attrs": {"scalar": "100"}, 
      "inputs": [[1164, 0, 0]]
    }, 
    {
      "op": "tanh", 
      "name": "tanh275", 
      "inputs": [[1165, 0, 0]]
    }, 
    {
      "op": "elemwise_mul", 
      "name": "_mul275", 
      "inputs": [[1164, 0, 0], [1166, 0, 0]]
    }, 
    {
      "op": "elemwise_mul", 
      "name": "elemwise_mul766", 
      "inputs": [[1160, 0, 0], [1167, 0, 0]]
    }, 
    {
      "op": "tile", 
      "name": "tile587", 
      "attrs": {"reps": "(5, 5, 1, 1)"}, 
      "inputs": [[93, 0, 0]]
    }, 
    {
      "op": "BlockGrad", 
      "name": "blockgrad742", 
      "inputs": [[1169, 0, 0]]
    }, 
    {
      "op": "null", 
      "name": "param_3->3_[3,3]_4_2_s67_Ord0_radial_(1,1,5,5)_weight", 
      "inputs": []
    }, 
    {
      "op": "broadcast_mul", 
      "name": "broadcast_mul495", 
      "inputs": [[1170, 0, 0], [1171, 0, 0]]
    }, 
    {
      "op": "null", 
      "name": "param_3->3_[3,3]_4_2_s67_Ord0_radial_(1,1,5,5)_bias", 
      "inputs": []
    }, 
    {
      "op": "broadcast_add", 
      "name": "broadcast_add464", 
      "inputs": [[1172, 0, 0], [1173, 0, 0]]
    }, 
    {
      "op": "_mul_scalar", 
      "name": "_mulscalar467", 
      "attrs": {"scalar": "100"}, 
      "inputs": [[1174, 0, 0]]
    }, 
    {
      "op": "tanh", 
      "name": "tanh278", 
      "inputs": [[1175, 0, 0]]
    }, 
    {
      "op": "elemwise_mul", 
      "name": "_mul278", 
      "inputs": [[1174, 0, 0], [1176, 0, 0]]
    }, 
    {
      "op": "Concat", 
      "name": "sort_ins3_out3_Re_assm_[3,3]_4_2_s67", 
      "attrs": {
        "dim": "1", 
        "num_args": "3"
      }, 
      "inputs": [[1145, 0, 0], [1168, 0, 0], [1177, 0, 0]]
    }, 
    {
      "op": "sin", 
      "name": "sin181", 
      "inputs": [[1132, 0, 0]]
    }, 
    {
      "op": "elemwise_mul", 
      "name": "elemwise_mul755", 
      "inputs": [[1179, 0, 0], [1136, 0, 0]]
    }, 
    {
      "op": "elemwise_mul", 
      "name": "elemwise_mul757", 
      "inputs": [[1180, 0, 0], [1144, 0, 0]]
    }, 
    {
      "op": "sin", 
      "name": "sin183", 
      "inputs": [[1155, 0, 0]]
    }, 
    {
      "op": "elemwise_mul", 
      "name": "elemwise_mul763", 
      "inputs": [[1182, 0, 0], [1159, 0, 0]]
    }, 
    {
      "op": "elemwise_mul", 
      "name": "elemwise_mul765", 
      "inputs": [[1183, 0, 0], [1167, 0, 0]]
    }, 
    {
      "op": "zeros_like", 
      "name": "zeros_like92", 
      "inputs": [[1177, 0, 0]]
    }, 
    {
      "op": "Concat", 
      "name": "sort_ins3_out3_Im_assm_[3,3]_4_2_s67", 
      "attrs": {
        "dim": "1", 
        "num_args": "3"
      }, 
      "inputs": [[1181, 0, 0], [1184, 0, 0], [1185, 0, 0]]
    }, 
    {
      "op": "Concat", 
      "name": "ReIm_ins3_out3_assm_[3,3]_4_2_s67", 
      "attrs": {
        "dim": "1", 
        "num_args": "2"
      }, 
      "inputs": [[1178, 0, 0], [1186, 0, 0]]
    }, 
    {
      "op": "negative", 
      "name": "negative179", 
      "inputs": [[1055, 0, 0]]
    }, 
    {
      "op": "Concat", 
      "name": "ImRe_ins3_out1_assm_[3,3]_4_2_s67", 
      "attrs": {
        "dim": "1", 
        "num_args": "2"
      }, 
      "inputs": [[1188, 0, 0], [1045, 0, 0]]
    }, 
    {
      "op": "negative", 
      "name": "negative181", 
      "inputs": [[1121, 0, 0]]
    }, 
    {
      "op": "Concat", 
      "name": "ImRe_ins3_out2_assm_[3,3]_4_2_s67", 
      "attrs": {
        "dim": "1", 
        "num_args": "2"
      }, 
      "inputs": [[1190, 0, 0], [1112, 0, 0]]
    }, 
    {
      "op": "negative", 
      "name": "negative182", 
      "inputs": [[1186, 0, 0]]
    }, 
    {
      "op": "Concat", 
      "name": "ImRe_ins3_out3_assm_[3,3]_4_2_s67", 
      "attrs": {
        "dim": "1", 
        "num_args": "2"
      }, 
      "inputs": [[1192, 0, 0], [1178, 0, 0]]
    }, 
    {
      "op": "Concat", 
      "name": "assembledFilter_in3_out3_assm_[3,3]_4_2_s67", 
      "attrs": {
        "dim": "0", 
        "num_args": "6"
      }, 
      "inputs": [[1056, 0, 0], [1122, 0, 0], [1187, 0, 0], [1189, 0, 0], [1191, 0, 0], [1193, 0, 0]]
    }, 
    {
      "op": "Convolution", 
      "name": "conv_[3,3]_4_2_s67", 
      "attrs": {
        "dilate": "(8, 8)", 
        "kernel": "(3, 3)", 
        "no_bias": "1", 
        "num_filter": "42", 
        "pad": "(0, 0)", 
        "stride": "(1, 1)"
      }, 
      "inputs": [[989, 0, 0], [1194, 0, 0]]
    }, 
    {
      "op": "square", 
      "name": "square62", 
      "inputs": [[1195, 0, 0]]
    }, 
    {
      "op": "SliceChannel", 
      "name": "split31", 
      "attrs": {
        "axis": "1", 
        "num_outputs": "2"
      }, 
      "inputs": [[1196, 0, 0]]
    }, 
    {
      "op": "elemwise_add", 
      "name": "elemwise_add217", 
      "inputs": [[1197, 0, 0], [1197, 1, 0]]
    }, 
    {
      "op": "_plus_scalar", 
      "name": "_plusscalar94", 
      "attrs": {"scalar": "2e-05"}, 
      "inputs": [[1198, 0, 0]]
    }, 
    {
      "op": "sqrt", 
      "name": "sqrt62", 
      "inputs": [[1199, 0, 0]]
    }, 
    {
      "op": "square", 
      "name": "square63", 
      "inputs": [[1200, 0, 0]]
    }, 
    {
      "op": "_plus_scalar", 
      "name": "_plusscalar96", 
      "attrs": {"scalar": "1"}, 
      "inputs": [[1201, 0, 0]]
    }, 
    {
…
      "inputs": [[2499, 0, 0]]
    }, 
    {
      "op": "elemwise_mul", 
      "name": "elemwise_mul1063", 
      "inputs": [[2526, 0, 0], [2503, 0, 0]]
    }, 
    {
      "op": "elemwise_mul", 
      "name": "elemwise_mul1065", 
      "inputs": [[2527, 0, 0], [2511, 0, 0]]
    }, 
    {
      "op": "zeros_like", 
      "name": "zeros_like128", 
      "inputs": [[2521, 0, 0]]
    }, 
    {
      "op": "Concat", 
      "name": "sort_ins3_out3_Im_assm_[3,3]_10_2_s65", 
      "attrs": {
        "dim": "1", 
        "num_args": "3"
      }, 
      "inputs": [[2525, 0, 0], [2528, 0, 0], [2529, 0, 0]]
    }, 
    {
      "op": "Concat", 
      "name": "ReIm_ins3_out3_assm_[3,3]_10_2_s65", 
      "attrs": {
        "dim": "1", 
        "num_args": "2"
      }, 
      "inputs": [[2522, 0, 0], [2530, 0, 0]]
    }, 
    {
      "op": "negative", 
      "name": "negative251", 
      "inputs": [[2399, 0, 0]]
    }, 
    {
      "op": "Concat", 
      "name": "ImRe_ins3_out1_assm_[3,3]_10_2_s65", 
      "attrs": {
        "dim": "1", 
        "num_args": "2"
      }, 
      "inputs": [[2532, 0, 0], [2389, 0, 0]]
    }, 
    {
      "op": "negative", 
      "name": "negative253", 
      "inputs": [[2465, 0, 0]]
    }, 
    {
      "op": "Concat", 
      "name": "ImRe_ins3_out2_assm_[3,3]_10_2_s65", 
      "attrs": {
        "dim": "1", 
        "num_args": "2"
      }, 
      "inputs": [[2534, 0, 0], [2456, 0, 0]]
    }, 
    {
      "op": "negative", 
      "name": "negative254", 
      "inputs": [[2530, 0, 0]]
    }, 
    {
      "op": "Concat", 
      "name": "ImRe_ins3_out3_assm_[3,3]_10_2_s65", 
      "attrs": {
        "dim": "1", 
        "num_args": "2"
      }, 
      "inputs": [[2536, 0, 0], [2522, 0, 0]]
    }, 
    {
      "op": "Concat", 
      "name": "assembledFilter_in3_out3_assm_[3,3]_10_2_s65", 
      "attrs": {
        "dim": "0", 
        "num_args": "6"
      }, 
      "inputs": [[2400, 0, 0], [2466, 0, 0], [2531, 0, 0], [2533, 0, 0], [2535, 0, 0], [2537, 0, 0]]
    }, 
    {
      "op": "Convolution", 
      "name": "conv_[3,3]_10_2_s65", 
      "attrs": {
        "dilate": "(1, 1)", 
        "kernel": "(3, 3)", 
        "no_bias": "1", 
        "num_filter": "42", 
        "pad": "(0, 0)", 
        "stride": "(1, 1)"
      }, 
      "inputs": [[2333, 0, 0], [2538, 0, 0]]
    }, 
    {
      "op": "square", 
      "name": "square86", 
      "inputs": [[2539, 0, 0]]
    }, 
    {
      "op": "SliceChannel", 
      "name": "split43", 
      "attrs": {
        "axis": "1", 
        "num_outputs": "2"
      }, 
      "inputs": [[2540, 0, 0]]
    }, 
    {
      "op": "elemwise_add", 
      "name": "elemwise_add301", 
      "inputs": [[2541, 0, 0], [2541, 1, 0]]
    }, 
    {
      "op": "_plus_scalar", 
      "name": "_plusscalar130", 
      "attrs": {"scalar": "2e-05"}, 
      "inputs": [[2542, 0, 0]]
    }, 
    {
      "op": "sqrt", 
      "name": "sqrt86", 
      "inputs": [[2543, 0, 0]]
    }, 
    {
      "op": "square", 
      "name": "square87", 
      "inputs": [[2544, 0, 0]]
    }, 
    {
      "op": "_plus_scalar", 
      "name": "_plusscalar132", 
      "attrs": {"scalar": "1"}, 
      "inputs": [[2545, 0, 0]]
    }, 
    {
      "op": "sqrt", 
      "name": "sqrt87", 
      "inputs": [[2546, 0, 0]]
    }, 
    {
      "op": "elemwise_div", 
      "name": "_div86", 
      "inputs": [[2544, 0, 0], [2547, 0, 0]]
    }, 
    {
      "op": "null", 
      "name": "10_2_s65_(1,1,21,1)_mag_weight", 
      "inputs": []
    }, 
    {
      "op": "LeakyReLU", 
      "name": "leakyrelu43", 
      "attrs": {
        "act_type": "elu", 
        "slope": "1"
      }, 
      "inputs": [[2549, 0, 0]]
    }, 
    {
      "op": "_plus_scalar", 
      "name": "_plusscalar131", 
      "attrs": {"scalar": "1"}, 
      "inputs": [[2550, 0, 0]]
    }, 
    {
      "op": "broadcast_mul", 
      "name": "broadcast_mul688", 
      "inputs": [[2548, 0, 0], [2551, 0, 0]]
    }, 
    {
      "op": "elemwise_div", 
      "name": "_div87", 
      "inputs": [[2552, 0, 0], [2544, 0, 0]]
    }, 
    {
      "op": "tile", 
      "name": "tile817", 
      "attrs": {"reps": "(1, 2, 1, 1)"}, 
      "inputs": [[2553, 0, 0]]
    }, 
    {
      "op": "elemwise_mul", 
      "name": "elemwise_mul1075", 
      "inputs": [[2539, 0, 0], [2554, 0, 0]]
    }, 
    {
      "op": "elemwise_add", 
      "name": "skipConn_10", 
      "inputs": [[2332, 0, 0], [2555, 0, 0]]
    }, 
    {
      "op": "tile", 
      "name": "tile818", 
      "attrs": {"reps": "(21, 6, 1, 1)"}, 
      "inputs": [[93, 0, 0]]
    }, 
    {
      "op": "BlockGrad", 
      "name": "blockgrad1032", 
      "inputs": [[2557, 0, 0]]
    }, 
    {
      "op": "null", 
      "name": "param_1->1_[3,3]_last_0_Ord0_radial_(1,1,6,21)_weight", 
      "inputs": []
    }, 
    {
      "op": "broadcast_mul", 
      "name": "broadcast_mul689", 
      "inputs": [[2558, 0, 0], [2559, 0, 0]]
    }, 
    {
      "op": "null", 
      "name": "param_1->1_[3,3]_last_0_Ord0_radial_(1,1,6,21)_bias", 
      "inputs": []
    }, 
    {
      "op": "broadcast_add", 
      "name": "broadcast_add645", 
      "inputs": [[2560, 0, 0], [2561, 0, 0]]
    }, 
    {
      "op": "_mul_scalar", 
      "name": "_mulscalar648", 
      "attrs": {"scalar": "100"}, 
      "inputs": [[2562, 0, 0]]
    }, 
    {
      "op": "tanh", 
      "name": "tanh387", 
      "inputs": [[2563, 0, 0]]
    }, 
    {
      "op": "elemwise_mul", 
      "name": "_mul387", 
      "inputs": [[2562, 0, 0], [2564, 0, 0]]
    }, 
    {
      "op": "tile", 
      "name": "tile821", 
      "attrs": {"reps": "(21, 10, 1, 1)"}, 
      "inputs": [[103, 0, 0]]
    }, 
    {
      "op": "BlockGrad", 
      "name": "blockgrad1035", 
      "inputs": [[2566, 0, 0]]
    }, 
    {
      "op": "_mul_scalar", 
      "name": "_mulscalar650", 
      "attrs": {"scalar": "1"}, 
      "inputs": [[2567, 0, 0]]
    }, 
    {
      "op": "tile", 
      "name": "tile820", 
      "attrs": {"reps": "(21, 10, 1, 1)"}, 
      "inputs": [[93, 0, 0]]
    }, 
    {
      "op": "BlockGrad", 
      "name": "blockgrad1034", 
      "inputs": [[2569, 0, 0]]
    }, 
    {
      "op": "null", 
      "name": "param_2->1_[3,3]_last_0_Ord1_angular_(1,1,10,21)_weight", 
      "inputs": []
    }, 
    {
      "op": "broadcast_mul", 
      "name": "broadcast_mul691", 
      "inputs": [[2570, 0, 0], [2571, 0, 0]]
    }, 
    {
      "op": "null", 
      "name": "param_2->1_[3,3]_last_0_Ord1_angular_(1,1,10,21)_bias", 
      "inputs": []
    }, 
    {
      "op": "broadcast_add", 
      "name": "broadcast_add647", 
      "inputs": [[2572, 0, 0], [2573, 0, 0]]
    }, 
    {
      "op": "elemwise_add", 
      "name": "elemwise_add302", 
      "inputs": [[2568, 0, 0], [2574, 0, 0]]
    }, 
    {
      "op": "cos", 
      "name": "cos258", 
      "inputs": [[2575, 0, 0]]
    }, 
    {
      "op": "ones_like", 
      "name": "ones_like258", 
      "inputs": [[2570, 0, 0]]
    }, 
    {
      "op": "broadcast_lesser", 
      "name": "broadcast_lesser258", 
      "inputs": [[2570, 0, 0], [2577, 0, 0]]
    }, 
    {
      "op": "BlockGrad", 
      "name": "blockgrad1036", 
      "inputs": [[2578, 0, 0]]
    }, 
    {
      "op": "elemwise_mul", 
      "name": "elemwise_mul1077", 
      "inputs": [[2576, 0, 0], [2579, 0, 0]]
    }, 
    {
      "op": "null", 
      "name": "param_2->1_[3,3]_last_0_Ord1_radial_(1,1,10,21)_weight", 
      "inputs": []
    }, 
    {
      "op": "broadcast_mul", 
      "name": "broadcast_mul690", 
      "inputs": [[2570, 0, 0], [2581, 0, 0]]
    }, 
    {
      "op": "null", 
      "name": "param_2->1_[3,3]_last_0_Ord1_radial_(1,1,10,21)_bias", 
      "inputs": []
    }, 
    {
      "op": "broadcast_add", 
      "name": "broadcast_add646", 
      "inputs": [[2582, 0, 0], [2583, 0, 0]]
    }, 
    {
      "op": "_mul_scalar", 
      "name": "_mulscalar649", 
      "attrs": {"scalar": "100"}, 
      "inputs": [[2584, 0, 0]]
    }, 
    {
      "op": "tanh", 
      "name": "tanh388", 
      "inputs": [[2585, 0, 0]]
    }, 
    {
      "op": "elemwise_mul", 
      "name": "_mul388", 
      "inputs": [[2584, 0, 0], [2586, 0, 0]]
    }, 
    {
      "op": "elemwise_mul", 
      "name": "elemwise_mul1079", 
      "inputs": [[2580, 0, 0], [2587, 0, 0]]
    }, 
    {
      "op": "tile", 
      "name": "tile823", 
      "attrs": {"reps": "(21, 5, 1, 1)"}, 
      "inputs": [[103, 0, 0]]
    }, 
    {
      "op": "BlockGrad", 
      "name": "blockgrad1038", 
      "inputs": [[2589, 0, 0]]
    }, 
    {
      "op": "_mul_scalar", 
      "name": "_mulscalar652", 
      "attrs": {"scalar": "2"}, 
      "inputs": [[2590, 0, 0]]
    }, 
    {
      "op": "tile", 
      "name": "tile822", 
      "attrs": {"reps": "(21, 5, 1, 1)"}, 
      "inputs": [[93, 0, 0]]
    }, 
    {
      "op": "BlockGrad", 
      "name": "blockgrad1037", 
      "inputs": [[2592, 0, 0]]
    }, 
    {
      "op": "null", 
      "name": "param_3->1_[3,3]_last_0_Ord2_angular_(1,1,5,21)_weight", 
      "inputs": []
    }, 
    {
      "op": "broadcast_mul", 
      "name": "broadcast_mul693", 
      "inputs": [[2593, 0, 0], [2594, 0, 0]]
    }, 
    {
      "op": "null", 
      "name": "param_3->1_[3,3]_last_0_Ord2_angular_(1,1,5,21)_bias", 
      "inputs": []
    }, 
    {
      "op": "broadcast_add", 
      "name": "broadcast_add649", 
      "inputs": [[2595, 0, 0], [2596, 0, 0]]
    }, 
    {
      "op": "elemwise_add", 
      "name": "elemwise_add303", 
      "inputs": [[2591, 0, 0], [2597, 0, 0]]
    }, 
    {
      "op": "cos", 
      "name": "cos259", 
      "inputs": [[2598, 0, 0]]
    }, 
    {
      "op": "ones_like", 
      "name": "ones_like259", 
      "inputs": [[2593, 0, 0]]
    }, 
    {
      "op": "broadcast_lesser", 
      "name": "broadcast_lesser259", 
      "inputs": [[2593, 0, 0], [2600, 0, 0]]
    }, 
    {
      "op": "BlockGrad", 
      "name": "blockgrad1039", 
      "inputs": [[2601, 0, 0]]
    }, 
    {
      "op": "elemwise_mul", 
      "name": "elemwise_mul1081", 
      "inputs": [[2599, 0, 0], [2602, 0, 0]]
    }, 
    {
      "op": "null", 
      "name": "param_3->1_[3,3]_last_0_Ord2_radial_(1,1,5,21)_weight", 
      "inputs": []
    }, 
    {
      "op": "broadcast_mul", 
      "name": "broadcast_mul692", 
      "inputs": [[2593, 0, 0], [2604, 0, 0]]
    }, 
    {
      "op": "null", 
      "name": "param_3->1_[3,3]_last_0_Ord2_radial_(1,1,5,21)_bias", 
      "inputs": []
    }, 
    {
      "op": "broadcast_add", 
      "name": "broadcast_add648", 
      "inputs": [[2605, 0, 0], [2606, 0, 0]]
    }, 
    {
      "op": "_mul_scalar", 
      "name": "_mulscalar651", 
      "attrs": {"scalar": "100"}, 
      "inputs": [[2607, 0, 0]]
    }, 
    {
      "op": "tanh", 
      "name": "tanh389", 
      "inputs": [[2608, 0, 0]]
    }, 
    {
      "op": "elemwise_mul", 
      "name": "_mul389", 
      "inputs": [[2607, 0, 0], [2609, 0, 0]]
    }, 
    {
      "op": "elemwise_mul", 
      "name": "elemwise_mul1083", 
      "inputs": [[2603, 0, 0], [2610, 0, 0]]
    }, 
    {
      "op": "Concat", 
      "name": "sort_ins3_out1_Re_assm_[3,3]_last_0", 
      "attrs": {
        "dim": "1", 
        "num_args": "3"
      }, 
      "inputs": [[2565, 0, 0], [2588, 0, 0], [2611, 0, 0]]
    }, 
    {
      "op": "zeros_like", 
      "name": "zeros_like129", 
      "inputs": [[2565, 0, 0]]
    }, 
    {
      "op": "sin", 
      "name": "sin258", 
      "inputs": [[2575, 0, 0]]
    }, 
    {
      "op": "elemwise_mul", 
      "name": "elemwise_mul1076", 
      "inputs": [[2614, 0, 0], [2579, 0, 0]]
    }, 
    {
      "op": "elemwise_mul", 
      "name": "elemwise_mul1078", 
      "inputs": [[2615, 0, 0], [2587, 0, 0]]
    }, 
    {
      "op": "negative", 
      "name": "negative255", 
      "inputs": [[2616, 0, 0]]
    }, 
    {
      "op": "sin", 
      "name": "sin259", 
      "inputs": [[2598, 0, 0]]
    }, 
    {
      "op": "elemwise_mul", 
      "name": "elemwise_mul1080", 
      "inputs": [[2618, 0, 0], [2602, 0, 0]]
    }, 
    {
      "op": "elemwise_mul", 
      "name": "elemwise_mul1082", 
      "inputs": [[2619, 0, 0], [2610, 0, 0]]
    }, 
    {
      "op": "negative", 
      "name": "negative256", 
      "inputs": [[2620, 0, 0]]
    }, 
    {
      "op": "Concat", 
      "name": "sort_ins3_out1_Im_assm_[3,3]_last_0", 
      "attrs": {
        "dim": "1", 
        "num_args": "3"
      }, 
      "inputs": [[2613, 0, 0], [2617, 0, 0], [2621, 0, 0]]
    }, 
    {
      "op": "Concat", 
      "name": "ReIm_ins3_out1_assm_[3,3]_last_0", 
      "attrs": {
        "dim": "1", 
        "num_args": "2"
      }, 
      "inputs": [[2612, 0, 0], [2622, 0, 0]]
    }, 
    {
      "op": "negative", 
      "name": "negative257", 
      "inputs": [[2622, 0, 0]]
    }, 
    {
      "op": "Concat", 
      "name": "ImRe_ins3_out1_assm_[3,3]_last_0", 
      "attrs": {
        "dim": "1", 
        "num_args": "2"
      }, 
      "inputs": [[2624, 0, 0], [2612, 0, 0]]
    }, 
    {
      "op": "Concat", 
      "name": "assembledFilter_in3_out1_assm_[3,3]_last_0", 
      "attrs": {
        "dim": "0", 
        "num_args": "2"
      }, 
      "inputs": [[2623, 0, 0], [2625, 0, 0]]
    }, 
    {
      "op": "Convolution", 
      "name": "conv_[3,3]_last_0", 
      "attrs": {
        "dilate": "(1, 1)", 
        "kernel": "(3, 3)", 
        "no_bias": "1", 
        "num_filter": "42", 
        "pad": "(1, 1)", 
        "stride": "(1, 1)"
      }, 
      "inputs": [[2556, 0, 0], [2626, 0, 0]]
    }, 
    {
      "op": "null", 
      "name": "nin1_weight", 
      "attrs": {
        "kernel": "(1, 1)", 
        "no_bias": "1", 
        "num_filter": "24", 
        "pad": "(0, 0)", 
        "stride": "(1, 1)"
      }, 
      "inputs": []
    }, 
    {
      "op": "Convolution", 
      "name": "nin1", 
      "attrs": {
        "kernel": "(1, 1)", 
        "no_bias": "1", 
        "num_filter": "24", 
        "pad": "(0, 0)", 
        "stride": "(1, 1)"
      }, 
      "inputs": [[2627, 0, 0], [2628, 0, 0]]
    }, 
    {
      "op": "null", 
      "name": "nin2_weight", 
      "attrs": {
        "kernel": "(1, 1)", 
        "no_bias": "1", 
        "num_filter": "5", 
        "pad": "(0, 0)", 
        "stride": "(1, 1)"
      }, 
      "inputs": []
    }, 
    {
      "op": "Convolution", 
      "name": "nin2", 
      "attrs": {
        "kernel": "(1, 1)", 
        "no_bias": "1", 
        "num_filter": "5", 
        "pad": "(0, 0)", 
        "stride": "(1, 1)"
      }, 
      "inputs": [[2629, 0, 0], [2630, 0, 0]]
    }, 
    {
      "op": "null", 
      "name": "anchor_gamma", 
      "inputs": []
    }, 
    {
      "op": "_minus_scalar", 
      "name": "_minusscalar4", 
      "attrs": {"scalar": "1"}, 
      "inputs": [[2632, 0, 0]]
    }, 
    {
      "op": "Activation", 
      "name": "activation1", 
      "attrs": {"act_type": "softsign"}, 
      "inputs": [[2633, 0, 0]]
    }, 
    {
      "op": "_plus_scalar", 
      "name": "_plusscalar133", 
      "attrs": {"scalar": "1"}, 
      "inputs": [[2634, 0, 0]]
    }, 
    {
      "op": "null", 
      "name": "anchor_beta", 
      "inputs": []
    }, 
    {
      "op": "_minus_scalar", 
      "name": "_minusscalar5", 
      "attrs": {"scalar": "0.5"}, 
      "inputs": [[2636, 0, 0]]
    }, 
    {
      "op": "null", 
      "name": "anchor_moving_mean", 
      "attrs": {
        "__init__": "[\"zero\", {}]", 
        "eps": "2e-05", 
        "fix_gamma": "0", 
        "momentum": "0.9", 
        "use_global_stats": "0"
      }, 
      "inputs": []
    }, 
    {
      "op": "null", 
      "name": "anchor_moving_var", 
      "attrs": {
        "__init__": "[\"one\", {}]", 
        "eps": "2e-05", 
        "fix_gamma": "0", 
        "momentum": "0.9", 
        "use_global_stats": "0"
      }, 
      "inputs": []
    }, 
    {
      "op": "BatchNorm", 
      "name": "anchor", 
      "attrs": {
        "eps": "2e-05", 
        "fix_gamma": "0", 
        "momentum": "0.9", 
        "use_global_stats": "0"
      }, 
      "inputs": [[2631, 0, 0], [2635, 0, 0], [2637, 0, 0], [2638, 0, 1], [2639, 0, 1]]
    }, 
    {
      "op": "exp", 
      "name": "exp1", 
      "inputs": [[2640, 0, 0]]
    }, 
    {
      "op": "sum", 
      "name": "sum1", 
      "attrs": {
        "axis": "1", 
        "keepdims": "1"
      }, 
      "inputs": [[2641, 0, 0]]
    }, 
    {
      "op": "broadcast_div", 
      "name": "softmax", 
      "inputs": [[2641, 0, 0], [2642, 0, 0]]
    }, 
    {
      "op": "clip", 
      "name": "lrClip", 
      "attrs": {
        "a_max": "1", 
        "a_min": "1e-10"
      }, 
      "inputs": [[2643, 0, 0]]
    }, 
    {
      "op": "null", 
      "name": "label", 
      "inputs": []
    }, 
    {
      "op": "pick", 
      "name": "pick1", 
      "attrs": {"axis": "1"}, 
      "inputs": [[2644, 0, 0], [2645, 0, 0]]
    }, 
    {
      "op": "log", 
      "name": "log1", 
      "inputs": [[2646, 0, 0]]
    }, 
    {
      "op": "_mul_scalar", 
      "name": "_mulscalar653", 
      "attrs": {"scalar": "-1"}, 
      "inputs": [[2647, 0, 0]]
    }, 
    {
      "op": "_random_uniform", 
      "name": "random_uniform1", 
      "attrs": {
        "high": "0.02", 
        "low": "-0.02"
      }, 
      "inputs": []
    }, 
    {
      "op": "elemwise_add", 
      "name": "_plus1", 
      "inputs": [[2648, 0, 0], [2649, 0, 0]]
    }, 
    {
      "op": "MakeLoss", 
      "name": "crossEntropy", 
      "attrs": {
        "normalization": "valid", 
        "valid_thresh": "0.02"
      }, 
      "inputs": [[2650, 0, 0]]
    }, 
    {
      "op": "null", 
      "name": "buffer", 
      "inputs": []
    }, 
    {
      "op": "elemwise_mul", 
      "name": "maskWithBuffer", 
      "inputs": [[2651, 0, 0], [2652, 0, 0]]
    }, 
    {
      "op": "BlockGrad", 
      "name": "metric", 
      "inputs": [[2644, 0, 0]]
    }
  ], 
  "arg_nodes": [
    0, 
    4, 
    7, 
    9, 
    15, 
    21, 
    23, 
    31, 
    33, 
    45, 
    47, 
    55, 
    57, 
    85, 
    93, 
    96, 
    98, 
    103, 
    109, 
    111, 
    119, 
    121, 
    132, 
    134, 
    142, 
    144, 
    167, 
    169, 
    177, 
    179, 
    187, 
    189, 
    199, 
    201, 
    209, 
    211, 
    233, 
    235, 
    243, 
    245, 
    256, 
    258, 
    266, 
    268, 
    276, 
    278, 
    310, 
    320, 
    322, 
    332, 
    334, 
    342, 
    344, 
    355, 
    357, 
    365, 
    367, 
    390, 
    392, 
    400, 
    402, 
    410, 
    412, 
    422, 
    424, 
    432, 
    434, 
    456, 
    458, 
    466, 
    468, 
    479, 
    481, 
    489, 
    491, 
    499, 
    501, 
    533, 
    544, 
    546, 
    556, 
    558, 
    566, 
    568, 
    579, 
    581, 
    589, 
    591, 
    614, 
    616, 
    624, 
    626, 
    634, 
    636, 
    646, 
    648, 
    656, 
    658, 
    680, 
    682, 
    690, 
    692, 
    703, 
    705, 
    713, 
    715, 
    723, 
    725, 
    757, 
    768, 
    770, 
    780, 
    782, 
    790, 
    792, 
    803, 
    805, 
    813, 
    815, 
    838, 
    840, 
    848, 
    850, 
    858, 
    860, 
    870, 
    872, 
    880, 
    882, 
    904, 
    906, 
    914, 
    916, 
    927, 
    929, 
    937, 
    939, 
    947, 
    949, 
    981, 
    992, 
    994, 
    1004, 
    1006, 
    1014, 
    1016, 
    1027, 
    1029, 
    1037, 
    1039, 
    1062, 
    1064, 
    1072, 
    1074, 
    1082, 
    1084, 
    1094, 
    1096, 
    1104, 
    1106, 
    1128, 
    1130, 
    1138, 
    1140, 
    1151, 
    1153, 
    1161, 
    1163, 
    1171, 
    1173, 
    1205, 
    1216, 
    1218, 
    1228, 
    1230, 
    1238, 
    1240, 
    1251, 
    1253, 
    1261, 
    1263, 
    1286, 
    1288, 
    1296, 
    1298, 
    1306, 
    1308, 
    1318, 
    1320, 
    1328, 
    1330, 
    1352, 
    1354, 
    1362, 
    1364, 
    1375, 
    1377, 
    1385, 
    1387, 
    1395, 
    1397, 
    1429, 
    1440, 
    1442, 
    1452, 
    1454, 
    1462, 
    1464, 
    1475, 
    1477, 
    1485, 
    1487, 
    1510, 
    1512, 
    1520, 
    1522, 
    1530, 
    1532, 
    1542, 
    1544, 
    1552, 
    1554, 
    1576, 
    1578, 
    1586, 
    1588, 
    1599, 
    1601, 
    1609, 
    1611, 
    1619, 
    1621, 
    1653, 
    1664, 
    1666, 
    1676, 
    1678, 
    1686, 
    1688, 
    1699, 
    1701, 
    1709, 
    1711, 
    1734, 
    1736, 
    1744, 
    1746, 
    1754, 
    1756, 
    1766, 
    1768, 
    1776, 
    1778, 
    1800, 
    1802, 
    1810, 
    1812, 
    1823, 
    1825, 
    1833, 
    1835, 
    1843, 
    1845, 
    1877, 
    1888, 
    1890, 
    1900, 
    1902, 
    1910, 
    1912, 
    1923, 
    1925, 
    1933, 
    1935, 
    1958, 
    1960, 
    1968, 
    1970, 
    1978, 
    1980, 
    1990, 
    1992, 
    2000, 
    2002, 
    2024, 
    2026, 
    2034, 
    2036, 
    2047, 
    2049, 
    2057, 
    2059, 
    2067, 
    2069, 
    2101, 
    2112, 
    2114, 
    2124, 
    2126, 
    2134, 
    2136, 
    2147, 
    2149, 
    2157, 
    2159, 
    2182, 
    2184, 
    2192, 
    2194, 
    2202, 
    2204, 
    2214, 
    2216, 
    2224, 
    2226, 
    2248, 
    2250, 
    2258, 
    2260, 
    2271, 
    2273, 
    2281, 
    2283, 
    2291, 
    2293, 
    2325, 
    2336, 
    2338, 
    2348, 
    2350, 
    2358, 
    2360, 
    2371, 
    2373, 
    2381, 
    2383, 
    2406, 
    2408, 
    2416, 
    2418, 
    2426, 
    2428, 
    2438, 
    2440, 
    2448, 
    2450, 
    2472, 
    2474, 
    2482, 
    2484, 
    2495, 
    2497, 
    2505, 
    2507, 
    2515, 
    2517, 
    2549, 
    2559, 
    2561, 
    2571, 
    2573, 
    2581, 
    2583, 
    2594, 
    2596, 
    2604, 
    2606, 
    2628, 
    2630, 
    2632, 
    2636, 
    2638, 
    2639, 
    2645, 
    2652
  ], 
  "node_row_ptr": [
    0, 
    1, 
    2, 
    3, 
    4, 
    5, 
    6, 
    7, 
    8, 
    9, 
    10, 
    11, 
    12, 
    13, 
    14, 
    15, 
    16, 
    17, 
    18, 
    19, 
    20, 
    21, 
    22, 
    23, 
    24, 
    25, 
    26, 
    27, 
    28, 
    29, 
    30, 
    31, 
    32, 
    33, 
    34, 
    35, 
    36, 
    37, 
    38, 
    39, 
    40, 
    41, 
    42, 
    43, 
    44, 
    45, 
    46, 
    47, 
    48, 
    49, 
    50, 
    51, 
    52, 
    53, 
    54, 
    55, 
    56, 
    57, 
    58, 
    59, 
    60, 
    61, 
    62, 
    63, 
    64, 
    65, 
    66, 
    67, 
    68, 
    69, 
    70, 
    71, 
    72, 
    73, 
    74, 
    75, 
    76, 
    77, 
    79, 
    80, 
    81, 
    82, 
    83, 
    84, 
    85, 
    86, 
    87, 
    88, 
    89, 
    90, 
    91, 
    92, 
    93, 
    94, 
    95, 
    96, 
    97, 
    98, 
    99, 
    100, 
    101, 
    102, 
    103, 
    104, 
    105, 
    106, 
    107, 
    108, 
    109, 
    110, 
    111, 
    112, 
    113, 
    114, 
    115, 
    116, 
    117, 
    118, 
    119, 
    120, 
    121, 
    122, 
    123, 
    124, 
    125, 
    126, 
    127, 
    128, 
    129, 
    130, 
    131, 
    132, 
    133, 
    134, 
    135, 
    136, 
    137, 
    138, 
    139, 
    140, 
    141, 
    142, 
    143, 
    144, 
    145, 
    146, 
    147, 
    148, 
    149, 
    150, 
    151, 
    152, 
    153, 
    154, 
    155, 
    156, 
    157, 
    158, 
    159, 
    160, 
    161, 
    162, 
    163, 
    164, 
    165, 
    166, 
    167, 
    168, 
    169, 
    170, 
    171, 
    172, 
    173, 
    174, 
    175, 
    176, 
    177, 
    178, 
    179, 
    180, 
    181, 
    182, 
    183, 
    184, 
    185, 
    186, 
    187, 
    188, 
    189, 
    190, 
    191, 
    192, 
    193, 
    194, 
    195, 
    196, 
    197, 
    198, 
    199, 
    200, 
    201, 
    202, 
    203, 
    204, 
    205, 
    206, 
    207, 
    208, 
    209, 
    210, 
    211, 
    212, 
    213, 
    214, 
    215, 
    216, 
    217, 
    218, 
    219, 
    220, 
    221, 
    222, 
    223, 
    224, 
    225, 
    226, 
    227, 
    228, 
    229, 
    230, 
    231, 
    232, 
    233, 
    234, 
    235, 
    236, 
    237, 
    238, 
    239, 
    240, 
    241, 
    242, 
    243, 
    244, 
    245, 
    246, 
    247, 
    248, 
    249, 
    250, 
    251, 
    252, 
    253, 
    254, 
    255, 
    256, 
    257, 
    258, 
    259, 
    260, 
    261, 
    262, 
    263, 
    264, 
    265, 
    266, 
    267, 
    268, 
    269, 
    270, 
    271, 
    272, 
    273, 
    274, 
    275, 
    276, 
    277, 
    278, 
    279, 
    280, 
    281, 
    282, 
    283, 
    284, 
    285, 
    286, 
    287, 
    288, 
    289, 
    290, 
    291, 
    292, 
    293, 
    294, 
    295, 
    296, 
    297, 
    298, 
    299, 
    300, 
    301, 
    302, 
    303, 
    305, 
    306, 
    307, 
    308, 
    309, 
    310, 
    311, 
    312, 
    313, 
    314, 
    315, 
    316, 
    317, 
    318, 
    319, 
    320, 
    321, 
    322, 
    323, 
    324, 
    325, 
    326, 
    327, 
    328, 
    329, 
    330, 
    331, 
    332, 
    333, 
    334, 
    335, 
    336, 
    337, 
    338, 
    339, 
    340, 
    341, 
    342, 
    343, 
    344, 
    345, 
    346, 
    347, 
    348, 
    349, 
    350, 
    351, 
    352, 
    353, 
    354, 
    355, 
    356, 
    357, 
    358, 
    359, 
    360, 
    361, 
    362, 
    363, 
    364, 
    365, 
    366, 
    367, 
    368, 
    369, 
    370, 
    371, 
    372, 
    373, 
    374, 
    375, 
    376, 
    377, 
    378, 
    379, 
    380, 
    381, 
    382, 
    383, 
    384, 
    385, 
    386, 
    387, 
    388, 
    389, 
    390, 
    391, 
    392, 
    393, 
    394, 
    395, 
    396, 
    397, 
    398, 
    399, 
    400, 
    401, 
    402, 
    403, 
    404, 
    405, 
    406, 
    407, 
    408, 
    409, 
    410, 
    411, 
    412, 
    413, 
    414, 
    415, 
    416, 
    417, 
    418, 
    419, 
    420, 
    421, 
    422, 
    423, 
    424, 
    425, 
    426, 
    427, 
    428, 
    429, 
    430, 
    431, 
    432, 
    433, 
    434, 
    435, 
    436, 
    437, 
    438, 
    439, 
    440, 
    441, 
    442, 
    443, 
    444, 
    445, 
    446, 
    447, 
    448, 
    449, 
    450, 
    451, 
    452, 
    453, 
    454, 
    455, 
    456, 
    457, 
    458, 
    459, 
    460, 
    461, 
    462, 
    463, 
    464, 
    465, 
    466, 
    467, 
    468, 
    469, 
    470, 
    471, 
    472, 
    473, 
    474, 
    475, 
    476, 
    477, 
    478, 
    479, 
    480, 
    481, 
    482, 
    483, 
    484, 
    485, 
    486, 
    487, 
    488, 
    489, 
    490, 
    491, 
    492, 
    493, 
    494, 
    495, 
    496, 
    497, 
    498, 
    499, 
    500, 
    501, 
    502, 
    503, 
    504, 
    505, 
    506, 
    507, 
    508, 
    509, 
    510, 
    511, 
    512, 
    513, 
    514, 
    515, 
    516, 
    517, 
    518, 
    519, 
    520, 
    521, 
    522, 
    523, 
    524, 
    525, 
    526, 
    527, 
    529, 
    530, 
    531, 
    532, 
    533, 
    534, 
    535, 
    536, 
    537, 
    538, 
    539, 
    540, 
    541, 
    542, 
    543, 
    544, 
    545, 
    546, 
    547, 
    548, 
    549, 
    550, 
    551, 
    552, 
    553, 
    554, 
    555, 
    556, 
    557, 
    558, 
    559, 
    560, 
    561, 
    562, 
    563, 
    564, 
    565, 
    566, 
    567, 
    568, 
    569, 
    570, 
    571, 
    572, 
    573, 
    574, 
    575, 
    576, 
    577, 
    578, 
    579, 
    580, 
    581, 
    582, 
    583, 
    584, 
    585, 
    586, 
    587, 
    588, 
    589, 
    590, 
    591, 
    592, 
    593, 
    594, 
    595, 
    596, 
    597, 
    598, 
    599, 
    600, 
    601, 
    602, 
    603, 
    604, 
    605, 
    606, 
    607, 
    608, 
    609, 
    610, 
    611, 
    612, 
    613, 
    614, 
    615, 
    616, 
    617, 
    618, 
    619, 
    620, 
    621, 
    622, 
    623, 
    624, 
    625, 
    626, 
    627, 
    628, 
    629, 
    630, 
    631, 
    632, 
    633, 
    634, 
    635, 
    636, 
    637, 
    638, 
    639, 
    640, 
    641, 
    642, 
    643, 
    644, 
    645, 
    646, 
    647, 
    648, 
    649, 
    650, 
    651, 
    652, 
    653, 
    654, 
    655, 
    656, 
    657, 
    658, 
    659, 
    660, 
    661, 
    662, 
    663, 
    664, 
    665, 
    666, 
    667, 
    668, 
    669, 
    670, 
    671, 
    672, 
    673, 
    674, 
    675, 
    676, 
    677, 
    678, 
    679, 
    680, 
    681, 
    682, 
    683, 
    684, 
    685, 
    686, 
    687, 
    688, 
    689, 
    690, 
    691, 
    692, 
    693, 
    694, 
    695, 
    696, 
    697, 
    698, 
    699, 
    700, 
    701, 
    702, 
    703, 
    704, 
    705, 
    706, 
    707, 
    708, 
    709, 
    710, 
    711, 
    712, 
    713, 
    714, 
    715, 
    716, 
    717, 
    718, 
    719, 
    720, 
    721, 
    722, 
    723, 
    724, 
    725, 
    726, 
    727, 
    728, 
    729, 
    730, 
    731, 
    732, 
    733, 
    734, 
    735, 
    736, 
    737, 
    738, 
    739, 
    740, 
    741, 
    742, 
    743, 
    744, 
    745, 
    746, 
    747, 
    748, 
    749, 
    750, 
    751, 
    752, 
    754, 
    755, 
    756, 
    757, 
    758, 
    759, 
    760, 
    761, 
    762, 
    763, 
    764, 
    765, 
    766, 
    767, 
    768, 
    769, 
    770, 
    771, 
    772, 
    773, 
    774, 
    775, 
    776, 
    777, 
    778, 
    779, 
    780, 
    781, 
    782, 
    783, 
    784, 
    785, 
    786, 
    787, 
    788, 
    789, 
    790, 
    791, 
    792, 
    793, 
    794, 
    795, 
    796, 
    797, 
    798, 
    799, 
    800, 
    801, 
    802, 
    803, 
    804, 
    805, 
    806, 
    807, 
    808, 
    809, 
    810, 
    811, 
    812, 
    813, 
    814, 
    815, 
    816, 
    817, 
    818, 
    819, 
    820, 
    821, 
    822, 
    823, 
    824, 
    825, 
    826, 
    827, 
    828, 
    829, 
    830, 
    831, 
    832, 
    833, 
    834, 
    835, 
    836, 
    837, 
    838, 
    839, 
    840, 
    841, 
    842, 
    843, 
    844, 
    845, 
    846, 
    847, 
    848, 
    849, 
    850, 
    851, 
    852, 
    853, 
    854, 
    855, 
    856, 
    857, 
    858, 
    859, 
    860, 
    861, 
    862, 
    863, 
    864, 
    865, 
    866, 
    867, 
    868, 
    869, 
    870, 
    871, 
    872, 
    873, 
    874, 
    875, 
    876, 
    877, 
    878, 
    879, 
    880, 
    881, 
    882, 
    883, 
    884, 
    885, 
    886, 
    887, 
    888, 
    889, 
    890, 
    891, 
    892, 
    893, 
    894, 
    895, 
    896, 
    897, 
    898, 
    899, 
    900, 
    901, 
    902, 
    903, 
    904, 
    905, 
    906, 
    907, 
    908, 
    909, 
    910, 
    911, 
    912, 
    913, 
    914, 
    915, 
    916, 
    917, 
    918, 
    919, 
    920, 
    921, 
    922, 
    923, 
    924, 
    925, 
    926, 
    927, 
    928, 
    929, 
    930, 
    931, 
    932, 
    933, 
    934, 
    935, 
    936, 
    937, 
    938, 
    939, 
    940, 
    941, 
    942, 
    943, 
    944, 
    945, 
    946, 
    947, 
    948, 
    949, 
    950, 
    951, 
    952, 
    953, 
    954, 
    955, 
    956, 
    957, 
    958, 
    959, 
    960, 
    961, 
    962, 
    963, 
    964, 
    965, 
    966, 
    967, 
    968, 
    969, 
    970, 
    971, 
    972, 
    973, 
    974, 
    975, 
    976, 
    977, 
    979, 
    980, 
    981, 
    982, 
    983, 
    984, 
    985, 
    986, 
    987, 
    988, 
    989, 
    990, 
    991, 
    992, 
    993, 
    994, 
    995, 
    996, 
    997, 
    998, 
    999, 
    1000, 
    1001, 
    1002, 
    1003, 
    1004, 
    1005, 
    1006, 
    1007, 
    1008, 
    1009, 
    1010, 
    1011, 
    1012, 
    1013, 
    1014, 
    1015, 
    1016, 
    1017, 
    1018, 
    1019, 
    1020, 
    1021, 
    1022, 
    1023, 
    1024, 
    1025, 
    1026, 
    1027, 
    1028, 
    1029, 
    1030, 
    1031, 
    1032, 
    1033, 
    1034, 
    1035, 
    1036, 
    1037, 
    1038, 
    1039, 
    1040, 
    1041, 
    1042, 
    1043, 
    1044, 
    1045, 
    1046, 
    1047, 
    1048, 
    1049, 
    1050, 
    1051, 
    1052, 
    1053, 
    1054, 
    1055, 
    1056, 
    1057, 
    1058, 
    1059, 
    1060, 
    1061, 
    1062, 
    1063, 
    1064, 
    1065, 
    1066, 
    1067, 
    1068, 
    1069, 
    1070, 
    1071, 
    1072, 
    1073, 
    1074, 
    1075, 
    1076, 
    1077, 
    1078, 
    1079, 
    1080, 
    1081, 
    1082, 
    1083, 
    1084, 
    1085, 
    1086, 
    1087, 
    1088, 
    1089, 
    1090, 
    1091, 
    1092, 
    1093, 
    1094, 
    1095, 
    1096, 
    1097, 
    1098, 
    1099, 
    1100, 
    1101, 
    1102, 
    1103, 
    1104, 
    1105, 
    1106, 
    1107, 
    1108, 
    1109, 
    1110, 
    1111, 
    1112, 
    1113, 
    1114, 
    1115, 
    1116, 
    1117, 
    1118, 
    1119, 
    1120, 
    1121, 
    1122, 
    1123, 
    1124, 
    1125, 
    1126, 
    1127, 
    1128, 
    1129, 
    1130, 
    1131, 
    1132, 
    1133, 
    1134, 
    1135, 
    1136, 
    1137, 
    1138, 
    1139, 
    1140, 
    1141, 
    1142, 
    1143, 
    1144, 
    1145, 
    1146, 
    1147, 
    1148, 
    1149, 
    1150, 
    1151, 
    1152, 
    1153, 
    1154, 
    1155, 
    1156, 
    1157, 
    1158, 
    1159, 
    1160, 
    1161, 
    1162, 
    1163, 
    1164, 
    1165, 
    1166, 
    1167, 
    1168, 
    1169, 
    1170, 
    1171, 
    1172, 
    1173, 
    1174, 
    1175, 
    1176, 
    1177, 
    1178, 
    1179, 
    1180, 
    1181, 
    1182, 
    1183, 
    1184, 
    1185, 
    1186, 
    1187, 
    1188, 
    1189, 
    1190, 
    1191, 
    1192, 
    1193, 
    1194, 
    1195, 
    1196, 
    1197, 
    1198, 
    1199, 
    1200, 
    1201, 
    1202, 
    1204, 
    1205, 
    1206, 
    1207, 
    1208, 
    1209, 
    1210, 
    1211, 
    1212, 
    1213, 
    1214, 
    1215, 
    1216, 
    1217, 
    1218, 
    1219, 
    1220, 
    1221, 
    1222, 
    1223, 
    1224, 
    1225, 
    1226, 
    1227, 
    1228, 
    1229, 
    1230, 
    1231, 
    1232, 
    1233, 
    1234, 
    1235, 
    1236, 
    1237, 
    1238, 
    1239, 
    1240, 
    1241, 
    1242, 
    1243, 
    1244, 
    1245, 
    1246, 
    1247, 
    1248, 
    1249, 
    1250, 
    1251, 
    1252, 
    1253, 
    1254, 
    1255, 
    1256, 
    1257, 
    1258, 
    1259, 
    1260, 
    1261, 
    1262, 
    1263, 
    1264, 
    1265, 
    1266, 
    1267, 
    1268, 
    1269, 
    1270, 
    1271, 
    1272, 
    1273, 
    1274, 
    1275, 
    1276, 
    1277, 
    1278, 
    1279, 
    1280, 
    1281, 
    1282, 
    1283, 
    1284, 
    1285, 
    1286, 
    1287, 
    1288, 
    1289, 
    1290, 
    1291, 
    1292, 
    1293, 
    1294, 
    1295, 
    1296, 
    1297, 
    1298, 
    1299, 
    1300, 
    1301, 
    1302, 
    1303, 
    1304, 
    1305, 
    1306, 
    1307, 
    1308, 
    1309, 
    1310, 
    1311, 
    1312, 
    1313, 
    1314, 
    1315, 
    1316, 
    1317, 
    1318, 
    1319, 
    1320, 
    1321, 
    1322, 
    1323, 
    1324, 
    1325, 
    1326, 
    1327, 
    1328, 
    1329, 
    1330, 
    1331, 
    1332, 
    1333, 
    1334, 
    1335, 
    1336, 
    1337, 
    1338, 
    1339, 
    1340, 
    1341, 
    1342, 
    1343, 
    1344, 
    1345, 
    1346, 
    1347, 
    1348, 
    1349, 
    1350, 
    1351, 
    1352, 
    1353, 
    1354, 
    1355, 
    1356, 
    1357, 
    1358, 
    1359, 
    1360, 
    1361, 
    1362, 
    1363, 
    1364, 
    1365, 
    1366, 
    1367, 
    1368, 
    1369, 
    1370, 
    1371, 
    1372, 
    1373, 
    1374, 
    1375, 
    1376, 
    1377, 
    1378, 
    1379, 
    1380, 
    1381, 
    1382, 
    1383, 
    1384, 
    1385, 
    1386, 
    1387, 
    1388, 
    1389, 
    1390, 
    1391, 
    1392, 
    1393, 
    1394, 
    1395, 
    1396, 
    1397, 
    1398, 
    1399, 
    1400, 
    1401, 
    1402, 
    1403, 
    1404, 
    1405, 
    1406, 
    1407, 
    1408, 
    1409, 
    1410, 
    1411, 
    1412, 
    1413, 
    1414, 
    1415, 
    1416, 
    1417, 
    1418, 
    1419, 
    1420, 
    1421, 
    1422, 
    1423, 
    1424, 
    1425, 
    1426, 
    1427, 
    1429, 
    1430, 
    1431, 
    1432, 
    1433, 
    1434, 
    1435, 
    1436, 
    1437, 
    1438, 
    1439, 
    1440, 
    1441, 
    1442, 
    1443, 
    1444, 
    1445, 
    1446, 
    1447, 
    1448, 
    1449, 
    1450, 
    1451, 
    1452, 
    1453, 
    1454, 
    1455, 
    1456, 
    1457, 
    1458, 
    1459, 
    1460, 
    1461, 
    1462, 
    1463, 
    1464, 
    1465, 
    1466, 
    1467, 
    1468, 
    1469, 
    1470, 
    1471, 
    1472, 
    1473, 
    1474, 
    1475, 
    1476, 
    1477, 
    1478, 
    1479, 
    1480, 
    1481, 
    1482, 
    1483, 
    1484, 
    1485, 
    1486, 
    1487, 
    1488, 
    1489, 
    1490, 
    1491, 
    1492, 
    1493, 
    1494, 
    1495, 
    1496, 
    1497, 
    1498, 
    1499, 
    1500, 
    1501, 
    1502, 
    1503, 
    1504, 
    1505, 
    1506, 
    1507, 
    1508, 
    1509, 
    1510, 
    1511, 
    1512, 
    1513, 
    1514, 
    1515, 
    1516, 
    1517, 
    1518, 
    1519, 
    1520, 
    1521, 
    1522, 
    1523, 
    1524, 
    1525, 
    1526, 
    1527, 
    1528, 
    1529, 
    1530, 
    1531, 
    1532, 
    1533, 
    1534, 
    1535, 
    1536, 
    1537, 
    1538, 
    1539, 
    1540, 
    1541, 
    1542, 
    1543, 
    1544, 
    1545, 
    1546, 
    1547, 
    1548, 
    1549, 
    1550, 
    1551, 
    1552, 
    1553, 
    1554, 
    1555, 
    1556, 
    1557, 
    1558, 
    1559, 
    1560, 
    1561, 
    1562, 
    1563, 
    1564, 
    1565, 
    1566, 
    1567, 
    1568, 
    1569, 
    1570, 
    1571, 
    1572, 
    1573, 
    1574, 
    1575, 
    1576, 
    1577, 
    1578, 
    1579, 
    1580, 
    1581, 
    1582, 
    1583, 
    1584, 
    1585, 
    1586, 
    1587, 
    1588, 
    1589, 
    1590, 
    1591, 
    1592, 
    1593, 
    1594, 
    1595, 
    1596, 
    1597, 
    1598, 
    1599, 
    1600, 
    1601, 
    1602, 
    1603, 
    1604, 
    1605, 
    1606, 
    1607, 
    1608, 
    1609, 
    1610, 
    1611, 
    1612, 
    1613, 
    1614, 
    1615, 
    1616, 
    1617, 
    1618, 
    1619, 
    1620, 
    1621, 
    1622, 
    1623, 
    1624, 
    1625, 
    1626, 
    1627, 
    1628, 
    1629, 
    1630, 
    1631, 
    1632, 
    1633, 
    1634, 
    1635, 
    1636, 
    1637, 
    1638, 
    1639, 
    1640, 
    1641, 
    1642, 
    1643, 
    1644, 
    1645, 
    1646, 
    1647, 
    1648, 
    1649, 
    1650, 
    1651, 
    1652, 
    1654, 
    1655, 
    1656, 
    1657, 
    1658, 
    1659, 
    1660, 
    1661, 
    1662, 
    1663, 
    1664, 
    1665, 
    1666, 
    1667, 
    1668, 
    1669, 
    1670, 
    1671, 
    1672, 
    1673, 
    1674, 
    1675, 
    1676, 
    1677, 
    1678, 
    1679, 
    1680, 
    1681, 
    1682, 
    1683, 
    1684, 
    1685, 
    1686, 
    1687, 
    1688, 
    1689, 
    1690, 
    1691, 
    1692, 
    1693, 
    1694, 
    1695, 
    1696, 
    1697, 
    1698, 
    1699, 
    1700, 
    1701, 
    1702, 
    1703, 
    1704, 
    1705, 
    1706, 
    1707, 
    1708, 
    1709, 
    1710, 
    1711, 
    1712, 
    1713, 
    1714, 
    1715, 
    1716, 
    1717, 
    1718, 
    1719, 
    1720, 
    1721, 
    1722, 
    1723, 
    1724, 
    1725, 
    1726, 
    1727, 
    1728, 
    1729, 
    1730, 
    1731, 
    1732, 
    1733, 
    1734, 
    1735, 
    1736, 
    1737, 
    1738, 
    1739, 
    1740, 
    1741, 
    1742, 
    1743, 
    1744, 
    1745, 
    1746, 
    1747, 
    1748, 
    1749, 
    1750, 
    1751, 
    1752, 
    1753, 
    1754, 
    1755, 
    1756, 
    1757, 
    1758, 
    1759, 
    1760, 
    1761, 
    1762, 
    1763, 
    1764, 
    1765, 
    1766, 
    1767, 
    1768, 
    1769, 
    1770, 
    1771, 
    1772, 
    1773, 
    1774, 
    1775, 
    1776, 
    1777, 
    1778, 
    1779, 
    1780, 
    1781, 
    1782, 
    1783, 
    1784, 
    1785, 
    1786, 
    1787, 
    1788, 
    1789, 
    1790, 
    1791, 
    1792, 
    1793, 
    1794, 
    1795, 
    1796, 
    1797, 
    1798, 
    1799, 
    1800, 
    1801, 
    1802, 
    1803, 
    1804, 
    1805, 
    1806, 
    1807, 
    1808, 
    1809, 
    1810, 
    1811, 
    1812, 
    1813, 
    1814, 
    1815, 
    1816, 
    1817, 
    1818, 
    1819, 
    1820, 
    1821, 
    1822, 
    1823, 
    1824, 
    1825, 
    1826, 
    1827, 
    1828, 
    1829, 
    1830, 
    1831, 
    1832, 
    1833, 
    1834, 
    1835, 
    1836, 
    1837, 
    1838, 
    1839, 
    1840, 
    1841, 
    1842, 
    1843, 
    1844, 
    1845, 
    1846, 
    1847, 
    1848, 
    1849, 
    1850, 
    1851, 
    1852, 
    1853, 
    1854, 
    1855, 
    1856, 
    1857, 
    1858, 
    1859, 
    1860, 
    1861, 
    1862, 
    1863, 
    1864, 
    1865, 
    1866, 
    1867, 
    1868, 
    1869, 
    1870, 
    1871, 
    1872, 
    1873, 
    1874, 
    1875, 
    1876, 
    1877, 
    1879, 
    1880, 
    1881, 
    1882, 
    1883, 
    1884, 
    1885, 
    1886, 
    1887, 
    1888, 
    1889, 
    1890, 
    1891, 
    1892, 
    1893, 
    1894, 
    1895, 
    1896, 
    1897, 
    1898, 
    1899, 
    1900, 
    1901, 
    1902, 
    1903, 
    1904, 
    1905, 
    1906, 
    1907, 
    1908, 
    1909, 
    1910, 
    1911, 
    1912, 
    1913, 
    1914, 
    1915, 
    1916, 
    1917, 
    1918, 
    1919, 
    1920, 
    1921, 
    1922, 
    1923, 
    1924, 
    1925, 
    1926, 
    1927, 
    1928, 
    1929, 
    1930, 
    1931, 
    1932, 
    1933, 
    1934, 
    1935, 
    1936, 
    1937, 
    1938, 
    1939, 
    1940, 
    1941, 
    1942, 
    1943, 
    1944, 
    1945, 
    1946, 
    1947, 
    1948, 
    1949, 
    1950, 
    1951, 
    1952, 
    1953, 
    1954, 
    1955, 
    1956, 
    1957, 
    1958, 
    1959, 
    1960, 
    1961, 
    1962, 
    1963, 
    1964, 
    1965, 
    1966, 
    1967, 
    1968, 
    1969, 
    1970, 
    1971, 
    1972, 
    1973, 
    1974, 
    1975, 
    1976, 
    1977, 
    1978, 
    1979, 
    1980, 
    1981, 
    1982, 
    1983, 
    1984, 
    1985, 
    1986, 
    1987, 
    1988, 
    1989, 
    1990, 
    1991, 
    1992, 
    1993, 
    1994, 
    1995, 
    1996, 
    1997, 
    1998, 
    1999, 
    2000, 
    2001, 
    2002, 
    2003, 
    2004, 
    2005, 
    2006, 
    2007, 
    2008, 
    2009, 
    2010, 
    2011, 
    2012, 
    2013, 
    2014, 
    2015, 
    2016, 
    2017, 
    2018, 
    2019, 
    2020, 
    2021, 
    2022, 
    2023, 
    2024, 
    2025, 
    2026, 
    2027, 
    2028, 
    2029, 
    2030, 
    2031, 
    2032, 
    2033, 
    2034, 
    2035, 
    2036, 
    2037, 
    2038, 
    2039, 
    2040, 
    2041, 
    2042, 
    2043, 
    2044, 
    2045, 
    2046, 
    2047, 
    2048, 
    2049, 
    2050, 
    2051, 
    2052, 
    2053, 
    2054, 
    2055, 
    2056, 
    2057, 
    2058, 
    2059, 
    2060, 
    2061, 
    2062, 
    2063, 
    2064, 
    2065, 
    2066, 
    2067, 
    2068, 
    2069, 
    2070, 
    2071, 
    2072, 
    2073, 
    2074, 
    2075, 
    2076, 
    2077, 
    2078, 
    2079, 
    2080, 
    2081, 
    2082, 
    2083, 
    2084, 
    2085, 
    2086, 
    2087, 
    2088, 
    2089, 
    2090, 
    2091, 
    2092, 
    2093, 
    2094, 
    2095, 
    2096, 
    2097, 
    2098, 
    2099, 
    2100, 
    2101, 
    2102, 
    2104, 
    2105, 
    2106, 
    2107, 
    2108, 
    2109, 
    2110, 
    2111, 
    2112, 
    2113, 
    2114, 
    2115, 
    2116, 
    2117, 
    2118, 
    2119, 
    2120, 
    2121, 
    2122, 
    2123, 
    2124, 
    2125, 
    2126, 
    2127, 
    2128, 
    2129, 
    2130, 
    2131, 
    2132, 
    2133, 
    2134, 
    2135, 
    2136, 
    2137, 
    2138, 
    2139, 
    2140, 
    2141, 
    2142, 
    2143, 
    2144, 
    2145, 
    2146, 
    2147, 
    2148, 
    2149, 
    2150, 
    2151, 
    2152, 
    2153, 
    2154, 
    2155, 
    2156, 
    2157, 
    2158, 
    2159, 
    2160, 
    2161, 
    2162, 
    2163, 
    2164, 
    2165, 
    2166, 
    2167, 
    2168, 
    2169, 
    2170, 
    2171, 
    2172, 
    2173, 
    2174, 
    2175, 
    2176, 
    2177, 
    2178, 
    2179, 
    2180, 
    2181, 
    2182, 
    2183, 
    2184, 
    2185, 
    2186, 
    2187, 
    2188, 
    2189, 
    2190, 
    2191, 
    2192, 
    2193, 
    2194, 
    2195, 
    2196, 
    2197, 
    2198, 
    2199, 
    2200, 
    2201, 
    2202, 
    2203, 
    2204, 
    2205, 
    2206, 
    2207, 
    2208, 
    2209, 
    2210, 
    2211, 
    2212, 
    2213, 
    2214, 
    2215, 
    2216, 
    2217, 
    2218, 
    2219, 
    2220, 
    2221, 
    2222, 
    2223, 
    2224, 
    2225, 
    2226, 
    2227, 
    2228, 
    2229, 
    2230, 
    2231, 
    2232, 
    2233, 
    2234, 
    2235, 
    2236, 
    2237, 
    2238, 
    2239, 
    2240, 
    2241, 
    2242, 
    2243, 
    2244, 
    2245, 
    2246, 
    2247, 
    2248, 
    2249, 
    2250, 
    2251, 
    2252, 
    2253, 
    2254, 
    2255, 
    2256, 
    2257, 
    2258, 
    2259, 
    2260, 
    2261, 
    2262, 
    2263, 
    2264, 
    2265, 
    2266, 
    2267, 
    2268, 
    2269, 
    2270, 
    2271, 
    2272, 
    2273, 
    2274, 
    2275, 
    2276, 
    2277, 
    2278, 
    2279, 
    2280, 
    2281, 
    2282, 
    2283, 
    2284, 
    2285, 
    2286, 
    2287, 
    2288, 
    2289, 
    2290, 
    2291, 
    2292, 
    2293, 
    2294, 
    2295, 
    2296, 
    2297, 
    2298, 
    2299, 
    2300, 
    2301, 
    2302, 
    2303, 
    2304, 
    2305, 
    2306, 
    2307, 
    2308, 
    2309, 
    2310, 
    2311, 
    2312, 
    2313, 
    2314, 
    2315, 
    2316, 
    2317, 
    2318, 
    2319, 
    2320, 
    2321, 
    2322, 
    2323, 
    2324, 
    2325, 
    2326, 
    2327, 
    2329, 
    2330, 
    2331, 
    2332, 
    2333, 
    2334, 
    2335, 
    2336, 
    2337, 
    2338, 
    2339, 
    2340, 
    2341, 
    2342, 
    2343, 
    2344, 
    2345, 
    2346, 
    2347, 
    2348, 
    2349, 
    2350, 
    2351, 
    2352, 
    2353, 
    2354, 
    2355, 
    2356, 
    2357, 
    2358, 
    2359, 
    2360, 
    2361, 
    2362, 
    2363, 
    2364, 
    2365, 
    2366, 
    2367, 
    2368, 
    2369, 
    2370, 
    2371, 
    2372, 
    2373, 
    2374, 
    2375, 
    2376, 
    2377, 
    2378, 
    2379, 
    2380, 
    2381, 
    2382, 
    2383, 
    2384, 
    2385, 
    2386, 
    2387, 
    2388, 
    2389, 
    2390, 
    2391, 
    2392, 
    2393, 
    2394, 
    2395, 
    2396, 
    2397, 
    2398, 
    2399, 
    2400, 
    2401, 
    2402, 
    2403, 
    2404, 
    2405, 
    2406, 
    2407, 
    2408, 
    2409, 
    2410, 
    2411, 
    2412, 
    2413, 
    2414, 
    2415, 
    2416, 
    2417, 
    2418, 
    2419, 
    2420, 
    2421, 
    2422, 
    2423, 
    2424, 
    2425, 
    2426, 
    2427, 
    2428, 
    2429, 
    2430, 
    2431, 
    2432, 
    2433, 
    2434, 
    2435, 
    2436, 
    2437, 
    2438, 
    2439, 
    2440, 
    2441, 
    2442, 
    2443, 
    2444, 
    2445, 
    2446, 
    2447, 
    2448, 
    2449, 
    2450, 
    2451, 
    2452, 
    2453, 
    2454, 
    2455, 
    2456, 
    2457, 
    2458, 
    2459, 
    2460, 
    2461, 
    2462, 
    2463, 
    2464, 
    2465, 
    2466, 
    2467, 
    2468, 
    2469, 
    2470, 
    2471, 
    2472, 
    2473, 
    2474, 
    2475, 
    2476, 
    2477, 
    2478, 
    2479, 
    2480, 
    2481, 
    2482, 
    2483, 
    2484, 
    2485, 
    2486, 
    2487, 
    2488, 
    2489, 
    2490, 
    2491, 
    2492, 
    2493, 
    2494, 
    2495, 
    2496, 
    2497, 
    2498, 
    2499, 
    2500, 
    2501, 
    2502, 
    2503, 
    2504, 
    2505, 
    2506, 
    2507, 
    2508, 
    2509, 
    2510, 
    2511, 
    2512, 
    2513, 
    2514, 
    2515, 
    2516, 
    2517, 
    2518, 
    2519, 
    2520, 
    2521, 
    2522, 
    2523, 
    2524, 
    2525, 
    2526, 
    2527, 
    2528, 
    2529, 
    2530, 
    2531, 
    2532, 
    2533, 
    2534, 
    2535, 
    2536, 
    2537, 
    2538, 
    2539, 
    2540, 
    2541, 
    2542, 
    2543, 
    2544, 
    2545, 
    2546, 
    2547, 
    2548, 
    2549, 
    2550, 
    2551, 
    2552, 
    2554, 
    2555, 
    2556, 
    2557, 
    2558, 
    2559, 
    2560, 
    2561, 
    2562, 
    2563, 
    2564, 
    2565, 
    2566, 
    2567, 
    2568, 
    2569, 
    2570, 
    2571, 
    2572, 
    2573, 
    2574, 
    2575, 
    2576, 
    2577, 
    2578, 
    2579, 
    2580, 
    2581, 
    2582, 
    2583, 
    2584, 
    2585, 
    2586, 
    2587, 
    2588, 
    2589, 
    2590, 
    2591, 
    2592, 
    2593, 
    2594, 
    2595, 
    2596, 
    2597, 
    2598, 
    2599, 
    2600, 
    2601, 
    2602, 
    2603, 
    2604, 
    2605, 
    2606, 
    2607, 
    2608, 
    2609, 
    2610, 
    2611, 
    2612, 
    2613, 
    2614, 
    2615, 
    2616, 
    2617, 
    2618, 
    2619, 
    2620, 
    2621, 
    2622, 
    2623, 
    2624, 
    2625, 
    2626, 
    2627, 
    2628, 
    2629, 
    2630, 
    2631, 
    2632, 
    2633, 
    2634, 
    2635, 
    2636, 
    2637, 
    2638, 
    2639, 
    2640, 
    2641, 
    2642, 
    2643, 
    2644, 
    2645, 
    2646, 
    2647, 
    2648, 
    2649, 
    2650, 
    2651, 
    2652, 
    2655, 
    2656, 
    2657, 
    2658, 
    2659, 
    2660, 
    2661, 
    2662, 
    2663, 
    2664, 
    2665, 
    2666, 
    2667, 
    2668, 
    2669
  ], 
  "heads": [[2653, 0, 0], [2654, 0, 0]], 
  "attrs": {"mxnet_version": ["int", 10600]}
}