{
  "nodes": [
    {
      "op": "null", 
      "name": "data", 
      "inputs": []
    }, 
    {
      "op": "Cast", 
      "name": "cast123", 
      "attrs": {"dtype": "float32"}, 
      "inputs": [[0, 0, 0]]
    }, 
    {
      "op": "Cast", 
      "name": "cast124", 
      "attrs": {"dtype": "float32"}, 
      "inputs": [[1, 0, 0]]
    }, 
    {
      "op": "_minus_scalar", 
      "name": "_minusscalar9", 
      "attrs": {"scalar": "0.5"}, 
      "inputs": [[2, 0, 0]]
    }, 
    {
      "op": "_mul_scalar", 
      "name": "_mulscalar327", 
      "attrs": {"scalar": "2"}, 
      "inputs": [[3, 0, 0]]
    }, 
    {
      "op": "Pad", 
      "name": "pad54", 
      "attrs": {
        "mode": "edge", 
        "pad_width": "(0, 0, 0, 0, 2, 2, 2, 2)"
      }, 
      "inputs": [[4, 0, 0]]
    }, 
    {
      "op": "null", 
      "name": "radius_5x5", 
      "inputs": []
    }, 
    {
      "op": "tile", 
      "name": "tile1008", 
      "attrs": {"reps": "(4, 3, 1, 1)"}, 
      "inputs": [[6, 0, 0]]
    }, 
    {
      "op": "BlockGrad", 
      "name": "blockgrad1272", 
      "inputs": [[7, 0, 0]]
    }, 
    {
      "op": "null", 
      "name": "param_1->1_[5,5]_initialConvs_0_Ord0_radial_(1,1,3,4)_weight", 
      "inputs": []
    }, 
    {
      "op": "broadcast_mul", 
      "name": "broadcast_mul849", 
      "inputs": [[8, 0, 0], [9, 0, 0]]
    }, 
    {
      "op": "null", 
      "name": "param_1->1_[5,5]_initialConvs_0_Ord0_radial_(1,1,3,4)_bias", 
      "inputs": []
    }, 
    {
      "op": "broadcast_add", 
      "name": "broadcast_add795", 
      "inputs": [[10, 0, 0], [11, 0, 0]]
    }, 
    {
      "op": "Concat", 
      "name": "concat699", 
      "attrs": {
        "dim": "1", 
        "num_args": "1"
      }, 
      "inputs": [[12, 0, 0]]
    }, 
    {
      "op": "null", 
      "name": "theta_5x5", 
      "inputs": []
    }, 
    {
      "op": "tile", 
      "name": "tile1011", 
      "attrs": {"reps": "(4, 3, 1, 1)"}, 
      "inputs": [[14, 0, 0]]
    }, 
    {
      "op": "BlockGrad", 
      "name": "blockgrad1275", 
      "inputs": [[15, 0, 0]]
    }, 
    {
      "op": "_mul_scalar", 
      "name": "_mulscalar328", 
      "attrs": {"scalar": "1"}, 
      "inputs": [[16, 0, 0]]
    }, 
    {
      "op": "tile", 
      "name": "tile1010", 
      "attrs": {"reps": "(4, 3, 1, 1)"}, 
      "inputs": [[6, 0, 0]]
    }, 
    {
      "op": "BlockGrad", 
      "name": "blockgrad1274", 
      "inputs": [[18, 0, 0]]
    }, 
    {
      "op": "null", 
      "name": "param_1->2_[5,5]_initialConvs_0_Ord1_angular_(1,1,3,4)_weight", 
      "inputs": []
    }, 
    {
      "op": "broadcast_mul", 
      "name": "broadcast_mul851", 
      "inputs": [[19, 0, 0], [20, 0, 0]]
    }, 
    {
      "op": "null", 
      "name": "param_1->2_[5,5]_initialConvs_0_Ord1_angular_(1,1,3,4)_bias", 
      "inputs": []
    }, 
    {
      "op": "broadcast_add", 
      "name": "broadcast_add797", 
      "inputs": [[21, 0, 0], [22, 0, 0]]
    }, 
    {
      "op": "elemwise_add", 
      "name": "elemwise_add372", 
      "inputs": [[17, 0, 0], [23, 0, 0]]
    }, 
    {
      "op": "cos", 
      "name": "cos318", 
      "inputs": [[24, 0, 0]]
    }, 
    {
      "op": "ones_like", 
      "name": "ones_like318", 
      "inputs": [[19, 0, 0]]
    }, 
    {
      "op": "broadcast_lesser", 
      "name": "broadcast_lesser318", 
      "inputs": [[19, 0, 0], [26, 0, 0]]
    }, 
    {
      "op": "BlockGrad", 
      "name": "blockgrad1276", 
      "inputs": [[27, 0, 0]]
    }, 
    {
      "op": "elemwise_mul", 
      "name": "elemwise_mul1327", 
      "inputs": [[25, 0, 0], [28, 0, 0]]
    }, 
    {
      "op": "null", 
      "name": "param_1->2_[5,5]_initialConvs_0_Ord1_radial_(1,1,3,4)_weight", 
      "inputs": []
    }, 
    {
      "op": "broadcast_mul", 
      "name": "broadcast_mul850", 
      "inputs": [[19, 0, 0], [30, 0, 0]]
    }, 
    {
      "op": "null", 
      "name": "param_1->2_[5,5]_initialConvs_0_Ord1_radial_(1,1,3,4)_bias", 
      "inputs": []
    }, 
    {
      "op": "broadcast_add", 
      "name": "broadcast_add796", 
      "inputs": [[31, 0, 0], [32, 0, 0]]
    }, 
    {
      "op": "abs", 
      "name": "abs318", 
      "inputs": [[33, 0, 0]]
    }, 
    {
      "op": "elemwise_mul", 
      "name": "elemwise_mul1329", 
      "inputs": [[29, 0, 0], [34, 0, 0]]
    }, 
    {
      "op": "Concat", 
      "name": "concat701", 
      "attrs": {
        "dim": "1", 
        "num_args": "1"
      }, 
      "inputs": [[35, 0, 0]]
    }, 
    {
      "op": "tile", 
      "name": "tile1013", 
      "attrs": {"reps": "(4, 3, 1, 1)"}, 
      "inputs": [[14, 0, 0]]
    }, 
    {
      "op": "BlockGrad", 
      "name": "blockgrad1278", 
      "inputs": [[37, 0, 0]]
    }, 
    {
      "op": "_mul_scalar", 
      "name": "_mulscalar329", 
      "attrs": {"scalar": "2"}, 
      "inputs": [[38, 0, 0]]
    }, 
    {
      "op": "tile", 
      "name": "tile1012", 
      "attrs": {"reps": "(4, 3, 1, 1)"}, 
      "inputs": [[6, 0, 0]]
    }, 
    {
      "op": "BlockGrad", 
      "name": "blockgrad1277", 
      "inputs": [[40, 0, 0]]
    }, 
    {
      "op": "null", 
      "name": "param_1->3_[5,5]_initialConvs_0_Ord2_angular_(1,1,3,4)_weight", 
      "inputs": []
    }, 
    {
      "op": "broadcast_mul", 
      "name": "broadcast_mul853", 
      "inputs": [[41, 0, 0], [42, 0, 0]]
    }, 
    {
      "op": "null", 
      "name": "param_1->3_[5,5]_initialConvs_0_Ord2_angular_(1,1,3,4)_bias", 
      "inputs": []
    }, 
    {
      "op": "broadcast_add", 
      "name": "broadcast_add799", 
      "inputs": [[43, 0, 0], [44, 0, 0]]
    }, 
    {
      "op": "elemwise_add", 
      "name": "elemwise_add373", 
      "inputs": [[39, 0, 0], [45, 0, 0]]
    }, 
    {
      "op": "cos", 
      "name": "cos319", 
      "inputs": [[46, 0, 0]]
    }, 
    {
      "op": "ones_like", 
      "name": "ones_like319", 
      "inputs": [[41, 0, 0]]
    }, 
    {
      "op": "broadcast_lesser", 
      "name": "broadcast_lesser319", 
      "inputs": [[41, 0, 0], [48, 0, 0]]
    }, 
    {
      "op": "BlockGrad", 
      "name": "blockgrad1279", 
      "inputs": [[49, 0, 0]]
    }, 
    {
      "op": "elemwise_mul", 
      "name": "elemwise_mul1331", 
      "inputs": [[47, 0, 0], [50, 0, 0]]
    }, 
    {
      "op": "null", 
      "name": "param_1->3_[5,5]_initialConvs_0_Ord2_radial_(1,1,3,4)_weight", 
      "inputs": []
    }, 
    {
      "op": "broadcast_mul", 
      "name": "broadcast_mul852", 
      "inputs": [[41, 0, 0], [52, 0, 0]]
    }, 
    {
      "op": "null", 
      "name": "param_1->3_[5,5]_initialConvs_0_Ord2_radial_(1,1,3,4)_bias", 
      "inputs": []
    }, 
    {
      "op": "broadcast_add", 
      "name": "broadcast_add798", 
      "inputs": [[53, 0, 0], [54, 0, 0]]
    }, 
    {
      "op": "abs", 
      "name": "abs319", 
      "inputs": [[55, 0, 0]]
    }, 
    {
      "op": "elemwise_mul", 
      "name": "elemwise_mul1333", 
      "inputs": [[51, 0, 0], [56, 0, 0]]
    }, 
    {
      "op": "Concat", 
      "name": "concat703", 
      "attrs": {
        "dim": "1", 
        "num_args": "1"
      }, 
      "inputs": [[57, 0, 0]]
    }, 
    {
      "op": "zeros_like", 
      "name": "zeros_like159", 
      "inputs": [[12, 0, 0]]
    }, 
    {
      "op": "Concat", 
      "name": "concat700", 
      "attrs": {
        "dim": "1", 
        "num_args": "1"
      }, 
      "inputs": [[59, 0, 0]]
    }, 
    {
      "op": "sin", 
      "name": "sin318", 
      "inputs": [[24, 0, 0]]
    }, 
    {
      "op": "elemwise_mul", 
      "name": "elemwise_mul1326", 
      "inputs": [[61, 0, 0], [28, 0, 0]]
    }, 
    {
      "op": "elemwise_mul", 
      "name": "elemwise_mul1328", 
      "inputs": [[62, 0, 0], [34, 0, 0]]
    }, 
    {
      "op": "Concat", 
      "name": "concat702", 
      "attrs": {
        "dim": "1", 
        "num_args": "1"
      }, 
      "inputs": [[63, 0, 0]]
    }, 
    {
      "op": "sin", 
      "name": "sin319", 
      "inputs": [[46, 0, 0]]
    }, 
    {
      "op": "elemwise_mul", 
      "name": "elemwise_mul1330", 
      "inputs": [[65, 0, 0], [50, 0, 0]]
    }, 
    {
      "op": "elemwise_mul", 
      "name": "elemwise_mul1332", 
      "inputs": [[66, 0, 0], [56, 0, 0]]
    }, 
    {
      "op": "Concat", 
      "name": "concat704", 
      "attrs": {
        "dim": "1", 
        "num_args": "1"
      }, 
      "inputs": [[67, 0, 0]]
    }, 
    {
      "op": "Concat", 
      "name": "concat705", 
      "attrs": {
        "dim": "0", 
        "num_args": "6"
      }, 
      "inputs": [[13, 0, 0], [36, 0, 0], [58, 0, 0], [60, 0, 0], [64, 0, 0], [68, 0, 0]]
    }, 
    {
      "op": "Cast", 
      "name": "cast125", 
      "attrs": {"dtype": "float32"}, 
      "inputs": [[69, 0, 0]]
    }, 
    {
      "op": "Convolution", 
      "name": "conv_[5,5]_initialConvs_0", 
      "attrs": {
        "dilate": "(1, 1)", 
        "kernel": "(5, 5)", 
        "no_bias": "1", 
        "num_filter": "24", 
        "pad": "(0, 0)", 
        "stride": "(1, 1)"
      }, 
      "inputs": [[5, 0, 0], [70, 0, 0]]
    }, 
    {
      "op": "square", 
      "name": "square54", 
      "inputs": [[71, 0, 0]]
    }, 
    {
      "op": "SliceChannel", 
      "name": "split54", 
      "attrs": {
        "axis": "1", 
        "num_outputs": "2"
      }, 
      "inputs": [[72, 0, 0]]
    }, 
    {
      "op": "elemwise_add", 
      "name": "elemwise_add374", 
      "inputs": [[73, 0, 0], [73, 1, 0]]
    }, 
    {
      "op": "_plus_scalar", 
      "name": "_plusscalar126", 
      "attrs": {"scalar": "2e-05"}, 
      "inputs": [[74, 0, 0]]
    }, 
    {
      "op": "sqrt", 
      "name": "sqrt54", 
      "inputs": [[75, 0, 0]]
    }, 
    {
      "op": "tanh", 
      "name": "tanh54", 
      "inputs": [[76, 0, 0]]
    }, 
    {
      "op": "null", 
      "name": "initialConvs_0_(1,1,12,1)_mag_weight", 
      "inputs": []
    }, 
    {
      "op": "Cast", 
      "name": "cast126", 
      "attrs": {"dtype": "float32"}, 
      "inputs": [[78, 0, 0]]
    }, 
    {
      "op": "LeakyReLU", 
      "name": "leakyrelu54", 
      "attrs": {
        "act_type": "elu", 
        "slope": "1"
      }, 
      "inputs": [[79, 0, 0]]
    }, 
    {
      "op": "_plus_scalar", 
      "name": "_plusscalar127", 
      "attrs": {"scalar": "1"}, 
      "inputs": [[80, 0, 0]]
    }, 
    {
      "op": "broadcast_mul", 
      "name": "broadcast_mul854", 
      "inputs": [[77, 0, 0], [81, 0, 0]]
    }, 
    {
      "op": "elemwise_div", 
      "name": "_div54", 
      "inputs": [[82, 0, 0], [76, 0, 0]]
    }, 
    {
      "op": "tile", 
      "name": "tile1014", 
      "attrs": {"reps": "(1, 2, 1, 1)"}, 
      "inputs": [[83, 0, 0]]
    }, 
    {
      "op": "elemwise_mul", 
      "name": "elemwise_mul1334", 
      "inputs": [[71, 0, 0], [84, 0, 0]]
    }, 
    {
      "op": "Pad", 
      "name": "pad55", 
      "attrs": {
        "mode": "edge", 
        "pad_width": "(0, 0, 0, 0, 1, 1, 1, 1)"
      }, 
      "inputs": [[85, 0, 0]]
    }, 
    {
      "op": "null", 
      "name": "radius_3x3", 
      "inputs": []
    }, 
    {
      "op": "tile", 
      "name": "tile1015", 
      "attrs": {"reps": "(6, 4, 1, 1)"}, 
      "inputs": [[87, 0, 0]]
    }, 
    {
      "op": "BlockGrad", 
      "name": "blockgrad1280", 
      "inputs": [[88, 0, 0]]
    }, 
    {
      "op": "null", 
      "name": "param_1->1_[3,3]_initialConvs_1_Ord0_radial_(1,1,4,6)_weight", 
      "inputs": []
    }, 
    {
      "op": "broadcast_mul", 
      "name": "broadcast_mul855", 
      "inputs": [[89, 0, 0], [90, 0, 0]]
    }, 
    {
      "op": "null", 
      "name": "param_1->1_[3,3]_initialConvs_1_Ord0_radial_(1,1,4,6)_bias", 
      "inputs": []
    }, 
    {
      "op": "broadcast_add", 
      "name": "broadcast_add800", 
      "inputs": [[91, 0, 0], [92, 0, 0]]
    }, 
    {
      "op": "null", 
      "name": "theta_3x3", 
      "inputs": []
    }, 
    {
      "op": "tile", 
      "name": "tile1022", 
      "attrs": {"reps": "(6, 4, 1, 1)"}, 
      "inputs": [[94, 0, 0]]
    }, 
    {
      "op": "BlockGrad", 
      "name": "blockgrad1289", 
      "inputs": [[95, 0, 0]]
    }, 
    {
      "op": "_mul_scalar", 
      "name": "_mulscalar332", 
      "attrs": {"scalar": "1"}, 
      "inputs": [[96, 0, 0]]
    }, 
    {
      "op": "tile", 
      "name": "tile1021", 
      "attrs": {"reps": "(6, 4, 1, 1)"}, 
      "inputs": [[87, 0, 0]]
    }, 
    {
      "op": "BlockGrad", 
      "name": "blockgrad1288", 
      "inputs": [[98, 0, 0]]
    }, 
    {
      "op": "null", 
      "name": "param_2->1_[3,3]_initialConvs_1_Ord1_angular_(1,1,4,6)_weight", 
      "inputs": []
    }, 
    {
      "op": "broadcast_mul", 
      "name": "broadcast_mul861", 
      "inputs": [[99, 0, 0], [100, 0, 0]]
    }, 
    {
      "op": "null", 
      "name": "param_2->1_[3,3]_initialConvs_1_Ord1_angular_(1,1,4,6)_bias", 
      "inputs": []
    }, 
    {
      "op": "broadcast_add", 
      "name": "broadcast_add806", 
      "inputs": [[101, 0, 0], [102, 0, 0]]
    }, 
    {
      "op": "elemwise_add", 
      "name": "elemwise_add377", 
      "inputs": [[97, 0, 0], [103, 0, 0]]
    }, 
    {
      "op": "cos", 
      "name": "cos322", 
      "inputs": [[104, 0, 0]]
    }, 
    {
      "op": "ones_like", 
      "name": "ones_like322", 
      "inputs": [[99, 0, 0]]
    }, 
    {
      "op": "broadcast_lesser", 
      "name": "broadcast_lesser322", 
      "inputs": [[99, 0, 0], [106, 0, 0]]
    }, 
    {
      "op": "BlockGrad", 
      "name": "blockgrad1290", 
      "inputs": [[107, 0, 0]]
    }, 
    {
      "op": "elemwise_mul", 
      "name": "elemwise_mul1344", 
      "inputs": [[105, 0, 0], [108, 0, 0]]
    }, 
    {
      "op": "null", 
      "name": "param_2->1_[3,3]_initialConvs_1_Ord1_radial_(1,1,4,6)_weight", 
      "inputs": []
    }, 
    {
      "op": "broadcast_mul", 
      "name": "broadcast_mul860", 
      "inputs": [[99, 0, 0], [110, 0, 0]]
    }, 
    {
      "op": "null", 
      "name": "param_2->1_[3,3]_initialConvs_1_Ord1_radial_(1,1,4,6)_bias", 
      "inputs": []
    }, 
    {
      "op": "broadcast_add", 
      "name": "broadcast_add805", 
      "inputs": [[111, 0, 0], [112, 0, 0]]
    }, 
    {
      "op": "abs", 
      "name": "abs322", 
      "inputs": [[113, 0, 0]]
    }, 
    {
      "op": "elemwise_mul", 
      "name": "elemwise_mul1346", 
      "inputs": [[109, 0, 0], [114, 0, 0]]
    }, 
    {
      "op": "tile", 
      "name": "tile1028", 
      "attrs": {"reps": "(6, 4, 1, 1)"}, 
      "inputs": [[94, 0, 0]]
    }, 
    {
      "op": "BlockGrad", 
      "name": "blockgrad1297", 
      "inputs": [[116, 0, 0]]
    }, 
    {
      "op": "_mul_scalar", 
      "name": "_mulscalar334", 
      "attrs": {"scalar": "2"}, 
      "inputs": [[117, 0, 0]]
    }, 
    {
      "op": "tile", 
      "name": "tile1027", 
      "attrs": {"reps": "(6, 4, 1, 1)"}, 
      "inputs": [[87, 0, 0]]
    }, 
    {
      "op": "BlockGrad", 
      "name": "blockgrad1296", 
      "inputs": [[119, 0, 0]]
    }, 
    {
      "op": "null", 
      "name": "param_3->1_[3,3]_initialConvs_1_Ord2_angular_(1,1,4,6)_weight", 
      "inputs": []
    }, 
    {
      "op": "broadcast_mul", 
      "name": "broadcast_mul866", 
      "inputs": [[120, 0, 0], [121, 0, 0]]
    }, 
    {
      "op": "null", 
      "name": "param_3->1_[3,3]_initialConvs_1_Ord2_angular_(1,1,4,6)_bias", 
      "inputs": []
    }, 
    {
      "op": "broadcast_add", 
      "name": "broadcast_add811", 
      "inputs": [[122, 0, 0], [123, 0, 0]]
    }, 
    {
      "op": "elemwise_add", 
      "name": "elemwise_add379", 
      "inputs": [[118, 0, 0], [124, 0, 0]]
    }, 
    {
      "op": "cos", 
      "name": "cos324", 
      "inputs": [[125, 0, 0]]
    }, 
    {
      "op": "ones_like", 
      "name": "ones_like324", 
      "inputs": [[120, 0, 0]]
    }, 
    {
      "op": "broadcast_lesser", 
      "name": "broadcast_lesser324", 
      "inputs": [[120, 0, 0], [127, 0, 0]]
    }, 
    {
      "op": "BlockGrad", 
      "name": "blockgrad1298", 
      "inputs": [[128, 0, 0]]
    }, 
    {
      "op": "elemwise_mul", 
      "name": "elemwise_mul1352", 
      "inputs": [[126, 0, 0], [129, 0, 0]]
    }, 
    {
      "op": "null", 
      "name": "param_3->1_[3,3]_initialConvs_1_Ord2_radial_(1,1,4,6)_weight", 
      "inputs": []
    }, 
    {
      "op": "broadcast_mul", 
      "name": "broadcast_mul865", 
      "inputs": [[120, 0, 0], [131, 0, 0]]
    }, 
    {
      "op": "null", 
      "name": "param_3->1_[3,3]_initialConvs_1_Ord2_radial_(1,1,4,6)_bias", 
      "inputs": []
    }, 
    {
      "op": "broadcast_add", 
      "name": "broadcast_add810", 
      "inputs": [[132, 0, 0], [133, 0, 0]]
    }, 
    {
      "op": "abs", 
      "name": "abs324", 
      "inputs": [[134, 0, 0]]
    }, 
    {
      "op": "elemwise_mul", 
      "name": "elemwise_mul1354", 
      "inputs": [[130, 0, 0], [135, 0, 0]]
    }, 
    {
      "op": "Concat", 
      "name": "concat706", 
      "attrs": {
        "dim": "1", 
        "num_args": "3"
      }, 
      "inputs": [[93, 0, 0], [115, 0, 0], [136, 0, 0]]
    }, 
    {
      "op": "zeros_like", 
      "name": "zeros_like160", 
      "inputs": [[93, 0, 0]]
    }, 
    {
      "op": "sin", 
      "name": "sin322", 
      "inputs": [[104, 0, 0]]
    }, 
    {
      "op": "elemwise_mul", 
      "name": "elemwise_mul1343", 
      "inputs": [[139, 0, 0], [108, 0, 0]]
    }, 
    {
      "op": "elemwise_mul", 
      "name": "elemwise_mul1345", 
      "inputs": [[140, 0, 0], [114, 0, 0]]
    }, 
    {
      "op": "negative", 
      "name": "negative321", 
      "inputs": [[141, 0, 0]]
    }, 
    {
      "op": "sin", 
      "name": "sin324", 
      "inputs": [[125, 0, 0]]
    }, 
    {
      "op": "elemwise_mul", 
      "name": "elemwise_mul1351", 
      "inputs": [[143, 0, 0], [129, 0, 0]]
    }, 
    {
      "op": "elemwise_mul", 
      "name": "elemwise_mul1353", 
      "inputs": [[144, 0, 0], [135, 0, 0]]
    }, 
    {
      "op": "negative", 
      "name": "negative322", 
      "inputs": [[145, 0, 0]]
    }, 
    {
      "op": "Concat", 
      "name": "concat707", 
      "attrs": {
        "dim": "1", 
        "num_args": "3"
      }, 
      "inputs": [[138, 0, 0], [142, 0, 0], [146, 0, 0]]
    }, 
    {
      "op": "Concat", 
      "name": "concat708", 
      "attrs": {
        "dim": "1", 
        "num_args": "2"
      }, 
      "inputs": [[137, 0, 0], [147, 0, 0]]
    }, 
    {
      "op": "tile", 
      "name": "tile1018", 
      "attrs": {"reps": "(10, 4, 1, 1)"}, 
      "inputs": [[94, 0, 0]]
    }, 
    {
      "op": "BlockGrad", 
      "name": "blockgrad1283", 
      "inputs": [[149, 0, 0]]
    }, 
    {
      "op": "_mul_scalar", 
      "name": "_mulscalar330", 
      "attrs": {"scalar": "1"}, 
      "inputs": [[150, 0, 0]]
    }, 
    {
      "op": "tile", 
      "name": "tile1017", 
      "attrs": {"reps": "(10, 4, 1, 1)"}, 
      "inputs": [[87, 0, 0]]
    }, 
    {
      "op": "BlockGrad", 
      "name": "blockgrad1282", 
      "inputs": [[152, 0, 0]]
    }, 
    {
      "op": "null", 
      "name": "param_1->2_[3,3]_initialConvs_1_Ord1_angular_(1,1,4,10)_weight", 
      "inputs": []
    }, 
    {
      "op": "broadcast_mul", 
      "name": "broadcast_mul857", 
      "inputs": [[153, 0, 0], [154, 0, 0]]
    }, 
    {
      "op": "null", 
      "name": "param_1->2_[3,3]_initialConvs_1_Ord1_angular_(1,1,4,10)_bias", 
      "inputs": []
    }, 
    {
      "op": "broadcast_add", 
      "name": "broadcast_add802", 
      "inputs": [[155, 0, 0], [156, 0, 0]]
    }, 
    {
      "op": "elemwise_add", 
      "name": "elemwise_add375", 
      "inputs": [[151, 0, 0], [157, 0, 0]]
    }, 
    {
      "op": "cos", 
      "name": "cos320", 
      "inputs": [[158, 0, 0]]
    }, 
    {
      "op": "ones_like", 
      "name": "ones_like320", 
      "inputs": [[153, 0, 0]]
    }, 
    {
      "op": "broadcast_lesser", 
      "name": "broadcast_lesser320", 
      "inputs": [[153, 0, 0], [160, 0, 0]]
    }, 
    {
      "op": "BlockGrad", 
      "name": "blockgrad1284", 
      "inputs": [[161, 0, 0]]
    }, 
    {
      "op": "elemwise_mul", 
      "name": "elemwise_mul1336", 
      "inputs": [[159, 0, 0], [162, 0, 0]]
    }, 
    {
      "op": "null", 
      "name": "param_1->2_[3,3]_initialConvs_1_Ord1_radial_(1,1,4,10)_weight", 
      "inputs": []
    }, 
    {
      "op": "broadcast_mul", 
      "name": "broadcast_mul856", 
      "inputs": [[153, 0, 0], [164, 0, 0]]
    }, 
    {
      "op": "null", 
      "name": "param_1->2_[3,3]_initialConvs_1_Ord1_radial_(1,1,4,10)_bias", 
      "inputs": []
    }, 
    {
      "op": "broadcast_add", 
      "name": "broadcast_add801", 
      "inputs": [[165, 0, 0], [166, 0, 0]]
    }, 
    {
      "op": "abs", 
      "name": "abs320", 
      "inputs": [[167, 0, 0]]
    }, 
    {
      "op": "elemwise_mul", 
      "name": "elemwise_mul1338", 
      "inputs": [[163, 0, 0], [168, 0, 0]]
    }, 
    {
      "op": "tile", 
      "name": "tile1023", 
      "attrs": {"reps": "(10, 4, 1, 1)"}, 
      "inputs": [[87, 0, 0]]
    }, 
    {
      "op": "BlockGrad", 
      "name": "blockgrad1291", 
      "inputs": [[170, 0, 0]]
    }, 
    {
      "op": "null", 
      "name": "param_2->2_[3,3]_initialConvs_1_Ord0_radial_(1,1,4,10)_weight", 
      "inputs": []
    }, 
    {
      "op": "broadcast_mul", 
      "name": "broadcast_mul862", 
      "inputs": [[171, 0, 0], [172, 0, 0]]
    }, 
    {
      "op": "null", 
      "name": "param_2->2_[3,3]_initialConvs_1_Ord0_radial_(1,1,4,10)_bias", 
      "inputs": []
    }, 
    {
      "op": "broadcast_add", 
      "name": "broadcast_add807", 
      "inputs": [[173, 0, 0], [174, 0, 0]]
    }, 
    {
      "op": "tile", 
      "name": "tile1030", 
      "attrs": {"reps": "(10, 4, 1, 1)"}, 
      "inputs": [[94, 0, 0]]
    }, 
    {
      "op": "BlockGrad", 
      "name": "blockgrad1300", 
      "inputs": [[176, 0, 0]]
    }, 
    {
      "op": "_mul_scalar", 
      "name": "_mulscalar335", 
      "attrs": {"scalar": "1"}, 
      "inputs": [[177, 0, 0]]
    }, 
    {
      "op": "tile", 
      "name": "tile1029", 
      "attrs": {"reps": "(10, 4, 1, 1)"}, 
      "inputs": [[87, 0, 0]]
    }, 
    {
      "op": "BlockGrad", 
      "name": "blockgrad1299", 
      "inputs": [[179, 0, 0]]
    }, 
    {
      "op": "null", 
      "name": "param_3->2_[3,3]_initialConvs_1_Ord1_angular_(1,1,4,10)_weight", 
      "inputs": []
    }, 
    {
      "op": "broadcast_mul", 
      "name": "broadcast_mul868", 
      "inputs": [[180, 0, 0], [181, 0, 0]]
    }, 
    {
      "op": "null", 
      "name": "param_3->2_[3,3]_initialConvs_1_Ord1_angular_(1,1,4,10)_bias", 
      "inputs": []
    }, 
    {
      "op": "broadcast_add", 
      "name": "broadcast_add813", 
      "inputs": [[182, 0, 0], [183, 0, 0]]
    }, 
    {
      "op": "elemwise_add", 
      "name": "elemwise_add380", 
      "inputs": [[178, 0, 0], [184, 0, 0]]
    }, 
    {
      "op": "cos", 
      "name": "cos325", 
      "inputs": [[185, 0, 0]]
    }, 
    {
      "op": "ones_like", 
      "name": "ones_like325", 
      "inputs": [[180, 0, 0]]
    }, 
    {
      "op": "broadcast_lesser", 
      "name": "broadcast_lesser325", 
      "inputs": [[180, 0, 0], [187, 0, 0]]
    }, 
    {
      "op": "BlockGrad", 
      "name": "blockgrad1301", 
      "inputs": [[188, 0, 0]]
    }, 
    {
      "op": "elemwise_mul", 
      "name": "elemwise_mul1356", 
      "inputs": [[186, 0, 0], [189, 0, 0]]
    }, 
    {
      "op": "null", 
      "name": "param_3->2_[3,3]_initialConvs_1_Ord1_radial_(1,1,4,10)_weight", 
      "inputs": []
    }, 
    {
      "op": "broadcast_mul", 
      "name": "broadcast_mul867", 
      "inputs": [[180, 0, 0], [191, 0, 0]]
    }, 
    {
      "op": "null", 
      "name": "param_3->2_[3,3]_initialConvs_1_Ord1_radial_(1,1,4,10)_bias", 
      "inputs": []
    }, 
    {
      "op": "broadcast_add", 
      "name": "broadcast_add812", 
      "inputs": [[192, 0, 0], [193, 0, 0]]
    }, 
    {
      "op": "abs", 
      "name": "abs325", 
      "inputs": [[194, 0, 0]]
    }, 
    {
      "op": "elemwise_mul", 
      "name": "elemwise_mul1358", 
      "inputs": [[190, 0, 0], [195, 0, 0]]
    }, 
    {
      "op": "Concat", 
      "name": "concat710", 
      "attrs": {
        "dim": "1", 
        "num_args": "3"
      }, 
      "inputs": [[169, 0, 0], [175, 0, 0], [196, 0, 0]]
    }, 
    {
      "op": "sin", 
      "name": "sin320", 
      "inputs": [[158, 0, 0]]
    }, 
    {
      "op": "elemwise_mul", 
      "name": "elemwise_mul1335", 
      "inputs": [[198, 0, 0], [162, 0, 0]]
    }, 
    {
      "op": "elemwise_mul", 
      "name": "elemwise_mul1337", 
      "inputs": [[199, 0, 0], [168, 0, 0]]
    }, 
    {
      "op": "zeros_like", 
      "name": "zeros_like161", 
      "inputs": [[175, 0, 0]]
    }, 
    {
      "op": "sin", 
      "name": "sin325", 
      "inputs": [[185, 0, 0]]
    }, 
    {
      "op": "elemwise_mul", 
      "name": "elemwise_mul1355", 
      "inputs": [[202, 0, 0], [189, 0, 0]]
    }, 
    {
      "op": "elemwise_mul", 
      "name": "elemwise_mul1357", 
      "inputs": [[203, 0, 0], [195, 0, 0]]
    }, 
    {
      "op": "negative", 
      "name": "negative324", 
      "inputs": [[204, 0, 0]]
    }, 
    {
      "op": "Concat", 
      "name": "concat711", 
      "attrs": {
        "dim": "1", 
        "num_args": "3"
      }, 
      "inputs": [[200, 0, 0], [201, 0, 0], [205, 0, 0]]
    }, 
    {
      "op": "Concat", 
      "name": "concat712", 
      "attrs": {
        "dim": "1", 
        "num_args": "2"
      }, 
      "inputs": [[197, 0, 0], [206, 0, 0]]
    }, 
    {
      "op": "tile", 
      "name": "tile1020", 
      "attrs": {"reps": "(5, 4, 1, 1)"}, 
      "inputs": [[94, 0, 0]]
    }, 
    {
      "op": "BlockGrad", 
      "name": "blockgrad1286", 
      "inputs": [[208, 0, 0]]
    }, 
    {
      "op": "_mul_scalar", 
      "name": "_mulscalar331", 
      "attrs": {"scalar": "2"}, 
      "inputs": [[209, 0, 0]]
    }, 
    {
      "op": "tile", 
      "name": "tile1019", 
      "attrs": {"reps": "(5, 4, 1, 1)"}, 
      "inputs": [[87, 0, 0]]
    }, 
    {
      "op": "BlockGrad", 
      "name": "blockgrad1285", 
      "inputs": [[211, 0, 0]]
    }, 
    {
      "op": "null", 
      "name": "param_1->3_[3,3]_initialConvs_1_Ord2_angular_(1,1,4,5)_weight", 
      "inputs": []
    }, 
    {
      "op": "broadcast_mul", 
      "name": "broadcast_mul859", 
      "inputs": [[212, 0, 0], [213, 0, 0]]
    }, 
    {
      "op": "null", 
      "name": "param_1->3_[3,3]_initialConvs_1_Ord2_angular_(1,1,4,5)_bias", 
      "inputs": []
    }, 
    {
      "op": "broadcast_add", 
      "name": "broadcast_add804", 
      "inputs": [[214, 0, 0], [215, 0, 0]]
    }, 
    {
      "op": "elemwise_add", 
      "name": "elemwise_add376", 
      "inputs": [[210, 0, 0], [216, 0, 0]]
    }, 
    {
      "op": "cos", 
      "name": "cos321", 
      "inputs": [[217, 0, 0]]
    }, 
    {
      "op": "ones_like", 
      "name": "ones_like321", 
      "inputs": [[212, 0, 0]]
    }, 
    {
      "op": "broadcast_lesser", 
      "name": "broadcast_lesser321", 
      "inputs": [[212, 0, 0], [219, 0, 0]]
    }, 
    {
      "op": "BlockGrad", 
      "name": "blockgrad1287", 
      "inputs": [[220, 0, 0]]
    }, 
    {
      "op": "elemwise_mul", 
      "name": "elemwise_mul1340", 
      "inputs": [[218, 0, 0], [221, 0, 0]]
    }, 
    {
      "op": "null", 
      "name": "param_1->3_[3,3]_initialConvs_1_Ord2_radial_(1,1,4,5)_weight", 
      "inputs": []
    }, 
    {
      "op": "broadcast_mul", 
      "name": "broadcast_mul858", 
      "inputs": [[212, 0, 0], [223, 0, 0]]
    }, 
    {
      "op": "null", 
      "name": "param_1->3_[3,3]_initialConvs_1_Ord2_radial_(1,1,4,5)_bias", 
      "inputs": []
    }, 
    {
      "op": "broadcast_add", 
      "name": "broadcast_add803", 
      "inputs": [[224, 0, 0], [225, 0, 0]]
    }, 
    {
      "op": "abs", 
      "name": "abs321", 
      "inputs": [[226, 0, 0]]
    }, 
    {
      "op": "elemwise_mul", 
      "name": "elemwise_mul1342", 
      "inputs": [[222, 0, 0], [227, 0, 0]]
    }, 
    {
      "op": "tile", 
      "name": "tile1026", 
      "attrs": {"reps": "(5, 4, 1, 1)"}, 
      "inputs": [[94, 0, 0]]
    }, 
    {
      "op": "BlockGrad", 
      "name": "blockgrad1294", 
      "inputs": [[229, 0, 0]]
    }, 
    {
      "op": "_mul_scalar", 
      "name": "_mulscalar333", 
      "attrs": {"scalar": "1"}, 
      "inputs": [[230, 0, 0]]
    }, 
    {
      "op": "tile", 
      "name": "tile1025", 
      "attrs": {"reps": "(5, 4, 1, 1)"}, 
      "inputs": [[87, 0, 0]]
    }, 
    {
      "op": "BlockGrad", 
      "name": "blockgrad1293", 
      "inputs": [[232, 0, 0]]
    }, 
    {
      "op": "null", 
      "name": "param_2->3_[3,3]_initialConvs_1_Ord1_angular_(1,1,4,5)_weight", 
      "inputs": []
    }, 
    {
      "op": "broadcast_mul", 
      "name": "broadcast_mul864", 
      "inputs": [[233, 0, 0], [234, 0, 0]]
    }, 
    {
      "op": "null", 
      "name": "param_2->3_[3,3]_initialConvs_1_Ord1_angular_(1,1,4,5)_bias", 
      "inputs": []
    }, 
    {
      "op": "broadcast_add", 
      "name": "broadcast_add809", 
      "inputs": [[235, 0, 0], [236, 0, 0]]
    }, 
    {
      "op": "elemwise_add", 
      "name": "elemwise_add378", 
      "inputs": [[231, 0, 0], [237, 0, 0]]
    }, 
    {
      "op": "cos", 
      "name": "cos323", 
      "inputs": [[238, 0, 0]]
    }, 
    {
      "op": "ones_like", 
      "name": "ones_like323", 
      "inputs": [[233, 0, 0]]
    }, 
    {
      "op": "broadcast_lesser", 
      "name": "broadcast_lesser323", 
      "inputs": [[233, 0, 0], [240, 0, 0]]
    }, 
    {
      "op": "BlockGrad", 
      "name": "blockgrad1295", 
      "inputs": [[241, 0, 0]]
    }, 
    {
      "op": "elemwise_mul", 
      "name": "elemwise_mul1348", 
      "inputs": [[239, 0, 0], [242, 0, 0]]
    }, 
    {
      "op": "null", 
      "name": "param_2->3_[3,3]_initialConvs_1_Ord1_radial_(1,1,4,5)_weight", 
      "inputs": []
    }, 
    {
      "op": "broadcast_mul", 
      "name": "broadcast_mul863", 
      "inputs": [[233, 0, 0], [244, 0, 0]]
    }, 
    {
      "op": "null", 
      "name": "param_2->3_[3,3]_initialConvs_1_Ord1_radial_(1,1,4,5)_bias", 
      "inputs": []
    }, 
    {
      "op": "broadcast_add", 
      "name": "broadcast_add808", 
      "inputs": [[245, 0, 0], [246, 0, 0]]
    }, 
    {
      "op": "abs", 
      "name": "abs323", 
      "inputs": [[247, 0, 0]]
    }, 
    {
      "op": "elemwise_mul", 
      "name": "elemwise_mul1350", 
      "inputs": [[243, 0, 0], [248, 0, 0]]
    }, 
    {
      "op": "tile", 
      "name": "tile1031", 
      "attrs": {"reps": "(5, 4, 1, 1)"}, 
      "inputs": [[87, 0, 0]]
    }, 
    {
      "op": "BlockGrad", 
      "name": "blockgrad1302", 
      "inputs": [[250, 0, 0]]
    }, 
    {
      "op": "null", 
      "name": "param_3->3_[3,3]_initialConvs_1_Ord0_radial_(1,1,4,5)_weight", 
      "inputs": []
    }, 
    {
      "op": "broadcast_mul", 
      "name": "broadcast_mul869", 
      "inputs": [[251, 0, 0], [252, 0, 0]]
    }, 
    {
      "op": "null", 
      "name": "param_3->3_[3,3]_initialConvs_1_Ord0_radial_(1,1,4,5)_bias", 
      "inputs": []
    }, 
    {
      "op": "broadcast_add", 
      "name": "broadcast_add814", 
      "inputs": [[253, 0, 0], [254, 0, 0]]
    }, 
    {
      "op": "Concat", 
      "name": "concat714", 
      "attrs": {
        "dim": "1", 
        "num_args": "3"
      }, 
      "inputs": [[228, 0, 0], [249, 0, 0], [255, 0, 0]]
    }, 
    {
      "op": "sin", 
      "name": "sin321", 
      "inputs": [[217, 0, 0]]
    }, 
    {
      "op": "elemwise_mul", 
      "name": "elemwise_mul1339", 
      "inputs": [[257, 0, 0], [221, 0, 0]]
    }, 
    {
      "op": "elemwise_mul", 
      "name": "elemwise_mul1341", 
      "inputs": [[258, 0, 0], [227, 0, 0]]
    }, 
    {
      "op": "sin", 
      "name": "sin323", 
      "inputs": [[238, 0, 0]]
    }, 
    {
      "op": "elemwise_mul", 
      "name": "elemwise_mul1347", 
      "inputs": [[260, 0, 0], [242, 0, 0]]
    }, 
    {
      "op": "elemwise_mul", 
      "name": "elemwise_mul1349", 
      "inputs": [[261, 0, 0], [248, 0, 0]]
    }, 
    {
      "op": "zeros_like", 
      "name": "zeros_like162", 
      "inputs": [[255, 0, 0]]
    }, 
    {
      "op": "Concat", 
      "name": "concat715", 
      "attrs": {
        "dim": "1", 
        "num_args": "3"
      }, 
      "inputs": [[259, 0, 0], [262, 0, 0], [263, 0, 0]]
    }, 
    {
      "op": "Concat", 
      "name": "concat716", 
      "attrs": {
        "dim": "1", 
        "num_args": "2"
      }, 
      "inputs": [[256, 0, 0], [264, 0, 0]]
    }, 
    {
      "op": "negative", 
      "name": "negative323", 
      "inputs": [[147, 0, 0]]
    }, 
    {
      "op": "Concat", 
      "name": "concat709", 
      "attrs": {
        "dim": "1", 
        "num_args": "2"
      }, 
      "inputs": [[266, 0, 0], [137, 0, 0]]
    }, 
    {
      "op": "negative", 
      "name": "negative325", 
      "inputs": [[206, 0, 0]]
    }, 
    {
      "op": "Concat", 
      "name": "concat713", 
      "attrs": {
        "dim": "1", 
        "num_args": "2"
      }, 
      "inputs": [[268, 0, 0], [197, 0, 0]]
    }, 
    {
      "op": "negative", 
      "name": "negative326", 
      "inputs": [[264, 0, 0]]
    }, 
    {
      "op": "Concat", 
      "name": "concat717", 
      "attrs": {
        "dim": "1", 
        "num_args": "2"
      }, 
      "inputs": [[270, 0, 0], [256, 0, 0]]
    }, 
    {
      "op": "Concat", 
      "name": "concat718", 
      "attrs": {
        "dim": "0", 
        "num_args": "6"
      }, 
      "inputs": [[148, 0, 0], [207, 0, 0], [265, 0, 0], [267, 0, 0], [269, 0, 0], [271, 0, 0]]
    }, 
    {
      "op": "Cast", 
      "name": "cast127", 
      "attrs": {"dtype": "float32"}, 
      "inputs": [[272, 0, 0]]
    }, 
    {
      "op": "Convolution", 
      "name": "conv_[3,3]_initialConvs_1", 
      "attrs": {
        "dilate": "(1, 1)", 
        "kernel": "(3, 3)", 
        "no_bias": "1", 
        "num_filter": "42", 
        "pad": "(0, 0)", 
        "stride": "(1, 1)"
      }, 
      "inputs": [[86, 0, 0], [273, 0, 0]]
    }, 
    {
      "op": "square", 
      "name": "square55", 
      "inputs": [[274, 0, 0]]
    }, 
    {
      "op": "SliceChannel", 
      "name": "split55", 
      "attrs": {
        "axis": "1", 
        "num_outputs": "2"
      }, 
      "inputs": [[275, 0, 0]]
    }, 
    {
      "op": "elemwise_add", 
      "name": "elemwise_add381", 
      "inputs": [[276, 0, 0], [276, 1, 0]]
    }, 
    {
      "op": "_plus_scalar", 
      "name": "_plusscalar128", 
      "attrs": {"scalar": "2e-05"}, 
      "inputs": [[277, 0, 0]]
    }, 
    {
      "op": "sqrt", 
      "name": "sqrt55", 
      "inputs": [[278, 0, 0]]
    }, 
    {
      "op": "tanh", 
      "name": "tanh55", 
      "inputs": [[279, 0, 0]]
    }, 
    {
      "op": "null", 
      "name": "initialConvs_1_(1,1,21,1)_mag_weight", 
      "inputs": []
    }, 
    {
      "op": "Cast", 
      "name": "cast128", 
      "attrs": {"dtype": "float32"}, 
      "inputs": [[281, 0, 0]]
    }, 
    {
      "op": "LeakyReLU", 
      "name": "leakyrelu55", 
      "attrs": {
        "act_type": "elu", 
        "slope": "1"
      }, 
      "inputs": [[282, 0, 0]]
    }, 
    {
      "op": "_plus_scalar", 
      "name": "_plusscalar129", 
      "attrs": {"scalar": "1"}, 
      "inputs": [[283, 0, 0]]
    }, 
    {
      "op": "broadcast_mul", 
      "name": "broadcast_mul870", 
      "inputs": [[280, 0, 0], [284, 0, 0]]
    }, 
    {
      "op": "elemwise_div", 
      "name": "_div55", 
      "inputs": [[285, 0, 0], [279, 0, 0]]
    }, 
    {
      "op": "tile", 
      "name": "tile1033", 
      "attrs": {"reps": "(1, 2, 1, 1)"}, 
      "inputs": [[286, 0, 0]]
    }, 
    {
      "op": "elemwise_mul", 
      "name": "elemwise_mul1359", 
      "inputs": [[274, 0, 0], [287, 0, 0]]
    }, 
    {
      "op": "Pad", 
      "name": "pad56", 
      "attrs": {
        "mode": "edge", 
        "pad_width": "(0, 0, 0, 0, 1, 1, 1, 1)"
      }, 
      "inputs": [[288, 0, 0]]
    }, 
    {
      "op": "tile", 
      "name": "tile1034", 
      "attrs": {"reps": "(6, 6, 1, 1)"}, 
      "inputs": [[87, 0, 0]]
    }, 
    {
      "op": "BlockGrad", 
      "name": "blockgrad1304", 
      "inputs": [[290, 0, 0]]
    }, 
    {
      "op": "null", 
      "name": "param_1->1_[3,3]_3_1_s19_Ord0_radial_(1,1,6,6)_weight", 
      "inputs": []
    }, 
    {
      "op": "broadcast_mul", 
      "name": "broadcast_mul871", 
      "inputs": [[291, 0, 0], [292, 0, 0]]
    }, 
    {
      "op": "null", 
      "name": "param_1->1_[3,3]_3_1_s19_Ord0_radial_(1,1,6,6)_bias", 
      "inputs": []
    }, 
    {
      "op": "broadcast_add", 
      "name": "broadcast_add815", 
      "inputs": [[293, 0, 0], [294, 0, 0]]
    }, 
    {
      "op": "tile", 
      "name": "tile1041", 
      "attrs": {"reps": "(6, 10, 1, 1)"}, 
      "inputs": [[94, 0, 0]]
    }, 
    {
      "op": "BlockGrad", 
      "name": "blockgrad1313", 
      "inputs": [[296, 0, 0]]
    }, 
    {
      "op": "_mul_scalar", 
      "name": "_mulscalar338", 
      "attrs": {"scalar": "1"}, 
      "inputs": [[297, 0, 0]]
    }, 
    {
      "op": "tile", 
      "name": "tile1040", 
      "attrs": {"reps": "(6, 10, 1, 1)"}, 
      "inputs": [[87, 0, 0]]
    }, 
    {
      "op": "BlockGrad", 
      "name": "blockgrad1312", 
      "inputs": [[299, 0, 0]]
    }, 
    {
      "op": "null", 
      "name": "param_2->1_[3,3]_3_1_s19_Ord1_angular_(1,1,10,6)_weight", 
      "inputs": []
    }, 
    {
      "op": "broadcast_mul", 
      "name": "broadcast_mul877", 
      "inputs": [[300, 0, 0], [301, 0, 0]]
    }, 
    {
      "op": "null", 
      "name": "param_2->1_[3,3]_3_1_s19_Ord1_angular_(1,1,10,6)_bias", 
      "inputs": []
    }, 
    {
      "op": "broadcast_add", 
      "name": "broadcast_add821", 
      "inputs": [[302, 0, 0], [303, 0, 0]]
    }, 
    {
      "op": "elemwise_add", 
      "name": "elemwise_add384", 
      "inputs": [[298, 0, 0], [304, 0, 0]]
    }, 
    {
      "op": "cos", 
      "name": "cos328", 
      "inputs": [[305, 0, 0]]
    }, 
    {
      "op": "ones_like", 
      "name": "ones_like328", 
      "inputs": [[300, 0, 0]]
    }, 
    {
      "op": "broadcast_lesser", 
      "name": "broadcast_lesser328", 
      "inputs": [[300, 0, 0], [307, 0, 0]]
    }, 
    {
      "op": "BlockGrad", 
      "name": "blockgrad1314", 
      "inputs": [[308, 0, 0]]
    }, 
    {
      "op": "elemwise_mul", 
      "name": "elemwise_mul1369", 
      "inputs": [[306, 0, 0], [309, 0, 0]]
    }, 
    {
      "op": "null", 
      "name": "param_2->1_[3,3]_3_1_s19_Ord1_radial_(1,1,10,6)_weight", 
      "inputs": []
    }, 
    {
      "op": "broadcast_mul", 
      "name": "broadcast_mul876", 
      "inputs": [[300, 0, 0], [311, 0, 0]]
    }, 
    {
      "op": "null", 
      "name": "param_2->1_[3,3]_3_1_s19_Ord1_radial_(1,1,10,6)_bias", 
      "inputs": []
    }, 
    {
      "op": "broadcast_add", 
      "name": "broadcast_add820", 
      "inputs": [[312, 0, 0], [313, 0, 0]]
    }, 
    {
      "op": "abs", 
      "name": "abs328", 
      "inputs": [[314, 0, 0]]
    }, 
    {
      "op": "elemwise_mul", 
      "name": "elemwise_mul1371", 
      "inputs": [[310, 0, 0], [315, 0, 0]]
    }, 
    {
      "op": "tile", 
      "name": "tile1047", 
      "attrs": {"reps": "(6, 5, 1, 1)"}, 
      "inputs": [[94, 0, 0]]
    }, 
    {
      "op": "BlockGrad", 
      "name": "blockgrad1321", 
      "inputs": [[317, 0, 0]]
    }, 
    {
      "op": "_mul_scalar", 
      "name": "_mulscalar340", 
      "attrs": {"scalar": "2"}, 
      "inputs": [[318, 0, 0]]
    }, 
    {
      "op": "tile", 
      "name": "tile1046", 
      "attrs": {"reps": "(6, 5, 1, 1)"}, 
      "inputs": [[87, 0, 0]]
    }, 
    {
      "op": "BlockGrad", 
      "name": "blockgrad1320", 
      "inputs": [[320, 0, 0]]
    }, 
    {
      "op": "null", 
      "name": "param_3->1_[3,3]_3_1_s19_Ord2_angular_(1,1,5,6)_weight", 
      "inputs": []
    }, 
    {
      "op": "broadcast_mul", 
      "name": "broadcast_mul882", 
      "inputs": [[321, 0, 0], [322, 0, 0]]
    }, 
    {
      "op": "null", 
      "name": "param_3->1_[3,3]_3_1_s19_Ord2_angular_(1,1,5,6)_bias", 
      "inputs": []
    }, 
    {
      "op": "broadcast_add", 
      "name": "broadcast_add826", 
      "inputs": [[323, 0, 0], [324, 0, 0]]
    }, 
    {
      "op": "elemwise_add", 
      "name": "elemwise_add386", 
      "inputs": [[319, 0, 0], [325, 0, 0]]
    }, 
    {
      "op": "cos", 
      "name": "cos330", 
      "inputs": [[326, 0, 0]]
    }, 
    {
      "op": "ones_like", 
      "name": "ones_like330", 
      "inputs": [[321, 0, 0]]
    }, 
    {
      "op": "broadcast_lesser", 
      "name": "broadcast_lesser330", 
      "inputs": [[321, 0, 0], [328, 0, 0]]
    }, 
    {
      "op": "BlockGrad", 
      "name": "blockgrad1322", 
      "inputs": [[329, 0, 0]]
    }, 
    {
      "op": "elemwise_mul", 
      "name": "elemwise_mul1377", 
      "inputs": [[327, 0, 0], [330, 0, 0]]
    }, 
    {
      "op": "null", 
      "name": "param_3->1_[3,3]_3_1_s19_Ord2_radial_(1,1,5,6)_weight", 
      "inputs": []
    }, 
    {
      "op": "broadcast_mul", 
      "name": "broadcast_mul881", 
      "inputs": [[321, 0, 0], [332, 0, 0]]
    }, 
    {
      "op": "null", 
      "name": "param_3->1_[3,3]_3_1_s19_Ord2_radial_(1,1,5,6)_bias", 
      "inputs": []
    }, 
    {
      "op": "broadcast_add", 
      "name": "broadcast_add825", 
      "inputs": [[333, 0, 0], [334, 0, 0]]
    }, 
    {
      "op": "abs", 
      "name": "abs330", 
      "inputs": [[335, 0, 0]]
    }, 
    {
      "op": "elemwise_mul", 
      "name": "elemwise_mul1379", 
      "inputs": [[331, 0, 0], [336, 0, 0]]
    }, 
    {
      "op": "Concat", 
      "name": "concat719", 
      "attrs": {
        "dim": "1", 
        "num_args": "3"
      }, 
      "inputs": [[295, 0, 0], [316, 0, 0], [337, 0, 0]]
    }, 
    {
      "op": "zeros_like", 
      "name": "zeros_like163", 
      "inputs": [[295, 0, 0]]
    }, 
    {
      "op": "sin", 
      "name": "sin328", 
      "inputs": [[305, 0, 0]]
    }, 
    {
      "op": "elemwise_mul", 
      "name": "elemwise_mul1368", 
      "inputs": [[340, 0, 0], [309, 0, 0]]
    }, 
    {
      "op": "elemwise_mul", 
      "name": "elemwise_mul1370", 
      "inputs": [[341, 0, 0], [315, 0, 0]]
    }, 
    {
      "op": "negative", 
      "name": "negative327", 
      "inputs": [[342, 0, 0]]
    }, 
    {
      "op": "sin", 
      "name": "sin330", 
      "inputs": [[326, 0, 0]]
    }, 
    {
      "op": "elemwise_mul", 
      "name": "elemwise_mul1376", 
      "inputs": [[344, 0, 0], [330, 0, 0]]
    }, 
    {
      "op": "elemwise_mul", 
      "name": "elemwise_mul1378", 
      "inputs": [[345, 0, 0], [336, 0, 0]]
    }, 
    {
      "op": "negative", 
      "name": "negative328", 
      "inputs": [[346, 0, 0]]
    }, 
    {
      "op": "Concat", 
      "name": "concat720", 
      "attrs": {
        "dim": "1", 
        "num_args": "3"
      }, 
      "inputs": [[339, 0, 0], [343, 0, 0], [347, 0, 0]]
    }, 
    {
      "op": "Concat", 
      "name": "concat721", 
      "attrs": {
        "dim": "1", 
        "num_args": "2"
      }, 
      "inputs": [[338, 0, 0], [348, 0, 0]]
    }, 
    {
      "op": "tile", 
      "name": "tile1037", 
      "attrs": {"reps": "(10, 6, 1, 1)"}, 
      "inputs": [[94, 0, 0]]
    }, 
    {
      "op": "BlockGrad", 
      "name": "blockgrad1307", 
      "inputs": [[350, 0, 0]]
    }, 
    {
      "op": "_mul_scalar", 
      "name": "_mulscalar336", 
      "attrs": {"scalar": "1"}, 
      "inputs": [[351, 0, 0]]
    }, 
    {
      "op": "tile", 
      "name": "tile1036", 
      "attrs": {"reps": "(10, 6, 1, 1)"}, 
      "inputs": [[87, 0, 0]]
    }, 
    {
      "op": "BlockGrad", 
      "name": "blockgrad1306", 
      "inputs": [[353, 0, 0]]
    }, 
    {
      "op": "null", 
      "name": "param_1->2_[3,3]_3_1_s19_Ord1_angular_(1,1,6,10)_weight", 
      "inputs": []
    }, 
    {
      "op": "broadcast_mul", 
      "name": "broadcast_mul873", 
      "inputs": [[354, 0, 0], [355, 0, 0]]
    }, 
    {
      "op": "null", 
      "name": "param_1->2_[3,3]_3_1_s19_Ord1_angular_(1,1,6,10)_bias", 
      "inputs": []
    }, 
    {
      "op": "broadcast_add", 
      "name": "broadcast_add817", 
      "inputs": [[356, 0, 0], [357, 0, 0]]
    }, 
    {
      "op": "elemwise_add", 
      "name": "elemwise_add382", 
      "inputs": [[352, 0, 0], [358, 0, 0]]
    }, 
    {
      "op": "cos", 
      "name": "cos326", 
      "inputs": [[359, 0, 0]]
    }, 
    {
      "op": "ones_like", 
      "name": "ones_like326", 
      "inputs": [[354, 0, 0]]
    }, 
    {
      "op": "broadcast_lesser", 
      "name": "broadcast_lesser326", 
      "inputs": [[354, 0, 0], [361, 0, 0]]
    }, 
    {
      "op": "BlockGrad", 
      "name": "blockgrad1308", 
      "inputs": [[362, 0, 0]]
    }, 
    {
      "op": "elemwise_mul", 
      "name": "elemwise_mul1361", 
      "inputs": [[360, 0, 0], [363, 0, 0]]
    }, 
    {
      "op": "null", 
      "name": "param_1->2_[3,3]_3_1_s19_Ord1_radial_(1,1,6,10)_weight", 
      "inputs": []
    }, 
    {
      "op": "broadcast_mul", 
      "name": "broadcast_mul872", 
      "inputs": [[354, 0, 0], [365, 0, 0]]
    }, 
    {
      "op": "null", 
      "name": "param_1->2_[3,3]_3_1_s19_Ord1_radial_(1,1,6,10)_bias", 
      "inputs": []
    }, 
    {
      "op": "broadcast_add", 
      "name": "broadcast_add816", 
      "inputs": [[366, 0, 0], [367, 0, 0]]
    }, 
    {
      "op": "abs", 
      "name": "abs326", 
      "inputs": [[368, 0, 0]]
    }, 
    {
      "op": "elemwise_mul", 
      "name": "elemwise_mul1363", 
      "inputs": [[364, 0, 0], [369, 0, 0]]
    }, 
    {
      "op": "tile", 
      "name": "tile1042", 
      "attrs": {"reps": "(10, 10, 1, 1)"}, 
      "inputs": [[87, 0, 0]]
    }, 
    {
      "op": "BlockGrad", 
      "name": "blockgrad1315", 
      "inputs": [[371, 0, 0]]
    }, 
    {
      "op": "null", 
      "name": "param_2->2_[3,3]_3_1_s19_Ord0_radial_(1,1,10,10)_weight", 
      "inputs": []
    }, 
    {
      "op": "broadcast_mul", 
      "name": "broadcast_mul878", 
      "inputs": [[372, 0, 0], [373, 0, 0]]
    }, 
    {
      "op": "null", 
      "name": "param_2->2_[3,3]_3_1_s19_Ord0_radial_(1,1,10,10)_bias", 
      "inputs": []
    }, 
    {
      "op": "broadcast_add", 
      "name": "broadcast_add822", 
      "inputs": [[374, 0, 0], [375, 0, 0]]
    }, 
    {
      "op": "tile", 
      "name": "tile1049", 
      "attrs": {"reps": "(10, 5, 1, 1)"}, 
      "inputs": [[94, 0, 0]]
    }, 
    {
      "op": "BlockGrad", 
      "name": "blockgrad1324", 
      "inputs": [[377, 0, 0]]
    }, 
    {
      "op": "_mul_scalar", 
      "name": "_mulscalar341", 
      "attrs": {"scalar": "1"}, 
      "inputs": [[378, 0, 0]]
    }, 
    {
      "op": "tile", 
      "name": "tile1048", 
      "attrs": {"reps": "(10, 5, 1, 1)"}, 
      "inputs": [[87, 0, 0]]
    }, 
    {
      "op": "BlockGrad", 
      "name": "blockgrad1323", 
      "inputs": [[380, 0, 0]]
    }, 
    {
      "op": "null", 
      "name": "param_3->2_[3,3]_3_1_s19_Ord1_angular_(1,1,5,10)_weight", 
      "inputs": []
    }, 
    {
      "op": "broadcast_mul", 
      "name": "broadcast_mul884", 
      "inputs": [[381, 0, 0], [382, 0, 0]]
    }, 
    {
      "op": "null", 
      "name": "param_3->2_[3,3]_3_1_s19_Ord1_angular_(1,1,5,10)_bias", 
      "inputs": []
    }, 
    {
      "op": "broadcast_add", 
      "name": "broadcast_add828", 
      "inputs": [[383, 0, 0], [384, 0, 0]]
    }, 
    {
      "op": "elemwise_add", 
      "name": "elemwise_add387", 
      "inputs": [[379, 0, 0], [385, 0, 0]]
    }, 
    {
      "op": "cos", 
      "name": "cos331", 
      "inputs": [[386, 0, 0]]
    }, 
    {
      "op": "ones_like", 
      "name": "ones_like331", 
      "inputs": [[381, 0, 0]]
    }, 
    {
      "op": "broadcast_lesser", 
      "name": "broadcast_lesser331", 
      "inputs": [[381, 0, 0], [388, 0, 0]]
    }, 
    {
      "op": "BlockGrad", 
      "name": "blockgrad1325", 
      "inputs": [[389, 0, 0]]
    }, 
    {
      "op": "elemwise_mul", 
      "name": "elemwise_mul1381", 
      "inputs": [[387, 0, 0], [390, 0, 0]]
    }, 
    {
      "op": "null", 
      "name": "param_3->2_[3,3]_3_1_s19_Ord1_radial_(1,1,5,10)_weight", 
      "inputs": []
    }, 
    {
      "op": "broadcast_mul", 
      "name": "broadcast_mul883", 
      "inputs": [[381, 0, 0], [392, 0, 0]]
    }, 
    {
      "op": "null", 
      "name": "param_3->2_[3,3]_3_1_s19_Ord1_radial_(1,1,5,10)_bias", 
      "inputs": []
    }, 
    {
      "op": "broadcast_add", 
      "name": "broadcast_add827", 
      "inputs": [[393, 0, 0], [394, 0, 0]]
    }, 
    {
      "op": "abs", 
      "name": "abs331", 
      "inputs": [[395, 0, 0]]
    }, 
    {
      "op": "elemwise_mul", 
      "name": "elemwise_mul1383", 
      "inputs": [[391, 0, 0], [396, 0, 0]]
    }, 
    {
      "op": "Concat", 
      "name": "concat723", 
      "attrs": {
        "dim": "1", 
        "num_args": "3"
      }, 
      "inputs": [[370, 0, 0], [376, 0, 0], [397, 0, 0]]
    }, 
    {
      "op": "sin", 
      "name": "sin326", 
      "inputs": [[359, 0, 0]]
    }, 
    {
      "op": "elemwise_mul", 
      "name": "elemwise_mul1360", 
      "inputs": [[399, 0, 0], [363, 0, 0]]
    }, 
    {
      "op": "elemwise_mul", 
      "name": "elemwise_mul1362", 
      "inputs": [[400, 0, 0], [369, 0, 0]]
    }, 
    {
      "op": "zeros_like", 
      "name": "zeros_like164", 
      "inputs": [[376, 0, 0]]
    }, 
    {
      "op": "sin", 
      "name": "sin331", 
      "inputs": [[386, 0, 0]]
    }, 
    {
      "op": "elemwise_mul", 
      "name": "elemwise_mul1380", 
      "inputs": [[403, 0, 0], [390, 0, 0]]
    }, 
    {
      "op": "elemwise_mul", 
      "name": "elemwise_mul1382", 
      "inputs": [[404, 0, 0], [396, 0, 0]]
    }, 
    {
      "op": "negative", 
      "name": "negative330", 
      "inputs": [[405, 0, 0]]
    }, 
    {
      "op": "Concat", 
      "name": "concat724", 
      "attrs": {
        "dim": "1", 
        "num_args": "3"
      }, 
      "inputs": [[401, 0, 0], [402, 0, 0], [406, 0, 0]]
    }, 
    {
      "op": "Concat", 
      "name": "concat725", 
      "attrs": {
        "dim": "1", 
        "num_args": "2"
      }, 
      "inputs": [[398, 0, 0], [407, 0, 0]]
    }, 
    {
      "op": "tile", 
      "name": "tile1039", 
      "attrs": {"reps": "(5, 6, 1, 1)"}, 
      "inputs": [[94, 0, 0]]
    }, 
    {
      "op": "BlockGrad", 
      "name": "blockgrad1310", 
      "inputs": [[409, 0, 0]]
    }, 
    {
      "op": "_mul_scalar", 
      "name": "_mulscalar337", 
      "attrs": {"scalar": "2"}, 
      "inputs": [[410, 0, 0]]
    }, 
    {
      "op": "tile", 
      "name": "tile1038", 
      "attrs": {"reps": "(5, 6, 1, 1)"}, 
      "inputs": [[87, 0, 0]]
    }, 
    {
      "op": "BlockGrad", 
      "name": "blockgrad1309", 
      "inputs": [[412, 0, 0]]
    }, 
    {
      "op": "null", 
      "name": "param_1->3_[3,3]_3_1_s19_Ord2_angular_(1,1,6,5)_weight", 
      "inputs": []
    }, 
    {
      "op": "broadcast_mul", 
      "name": "broadcast_mul875", 
      "inputs": [[413, 0, 0], [414, 0, 0]]
    }, 
    {
      "op": "null", 
      "name": "param_1->3_[3,3]_3_1_s19_Ord2_angular_(1,1,6,5)_bias", 
      "inputs": []
    }, 
    {
      "op": "broadcast_add", 
      "name": "broadcast_add819", 
      "inputs": [[415, 0, 0], [416, 0, 0]]
    }, 
    {
      "op": "elemwise_add", 
      "name": "elemwise_add383", 
      "inputs": [[411, 0, 0], [417, 0, 0]]
    }, 
    {
      "op": "cos", 
      "name": "cos327", 
      "inputs": [[418, 0, 0]]
    }, 
    {
      "op": "ones_like", 
      "name": "ones_like327", 
      "inputs": [[413, 0, 0]]
    }, 
    {
      "op": "broadcast_lesser", 
      "name": "broadcast_lesser327", 
      "inputs": [[413, 0, 0], [420, 0, 0]]
    }, 
    {
      "op": "BlockGrad", 
      "name": "blockgrad1311", 
      "inputs": [[421, 0, 0]]
    }, 
    {
      "op": "elemwise_mul", 
      "name": "elemwise_mul1365", 
      "inputs": [[419, 0, 0], [422, 0, 0]]
    }, 
    {
      "op": "null", 
      "name": "param_1->3_[3,3]_3_1_s19_Ord2_radial_(1,1,6,5)_weight", 
      "inputs": []
    }, 
    {
      "op": "broadcast_mul", 
      "name": "broadcast_mul874", 
      "inputs": [[413, 0, 0], [424, 0, 0]]
    }, 
    {
      "op": "null", 
      "name": "param_1->3_[3,3]_3_1_s19_Ord2_radial_(1,1,6,5)_bias", 
      "inputs": []
    }, 
    {
      "op": "broadcast_add", 
      "name": "broadcast_add818", 
      "inputs": [[425, 0, 0], [426, 0, 0]]
    }, 
    {
      "op": "abs", 
      "name": "abs327", 
      "inputs": [[427, 0, 0]]
    }, 
    {
      "op": "elemwise_mul", 
      "name": "elemwise_mul1367", 
      "inputs": [[423, 0, 0], [428, 0, 0]]
    }, 
    {
      "op": "tile", 
      "name": "tile1045", 
      "attrs": {"reps": "(5, 10, 1, 1)"}, 
      "inputs": [[94, 0, 0]]
    }, 
    {
      "op": "BlockGrad", 
      "name": "blockgrad1318", 
      "inputs": [[430, 0, 0]]
    }, 
    {
      "op": "_mul_scalar", 
      "name": "_mulscalar339", 
      "attrs": {"scalar": "1"}, 
      "inputs": [[431, 0, 0]]
    }, 
    {
      "op": "tile", 
      "name": "tile1044", 
      "attrs": {"reps": "(5, 10, 1, 1)"}, 
      "inputs": [[87, 0, 0]]
    }, 
    {
      "op": "BlockGrad", 
      "name": "blockgrad1317", 
      "inputs": [[433, 0, 0]]
    }, 
    {
      "op": "null", 
      "name": "param_2->3_[3,3]_3_1_s19_Ord1_angular_(1,1,10,5)_weight", 
      "inputs": []
    }, 
    {
      "op": "broadcast_mul", 
      "name": "broadcast_mul880", 
      "inputs": [[434, 0, 0], [435, 0, 0]]
    }, 
    {
      "op": "null", 
      "name": "param_2->3_[3,3]_3_1_s19_Ord1_angular_(1,1,10,5)_bias", 
      "inputs": []
    }, 
    {
      "op": "broadcast_add", 
      "name": "broadcast_add824", 
      "inputs": [[436, 0, 0], [437, 0, 0]]
    }, 
    {
      "op": "elemwise_add", 
      "name": "elemwise_add385", 
      "inputs": [[432, 0, 0], [438, 0, 0]]
    }, 
    {
      "op": "cos", 
      "name": "cos329", 
      "inputs": [[439, 0, 0]]
    }, 
    {
      "op": "ones_like", 
      "name": "ones_like329", 
      "inputs": [[434, 0, 0]]
    }, 
    {
      "op": "broadcast_lesser", 
      "name": "broadcast_lesser329", 
      "inputs": [[434, 0, 0], [441, 0, 0]]
    }, 
    {
      "op": "BlockGrad", 
      "name": "blockgrad1319", 
      "inputs": [[442, 0, 0]]
    }, 
    {
      "op": "elemwise_mul", 
      "name": "elemwise_mul1373", 
      "inputs": [[440, 0, 0], [443, 0, 0]]
    }, 
    {
      "op": "null", 
      "name": "param_2->3_[3,3]_3_1_s19_Ord1_radial_(1,1,10,5)_weight", 
      "inputs": []
    }, 
    {
      "op": "broadcast_mul", 
      "name": "broadcast_mul879", 
      "inputs": [[434, 0, 0], [445, 0, 0]]
    }, 
    {
      "op": "null", 
      "name": "param_2->3_[3,3]_3_1_s19_Ord1_radial_(1,1,10,5)_bias", 
      "inputs": []
    }, 
    {
      "op": "broadcast_add", 
      "name": "broadcast_add823", 
      "inputs": [[446, 0, 0], [447, 0, 0]]
    }, 
    {
      "op": "abs", 
      "name": "abs329", 
      "inputs": [[448, 0, 0]]
    }, 
    {
      "op": "elemwise_mul", 
      "name": "elemwise_mul1375", 
      "inputs": [[444, 0, 0], [449, 0, 0]]
    }, 
    {
      "op": "tile", 
      "name": "tile1050", 
      "attrs": {"reps": "(5, 5, 1, 1)"}, 
      "inputs": [[87, 0, 0]]
    }, 
    {
      "op": "BlockGrad", 
      "name": "blockgrad1326", 
      "inputs": [[451, 0, 0]]
    }, 
    {
      "op": "null", 
      "name": "param_3->3_[3,3]_3_1_s19_Ord0_radial_(1,1,5,5)_weight", 
      "inputs": []
    }, 
    {
      "op": "broadcast_mul", 
      "name": "broadcast_mul885", 
      "inputs": [[452, 0, 0], [453, 0, 0]]
    }, 
    {
      "op": "null", 
      "name": "param_3->3_[3,3]_3_1_s19_Ord0_radial_(1,1,5,5)_bias", 
      "inputs": []
    }, 
    {
      "op": "broadcast_add", 
      "name": "broadcast_add829", 
      "inputs": [[454, 0, 0], [455, 0, 0]]
    }, 
    {
      "op": "Concat", 
      "name": "concat727", 
      "attrs": {
        "dim": "1", 
        "num_args": "3"
      }, 
      "inputs": [[429, 0, 0], [450, 0, 0], [456, 0, 0]]
    }, 
    {
      "op": "sin", 
      "name": "sin327", 
      "inputs": [[418, 0, 0]]
    }, 
    {
      "op": "elemwise_mul", 
      "name": "elemwise_mul1364", 
      "inputs": [[458, 0, 0], [422, 0, 0]]
    }, 
    {
      "op": "elemwise_mul", 
      "name": "elemwise_mul1366", 
      "inputs": [[459, 0, 0], [428, 0, 0]]
    }, 
    {
      "op": "sin", 
      "name": "sin329", 
      "inputs": [[439, 0, 0]]
    }, 
    {
      "op": "elemwise_mul", 
      "name": "elemwise_mul1372", 
      "inputs": [[461, 0, 0], [443, 0, 0]]
    }, 
    {
      "op": "elemwise_mul", 
      "name": "elemwise_mul1374", 
      "inputs": [[462, 0, 0], [449, 0, 0]]
    }, 
    {
      "op": "zeros_like", 
      "name": "zeros_like165", 
      "inputs": [[456, 0, 0]]
    }, 
    {
      "op": "Concat", 
      "name": "concat728", 
      "attrs": {
        "dim": "1", 
        "num_args": "3"
      }, 
      "inputs": [[460, 0, 0], [463, 0, 0], [464, 0, 0]]
    }, 
    {
      "op": "Concat", 
      "name": "concat729", 
      "attrs": {
        "dim": "1", 
        "num_args": "2"
      }, 
      "inputs": [[457, 0, 0], [465, 0, 0]]
    }, 
    {
      "op": "negative", 
      "name": "negative329", 
      "inputs": [[348, 0, 0]]
    }, 
    {
      "op": "Concat", 
      "name": "concat722", 
      "attrs": {
        "dim": "1", 
        "num_args": "2"
      }, 
      "inputs": [[467, 0, 0], [338, 0, 0]]
    }, 
    {
      "op": "negative", 
      "name": "negative331", 
      "inputs": [[407, 0, 0]]
    }, 
    {
      "op": "Concat", 
      "name": "concat726", 
      "attrs": {
        "dim": "1", 
        "num_args": "2"
      }, 
      "inputs": [[469, 0, 0], [398, 0, 0]]
    }, 
    {
      "op": "negative", 
      "name": "negative332", 
      "inputs": [[465, 0, 0]]
    }, 
    {
      "op": "Concat", 
      "name": "concat730", 
      "attrs": {
        "dim": "1", 
        "num_args": "2"
      }, 
      "inputs": [[471, 0, 0], [457, 0, 0]]
    }, 
    {
      "op": "Concat", 
      "name": "concat731", 
      "attrs": {
        "dim": "0", 
        "num_args": "6"
      }, 
      "inputs": [[349, 0, 0], [408, 0, 0], [466, 0, 0], [468, 0, 0], [470, 0, 0], [472, 0, 0]]
    }, 
    {
      "op": "Cast", 
      "name": "cast129", 
      "attrs": {"dtype": "float32"}, 
      "inputs": [[473, 0, 0]]
    }, 
    {
      "op": "Convolution", 
      "name": "conv_[3,3]_3_1_s19", 
      "attrs": {
        "dilate": "(1, 1)", 
        "kernel": "(3, 3)", 
        "no_bias": "1", 
        "num_filter": "42", 
        "pad": "(0, 0)", 
        "stride": "(1, 1)"
      }, 
      "inputs": [[289, 0, 0], [474, 0, 0]]
    }, 
    {
      "op": "square", 
      "name": "square56", 
      "inputs": [[475, 0, 0]]
    }, 
    {
      "op": "SliceChannel", 
      "name": "split56", 
      "attrs": {
        "axis": "1", 
        "num_outputs": "2"
      }, 
      "inputs": [[476, 0, 0]]
    }, 
    {
      "op": "elemwise_add", 
      "name": "elemwise_add388", 
      "inputs": [[477, 0, 0], [477, 1, 0]]
    }, 
    {
      "op": "_plus_scalar", 
      "name": "_plusscalar130", 
      "attrs": {"scalar": "2e-05"}, 
      "inputs": [[478, 0, 0]]
    }, 
    {
      "op": "sqrt", 
      "name": "sqrt56", 
      "inputs": [[479, 0, 0]]
    }, 
    {
      "op": "tanh", 
      "name": "tanh56", 
      "inputs": [[480, 0, 0]]
    }, 
    {
      "op": "null", 
      "name": "3_1_s19_(1,1,21,1)_mag_weight", 
      "inputs": []
    }, 
    {
      "op": "Cast", 
      "name": "cast130", 
      "attrs": {"dtype": "float32"}, 
      "inputs": [[482, 0, 0]]
    }, 
    {
      "op": "LeakyReLU", 
      "name": "leakyrelu56", 
      "attrs": {
        "act_type": "elu", 
        "slope": "1"
      }, 
      "inputs": [[483, 0, 0]]
    }, 
    {
      "op": "_plus_scalar", 
      "name": "_plusscalar131", 
      "attrs": {"scalar": "1"}, 
      "inputs": [[484, 0, 0]]
    }, 
    {
      "op": "broadcast_mul", 
      "name": "broadcast_mul886", 
      "inputs": [[481, 0, 0], [485, 0, 0]]
    }, 
    {
      "op": "elemwise_div", 
      "name": "_div56", 
      "inputs": [[486, 0, 0], [480, 0, 0]]
    }, 
    {
      "op": "tile", 
      "name": "tile1052", 
      "attrs": {"reps": "(1, 2, 1, 1)"}, 
      "inputs": [[487, 0, 0]]
    }, 
    {
      "op": "elemwise_mul", 
      "name": "elemwise_mul1384", 
      "inputs": [[475, 0, 0], [488, 0, 0]]
    }, 
    {
      "op": "Pad", 
      "name": "pad57", 
      "attrs": {
        "mode": "edge", 
        "pad_width": "(0, 0, 0, 0, 1, 1, 1, 1)"
      }, 
      "inputs": [[489, 0, 0]]
    }, 
    {
      "op": "tile", 
      "name": "tile1053", 
      "attrs": {"reps": "(6, 6, 1, 1)"}, 
      "inputs": [[87, 0, 0]]
    }, 
    {
      "op": "BlockGrad", 
      "name": "blockgrad1328", 
      "inputs": [[491, 0, 0]]
    }, 
    {
      "op": "null", 
      "name": "param_1->1_[3,3]_3_2_s96_Ord0_radial_(1,1,6,6)_weight", 
      "inputs": []
    }, 
    {
      "op": "broadcast_mul", 
      "name": "broadcast_mul887", 
      "inputs": [[492, 0, 0], [493, 0, 0]]
    }, 
    {
      "op": "null", 
      "name": "param_1->1_[3,3]_3_2_s96_Ord0_radial_(1,1,6,6)_bias", 
      "inputs": []
    }, 
    {
      "op": "broadcast_add", 
      "name": "broadcast_add830", 
      "inputs": [[494, 0, 0], [495, 0, 0]]
    }, 
    {
      "op": "tile", 
      "name": "tile1060", 
      "attrs": {"reps": "(6, 10, 1, 1)"}, 
      "inputs": [[94, 0, 0]]
    }, 
    {
      "op": "BlockGrad", 
      "name": "blockgrad1337", 
      "inputs": [[497, 0, 0]]
    }, 
    {
      "op": "_mul_scalar", 
      "name": "_mulscalar344", 
      "attrs": {"scalar": "1"}, 
      "inputs": [[498, 0, 0]]
    }, 
    {
      "op": "tile", 
      "name": "tile1059", 
      "attrs": {"reps": "(6, 10, 1, 1)"}, 
      "inputs": [[87, 0, 0]]
    }, 
    {
      "op": "BlockGrad", 
      "name": "blockgrad1336", 
      "inputs": [[500, 0, 0]]
    }, 
    {
      "op": "null", 
      "name": "param_2->1_[3,3]_3_2_s96_Ord1_angular_(1,1,10,6)_weight", 
      "inputs": []
    }, 
    {
      "op": "broadcast_mul", 
      "name": "broadcast_mul893", 
      "inputs": [[501, 0, 0], [502, 0, 0]]
    }, 
    {
      "op": "null", 
      "name": "param_2->1_[3,3]_3_2_s96_Ord1_angular_(1,1,10,6)_bias", 
      "inputs": []
    }, 
    {
      "op": "broadcast_add", 
      "name": "broadcast_add836", 
      "inputs": [[503, 0, 0], [504, 0, 0]]
    }, 
    {
      "op": "elemwise_add", 
      "name": "elemwise_add391", 
      "inputs": [[499, 0, 0], [505, 0, 0]]
    }, 
    {
      "op": "cos", 
      "name": "cos334", 
      "inputs": [[506, 0, 0]]
    }, 
    {
      "op": "ones_like", 
      "name": "ones_like334", 
      "inputs": [[501, 0, 0]]
    }, 
    {
      "op": "broadcast_lesser", 
      "name": "broadcast_lesser334", 
      "inputs": [[501, 0, 0], [508, 0, 0]]
    }, 
    {
      "op": "BlockGrad", 
      "name": "blockgrad1338", 
      "inputs": [[509, 0, 0]]
    }, 
    {
      "op": "elemwise_mul", 
      "name": "elemwise_mul1394", 
      "inputs": [[507, 0, 0], [510, 0, 0]]
    }, 
    {
      "op": "null", 
      "name": "param_2->1_[3,3]_3_2_s96_Ord1_radial_(1,1,10,6)_weight", 
      "inputs": []
    }, 
    {
      "op": "broadcast_mul", 
      "name": "broadcast_mul892", 
      "inputs": [[501, 0, 0], [512, 0, 0]]
    }, 
    {
      "op": "null", 
      "name": "param_2->1_[3,3]_3_2_s96_Ord1_radial_(1,1,10,6)_bias", 
      "inputs": []
    }, 
    {
      "op": "broadcast_add", 
      "name": "broadcast_add835", 
      "inputs": [[513, 0, 0], [514, 0, 0]]
    }, 
    {
      "op": "abs", 
      "name": "abs334", 
      "inputs": [[515, 0, 0]]
    }, 
    {
      "op": "elemwise_mul", 
      "name": "elemwise_mul1396", 
      "inputs": [[511, 0, 0], [516, 0, 0]]
    }, 
    {
      "op": "tile", 
      "name": "tile1066", 
      "attrs": {"reps": "(6, 5, 1, 1)"}, 
      "inputs": [[94, 0, 0]]
    }, 
    {
      "op": "BlockGrad", 
      "name": "blockgrad1345", 
      "inputs": [[518, 0, 0]]
    }, 
    {
      "op": "_mul_scalar", 
      "name": "_mulscalar346", 
      "attrs": {"scalar": "2"}, 
      "inputs": [[519, 0, 0]]
    }, 
    {
      "op": "tile", 
      "name": "tile1065", 
      "attrs": {"reps": "(6, 5, 1, 1)"}, 
      "inputs": [[87, 0, 0]]
    }, 
    {
      "op": "BlockGrad", 
      "name": "blockgrad1344", 
      "inputs": [[521, 0, 0]]
    }, 
    {
      "op": "null", 
      "name": "param_3->1_[3,3]_3_2_s96_Ord2_angular_(1,1,5,6)_weight", 
      "inputs": []
    }, 
    {
      "op": "broadcast_mul", 
      "name": "broadcast_mul898", 
      "inputs": [[522, 0, 0], [523, 0, 0]]
    }, 
    {
      "op": "null", 
      "name": "param_3->1_[3,3]_3_2_s96_Ord2_angular_(1,1,5,6)_bias", 
      "inputs": []
    }, 
    {
      "op": "broadcast_add", 
      "name": "broadcast_add841", 
      "inputs": [[524, 0, 0], [525, 0, 0]]
    }, 
    {
      "op": "elemwise_add", 
      "name": "elemwise_add393", 
      "inputs": [[520, 0, 0], [526, 0, 0]]
    }, 
    {
      "op": "cos", 
      "name": "cos336", 
      "inputs": [[527, 0, 0]]
    }, 
    {
      "op": "ones_like", 
      "name": "ones_like336", 
      "inputs": [[522, 0, 0]]
    }, 
    {
      "op": "broadcast_lesser", 
      "name": "broadcast_lesser336", 
      "inputs": [[522, 0, 0], [529, 0, 0]]
    }, 
    {
      "op": "BlockGrad", 
      "name": "blockgrad1346", 
      "inputs": [[530, 0, 0]]
    }, 
    {
      "op": "elemwise_mul", 
      "name": "elemwise_mul1402", 
      "inputs": [[528, 0, 0], [531, 0, 0]]
    }, 
    {
      "op": "null", 
      "name": "param_3->1_[3,3]_3_2_s96_Ord2_radial_(1,1,5,6)_weight", 
      "inputs": []
    }, 
    {
      "op": "broadcast_mul", 
      "name": "broadcast_mul897", 
      "inputs": [[522, 0, 0], [533, 0, 0]]
    }, 
    {
      "op": "null", 
      "name": "param_3->1_[3,3]_3_2_s96_Ord2_radial_(1,1,5,6)_bias", 
      "inputs": []
    }, 
    {
      "op": "broadcast_add", 
      "name": "broadcast_add840", 
      "inputs": [[534, 0, 0], [535, 0, 0]]
    }, 
    {
      "op": "abs", 
      "name": "abs336", 
      "inputs": [[536, 0, 0]]
    }, 
    {
      "op": "elemwise_mul", 
      "name": "elemwise_mul1404", 
      "inputs": [[532, 0, 0], [537, 0, 0]]
    }, 
    {
      "op": "Concat", 
      "name": "concat732", 
      "attrs": {
        "dim": "1", 
        "num_args": "3"
      }, 
      "inputs": [[496, 0, 0], [517, 0, 0], [538, 0, 0]]
    }, 
    {
      "op": "zeros_like", 
      "name": "zeros_like166", 
      "inputs": [[496, 0, 0]]
    }, 
    {
      "op": "sin", 
      "name": "sin334", 
      "inputs": [[506, 0, 0]]
    }, 
    {
      "op": "elemwise_mul", 
      "name": "elemwise_mul1393", 
      "inputs": [[541, 0, 0], [510, 0, 0]]
    }, 
    {
      "op": "elemwise_mul", 
      "name": "elemwise_mul1395", 
      "inputs": [[542, 0, 0], [516, 0, 0]]
    }, 
    {
      "op": "negative", 
      "name": "negative333", 
      "inputs": [[543, 0, 0]]
    }, 
    {
      "op": "sin", 
      "name": "sin336", 
      "inputs": [[527, 0, 0]]
    }, 
    {
      "op": "elemwise_mul", 
      "name": "elemwise_mul1401", 
      "inputs": [[545, 0, 0], [531, 0, 0]]
    }, 
    {
      "op": "elemwise_mul", 
      "name": "elemwise_mul1403", 
      "inputs": [[546, 0, 0], [537, 0, 0]]
    }, 
    {
      "op": "negative", 
      "name": "negative334", 
      "inputs": [[547, 0, 0]]
    }, 
    {
      "op": "Concat", 
      "name": "concat733", 
      "attrs": {
        "dim": "1", 
        "num_args": "3"
      }, 
      "inputs": [[540, 0, 0], [544, 0, 0], [548, 0, 0]]
    }, 
    {
      "op": "Concat", 
      "name": "concat734", 
      "attrs": {
        "dim": "1", 
        "num_args": "2"
      }, 
      "inputs": [[539, 0, 0], [549, 0, 0]]
    }, 
    {
      "op": "tile", 
      "name": "tile1056", 
      "attrs": {"reps": "(10, 6, 1, 1)"}, 
      "inputs": [[94, 0, 0]]
    }, 
    {
      "op": "BlockGrad", 
      "name": "blockgrad1331", 
      "inputs": [[551, 0, 0]]
    }, 
    {
      "op": "_mul_scalar", 
      "name": "_mulscalar342", 
      "attrs": {"scalar": "1"}, 
      "inputs": [[552, 0, 0]]
    }, 
    {
      "op": "tile", 
      "name": "tile1055", 
      "attrs": {"reps": "(10, 6, 1, 1)"}, 
      "inputs": [[87, 0, 0]]
    }, 
    {
      "op": "BlockGrad", 
      "name": "blockgrad1330", 
      "inputs": [[554, 0, 0]]
    }, 
    {
      "op": "null", 
      "name": "param_1->2_[3,3]_3_2_s96_Ord1_angular_(1,1,6,10)_weight", 
      "inputs": []
    }, 
    {
      "op": "broadcast_mul", 
      "name": "broadcast_mul889", 
      "inputs": [[555, 0, 0], [556, 0, 0]]
    }, 
    {
      "op": "null", 
      "name": "param_1->2_[3,3]_3_2_s96_Ord1_angular_(1,1,6,10)_bias", 
      "inputs": []
    }, 
    {
      "op": "broadcast_add", 
      "name": "broadcast_add832", 
      "inputs": [[557, 0, 0], [558, 0, 0]]
    }, 
    {
      "op": "elemwise_add", 
      "name": "elemwise_add389", 
      "inputs": [[553, 0, 0], [559, 0, 0]]
    }, 
    {
      "op": "cos", 
      "name": "cos332", 
      "inputs": [[560, 0, 0]]
    }, 
    {
      "op": "ones_like", 
      "name": "ones_like332", 
      "inputs": [[555, 0, 0]]
    }, 
    {
      "op": "broadcast_lesser", 
      "name": "broadcast_lesser332", 
      "inputs": [[555, 0, 0], [562, 0, 0]]
    }, 
    {
      "op": "BlockGrad", 
      "name": "blockgrad1332", 
      "inputs": [[563, 0, 0]]
    }, 
    {
      "op": "elemwise_mul", 
      "name": "elemwise_mul1386", 
      "inputs": [[561, 0, 0], [564, 0, 0]]
    }, 
    {
      "op": "null", 
      "name": "param_1->2_[3,3]_3_2_s96_Ord1_radial_(1,1,6,10)_weight", 
      "inputs": []
    }, 
    {
      "op": "broadcast_mul", 
      "name": "broadcast_mul888", 
      "inputs": [[555, 0, 0], [566, 0, 0]]
    }, 
    {
      "op": "null", 
      "name": "param_1->2_[3,3]_3_2_s96_Ord1_radial_(1,1,6,10)_bias", 
      "inputs": []
    }, 
    {
      "op": "broadcast_add", 
      "name": "broadcast_add831", 
      "inputs": [[567, 0, 0], [568, 0, 0]]
    }, 
    {
      "op": "abs", 
      "name": "abs332", 
      "inputs": [[569, 0, 0]]
    }, 
    {
      "op": "elemwise_mul", 
      "name": "elemwise_mul1388", 
      "inputs": [[565, 0, 0], [570, 0, 0]]
    }, 
    {
      "op": "tile", 
      "name": "tile1061", 
      "attrs": {"reps": "(10, 10, 1, 1)"}, 
      "inputs": [[87, 0, 0]]
    }, 
    {
      "op": "BlockGrad", 
      "name": "blockgrad1339", 
      "inputs": [[572, 0, 0]]
    }, 
    {
      "op": "null", 
      "name": "param_2->2_[3,3]_3_2_s96_Ord0_radial_(1,1,10,10)_weight", 
      "inputs": []
    }, 
    {
      "op": "broadcast_mul", 
      "name": "broadcast_mul894", 
      "inputs": [[573, 0, 0], [574, 0, 0]]
    }, 
    {
      "op": "null", 
      "name": "param_2->2_[3,3]_3_2_s96_Ord0_radial_(1,1,10,10)_bias", 
      "inputs": []
    }, 
    {
      "op": "broadcast_add", 
      "name": "broadcast_add837", 
      "inputs": [[575, 0, 0], [576, 0, 0]]
    }, 
    {
      "op": "tile", 
      "name": "tile1068", 
      "attrs": {"reps": "(10, 5, 1, 1)"}, 
      "inputs": [[94, 0, 0]]
    }, 
    {
      "op": "BlockGrad", 
      "name": "blockgrad1348", 
      "inputs": [[578, 0, 0]]
    }, 
    {
      "op": "_mul_scalar", 
      "name": "_mulscalar347", 
      "attrs": {"scalar": "1"}, 
      "inputs": [[579, 0, 0]]
    }, 
    {
      "op": "tile", 
      "name": "tile1067", 
      "attrs": {"reps": "(10, 5, 1, 1)"}, 
      "inputs": [[87, 0, 0]]
    }, 
    {
      "op": "BlockGrad", 
      "name": "blockgrad1347", 
      "inputs": [[581, 0, 0]]
    }, 
    {
      "op": "null", 
      "name": "param_3->2_[3,3]_3_2_s96_Ord1_angular_(1,1,5,10)_weight", 
      "inputs": []
    }, 
    {
      "op": "broadcast_mul", 
      "name": "broadcast_mul900", 
      "inputs": [[582, 0, 0], [583, 0, 0]]
    }, 
    {
      "op": "null", 
      "name": "param_3->2_[3,3]_3_2_s96_Ord1_angular_(1,1,5,10)_bias", 
      "inputs": []
    }, 
    {
      "op": "broadcast_add", 
      "name": "broadcast_add843", 
      "inputs": [[584, 0, 0], [585, 0, 0]]
    }, 
    {
      "op": "elemwise_add", 
      "name": "elemwise_add394", 
      "inputs": [[580, 0, 0], [586, 0, 0]]
    }, 
    {
      "op": "cos", 
      "name": "cos337", 
      "inputs": [[587, 0, 0]]
    }, 
    {
      "op": "ones_like", 
      "name": "ones_like337", 
      "inputs": [[582, 0, 0]]
    }, 
    {
      "op": "broadcast_lesser", 
      "name": "broadcast_lesser337", 
      "inputs": [[582, 0, 0], [589, 0, 0]]
    }, 
    {
      "op": "BlockGrad", 
      "name": "blockgrad1349", 
      "inputs": [[590, 0, 0]]
    }, 
    {
      "op": "elemwise_mul", 
      "name": "elemwise_mul1406", 
      "inputs": [[588, 0, 0], [591, 0, 0]]
    }, 
    {
      "op": "null", 
      "name": "param_3->2_[3,3]_3_2_s96_Ord1_radial_(1,1,5,10)_weight", 
      "inputs": []
    }, 
    {
      "op": "broadcast_mul", 
      "name": "broadcast_mul899", 
      "inputs": [[582, 0, 0], [593, 0, 0]]
    }, 
    {
      "op": "null", 
      "name": "param_3->2_[3,3]_3_2_s96_Ord1_radial_(1,1,5,10)_bias", 
      "inputs": []
    }, 
    {
      "op": "broadcast_add", 
      "name": "broadcast_add842", 
      "inputs": [[594, 0, 0], [595, 0, 0]]
    }, 
    {
      "op": "abs", 
      "name": "abs337", 
      "inputs": [[596, 0, 0]]
    }, 
    {
      "op": "elemwise_mul", 
      "name": "elemwise_mul1408", 
      "inputs": [[592, 0, 0], [597, 0, 0]]
    }, 
    {
      "op": "Concat", 
      "name": "concat736", 
      "attrs": {
        "dim": "1", 
        "num_args": "3"
      }, 
      "inputs": [[571, 0, 0], [577, 0, 0], [598, 0, 0]]
    }, 
    {
      "op": "sin", 
      "name": "sin332", 
      "inputs": [[560, 0, 0]]
    }, 
    {
      "op": "elemwise_mul", 
      "name": "elemwise_mul1385", 
      "inputs": [[600, 0, 0], [564, 0, 0]]
    }, 
    {
      "op": "elemwise_mul", 
      "name": "elemwise_mul1387", 
      "inputs": [[601, 0, 0], [570, 0, 0]]
    }, 
    {
      "op": "zeros_like", 
      "name": "zeros_like167", 
      "inputs": [[577, 0, 0]]
    }, 
    {
      "op": "sin", 
      "name": "sin337", 
      "inputs": [[587, 0, 0]]
    }, 
    {
      "op": "elemwise_mul", 
      "name": "elemwise_mul1405", 
      "inputs": [[604, 0, 0], [591, 0, 0]]
    }, 
    {
      "op": "elemwise_mul", 
      "name": "elemwise_mul1407", 
      "inputs": [[605, 0, 0], [597, 0, 0]]
    }, 
    {
      "op": "negative", 
      "name": "negative336", 
      "inputs": [[606, 0, 0]]
    }, 
    {
      "op": "Concat", 
      "name": "concat737", 
      "attrs": {
        "dim": "1", 
        "num_args": "3"
      }, 
      "inputs": [[602, 0, 0], [603, 0, 0], [607, 0, 0]]
    }, 
    {
      "op": "Concat", 
      "name": "concat738", 
      "attrs": {
        "dim": "1", 
        "num_args": "2"
      }, 
      "inputs": [[599, 0, 0], [608, 0, 0]]
    }, 
    {
      "op": "tile", 
      "name": "tile1058", 
      "attrs": {"reps": "(5, 6, 1, 1)"}, 
      "inputs": [[94, 0, 0]]
    }, 
    {
      "op": "BlockGrad", 
      "name": "blockgrad1334", 
      "inputs": [[610, 0, 0]]
    }, 
    {
      "op": "_mul_scalar", 
      "name": "_mulscalar343", 
      "attrs": {"scalar": "2"}, 
      "inputs": [[611, 0, 0]]
    }, 
    {
      "op": "tile", 
      "name": "tile1057", 
      "attrs": {"reps": "(5, 6, 1, 1)"}, 
      "inputs": [[87, 0, 0]]
    }, 
    {
      "op": "BlockGrad", 
      "name": "blockgrad1333", 
      "inputs": [[613, 0, 0]]
    }, 
    {
      "op": "null", 
      "name": "param_1->3_[3,3]_3_2_s96_Ord2_angular_(1,1,6,5)_weight", 
      "inputs": []
    }, 
    {
      "op": "broadcast_mul", 
      "name": "broadcast_mul891", 
      "inputs": [[614, 0, 0], [615, 0, 0]]
    }, 
    {
      "op": "null", 
      "name": "param_1->3_[3,3]_3_2_s96_Ord2_angular_(1,1,6,5)_bias", 
      "inputs": []
    }, 
    {
      "op": "broadcast_add", 
      "name": "broadcast_add834", 
      "inputs": [[616, 0, 0], [617, 0, 0]]
    }, 
    {
      "op": "elemwise_add", 
      "name": "elemwise_add390", 
      "inputs": [[612, 0, 0], [618, 0, 0]]
    }, 
    {
      "op": "cos", 
      "name": "cos333", 
      "inputs": [[619, 0, 0]]
    }, 
    {
      "op": "ones_like", 
      "name": "ones_like333", 
      "inputs": [[614, 0, 0]]
    }, 
    {
      "op": "broadcast_lesser", 
      "name": "broadcast_lesser333", 
      "inputs": [[614, 0, 0], [621, 0, 0]]
    }, 
    {
      "op": "BlockGrad", 
      "name": "blockgrad1335", 
      "inputs": [[622, 0, 0]]
    }, 
    {
      "op": "elemwise_mul", 
      "name": "elemwise_mul1390", 
      "inputs": [[620, 0, 0], [623, 0, 0]]
    }, 
    {
      "op": "null", 
      "name": "param_1->3_[3,3]_3_2_s96_Ord2_radial_(1,1,6,5)_weight", 
      "inputs": []
    }, 
    {
      "op": "broadcast_mul", 
      "name": "broadcast_mul890", 
      "inputs": [[614, 0, 0], [625, 0, 0]]
    }, 
    {
      "op": "null", 
      "name": "param_1->3_[3,3]_3_2_s96_Ord2_radial_(1,1,6,5)_bias", 
      "inputs": []
    }, 
    {
      "op": "broadcast_add", 
      "name": "broadcast_add833", 
      "inputs": [[626, 0, 0], [627, 0, 0]]
    }, 
    {
      "op": "abs", 
      "name": "abs333", 
      "inputs": [[628, 0, 0]]
    }, 
    {
      "op": "elemwise_mul", 
      "name": "elemwise_mul1392", 
      "inputs": [[624, 0, 0], [629, 0, 0]]
    }, 
    {
      "op": "tile", 
      "name": "tile1064", 
      "attrs": {"reps": "(5, 10, 1, 1)"}, 
      "inputs": [[94, 0, 0]]
    }, 
    {
      "op": "BlockGrad", 
      "name": "blockgrad1342", 
      "inputs": [[631, 0, 0]]
    }, 
    {
      "op": "_mul_scalar", 
      "name": "_mulscalar345", 
      "attrs": {"scalar": "1"}, 
      "inputs": [[632, 0, 0]]
    }, 
    {
      "op": "tile", 
      "name": "tile1063", 
      "attrs": {"reps": "(5, 10, 1, 1)"}, 
      "inputs": [[87, 0, 0]]
    }, 
    {
      "op": "BlockGrad", 
      "name": "blockgrad1341", 
      "inputs": [[634, 0, 0]]
    }, 
    {
      "op": "null", 
      "name": "param_2->3_[3,3]_3_2_s96_Ord1_angular_(1,1,10,5)_weight", 
      "inputs": []
    }, 
    {
      "op": "broadcast_mul", 
      "name": "broadcast_mul896", 
      "inputs": [[635, 0, 0], [636, 0, 0]]
    }, 
    {
      "op": "null", 
      "name": "param_2->3_[3,3]_3_2_s96_Ord1_angular_(1,1,10,5)_bias", 
      "inputs": []
    }, 
    {
      "op": "broadcast_add", 
      "name": "broadcast_add839", 
      "inputs": [[637, 0, 0], [638, 0, 0]]
    }, 
    {
      "op": "elemwise_add", 
      "name": "elemwise_add392", 
      "inputs": [[633, 0, 0], [639, 0, 0]]
    }, 
    {
      "op": "cos", 
      "name": "cos335", 
      "inputs": [[640, 0, 0]]
    }, 
    {
      "op": "ones_like", 
      "name": "ones_like335", 
      "inputs": [[635, 0, 0]]
    }, 
    {
      "op": "broadcast_lesser", 
      "name": "broadcast_lesser335", 
      "inputs": [[635, 0, 0], [642, 0, 0]]
    }, 
    {
      "op": "BlockGrad", 
      "name": "blockgrad1343", 
      "inputs": [[643, 0, 0]]
    }, 
    {
      "op": "elemwise_mul", 
      "name": "elemwise_mul1398", 
      "inputs": [[641, 0, 0], [644, 0, 0]]
    }, 
    {
      "op": "null", 
      "name": "param_2->3_[3,3]_3_2_s96_Ord1_radial_(1,1,10,5)_weight", 
      "inputs": []
    }, 
    {
      "op": "broadcast_mul", 
      "name": "broadcast_mul895", 
      "inputs": [[635, 0, 0], [646, 0, 0]]
    }, 
    {
      "op": "null", 
      "name": "param_2->3_[3,3]_3_2_s96_Ord1_radial_(1,1,10,5)_bias", 
      "inputs": []
    }, 
    {
      "op": "broadcast_add", 
      "name": "broadcast_add838", 
      "inputs": [[647, 0, 0], [648, 0, 0]]
    }, 
    {
      "op": "abs", 
      "name": "abs335", 
      "inputs": [[649, 0, 0]]
    }, 
    {
      "op": "elemwise_mul", 
      "name": "elemwise_mul1400", 
      "inputs": [[645, 0, 0], [650, 0, 0]]
    }, 
    {
      "op": "tile", 
      "name": "tile1069", 
      "attrs": {"reps": "(5, 5, 1, 1)"}, 
      "inputs": [[87, 0, 0]]
    }, 
    {
      "op": "BlockGrad", 
      "name": "blockgrad1350", 
      "inputs": [[652, 0, 0]]
    }, 
    {
      "op": "null", 
      "name": "param_3->3_[3,3]_3_2_s96_Ord0_radial_(1,1,5,5)_weight", 
      "inputs": []
    }, 
    {
      "op": "broadcast_mul", 
      "name": "broadcast_mul901", 
      "inputs": [[653, 0, 0], [654, 0, 0]]
    }, 
    {
      "op": "null", 
      "name": "param_3->3_[3,3]_3_2_s96_Ord0_radial_(1,1,5,5)_bias", 
      "inputs": []
    }, 
    {
      "op": "broadcast_add", 
      "name": "broadcast_add844", 
      "inputs": [[655, 0, 0], [656, 0, 0]]
    }, 
    {
      "op": "Concat", 
      "name": "concat740", 
      "attrs": {
        "dim": "1", 
        "num_args": "3"
      }, 
      "inputs": [[630, 0, 0], [651, 0, 0], [657, 0, 0]]
    }, 
    {
      "op": "sin", 
      "name": "sin333", 
      "inputs": [[619, 0, 0]]
    }, 
    {
      "op": "elemwise_mul", 
      "name": "elemwise_mul1389", 
      "inputs": [[659, 0, 0], [623, 0, 0]]
    }, 
    {
      "op": "elemwise_mul", 
      "name": "elemwise_mul1391", 
      "inputs": [[660, 0, 0], [629, 0, 0]]
    }, 
    {
      "op": "sin", 
      "name": "sin335", 
      "inputs": [[640, 0, 0]]
    }, 
    {
      "op": "elemwise_mul", 
      "name": "elemwise_mul1397", 
      "inputs": [[662, 0, 0], [644, 0, 0]]
    }, 
    {
      "op": "elemwise_mul", 
      "name": "elemwise_mul1399", 
      "inputs": [[663, 0, 0], [650, 0, 0]]
    }, 
    {
      "op": "zeros_like", 
      "name": "zeros_like168", 
      "inputs": [[657, 0, 0]]
    }, 
    {
      "op": "Concat", 
      "name": "concat741", 
      "attrs": {
        "dim": "1", 
        "num_args": "3"
      }, 
      "inputs": [[661, 0, 0], [664, 0, 0], [665, 0, 0]]
    }, 
    {
      "op": "Concat", 
      "name": "concat742", 
      "attrs": {
        "dim": "1", 
        "num_args": "2"
      }, 
      "inputs": [[658, 0, 0], [666, 0, 0]]
    }, 
    {
      "op": "negative", 
      "name": "negative335", 
      "inputs": [[549, 0, 0]]
    }, 
    {
      "op": "Concat", 
      "name": "concat735", 
      "attrs": {
        "dim": "1", 
        "num_args": "2"
      }, 
      "inputs": [[668, 0, 0], [539, 0, 0]]
    }, 
    {
      "op": "negative", 
      "name": "negative337", 
      "inputs": [[608, 0, 0]]
    }, 
    {
      "op": "Concat", 
      "name": "concat739", 
      "attrs": {
        "dim": "1", 
        "num_args": "2"
      }, 
      "inputs": [[670, 0, 0], [599, 0, 0]]
    }, 
    {
      "op": "negative", 
      "name": "negative338", 
      "inputs": [[666, 0, 0]]
    }, 
    {
      "op": "Concat", 
      "name": "concat743", 
      "attrs": {
        "dim": "1", 
        "num_args": "2"
      }, 
      "inputs": [[672, 0, 0], [658, 0, 0]]
    }, 
    {
      "op": "Concat", 
      "name": "concat744", 
      "attrs": {
        "dim": "0", 
        "num_args": "6"
      }, 
      "inputs": [[550, 0, 0], [609, 0, 0], [667, 0, 0], [669, 0, 0], [671, 0, 0], [673, 0, 0]]
    }, 
    {
      "op": "Cast", 
      "name": "cast131", 
      "attrs": {"dtype": "float32"}, 
      "inputs": [[674, 0, 0]]
    }, 
    {
      "op": "Convolution", 
      "name": "conv_[3,3]_3_2_s96", 
      "attrs": {
        "dilate": "(1, 1)", 
        "kernel": "(3, 3)", 
        "no_bias": "1", 
        "num_filter": "42", 
        "pad": "(0, 0)", 
        "stride": "(1, 1)"
      }, 
      "inputs": [[490, 0, 0], [675, 0, 0]]
    }, 
    {
      "op": "square", 
      "name": "square57", 
      "inputs": [[676, 0, 0]]
    }, 
    {
      "op": "SliceChannel", 
      "name": "split57", 
      "attrs": {
        "axis": "1", 
        "num_outputs": "2"
      }, 
      "inputs": [[677, 0, 0]]
    }, 
    {
      "op": "elemwise_add", 
      "name": "elemwise_add395", 
      "inputs": [[678, 0, 0], [678, 1, 0]]
    }, 
    {
      "op": "_plus_scalar", 
      "name": "_plusscalar132", 
      "attrs": {"scalar": "2e-05"}, 
      "inputs": [[679, 0, 0]]
    }, 
    {
      "op": "sqrt", 
      "name": "sqrt57", 
      "inputs": [[680, 0, 0]]
    }, 
    {
      "op": "tanh", 
      "name": "tanh57", 
      "inputs": [[681, 0, 0]]
    }, 
    {
      "op": "null", 
      "name": "3_2_s96_(1,1,21,1)_mag_weight", 
      "inputs": []
    }, 
    {
      "op": "Cast", 
      "name": "cast132", 
      "attrs": {"dtype": "float32"}, 
      "inputs": [[683, 0, 0]]
    }, 
    {
      "op": "LeakyReLU", 
      "name": "leakyrelu57", 
      "attrs": {
        "act_type": "elu", 
        "slope": "1"
      }, 
      "inputs": [[684, 0, 0]]
    }, 
    {
      "op": "_plus_scalar", 
      "name": "_plusscalar133", 
      "attrs": {"scalar": "1"}, 
      "inputs": [[685, 0, 0]]
    }, 
    {
      "op": "broadcast_mul", 
      "name": "broadcast_mul902", 
      "inputs": [[682, 0, 0], [686, 0, 0]]
    }, 
    {
      "op": "elemwise_div", 
      "name": "_div57", 
      "inputs": [[687, 0, 0], [681, 0, 0]]
    }, 
    {
      "op": "tile", 
      "name": "tile1071", 
      "attrs": {"reps": "(1, 2, 1, 1)"}, 
      "inputs": [[688, 0, 0]]
    }, 
    {
      "op": "elemwise_mul", 
      "name": "elemwise_mul1409", 
      "inputs": [[676, 0, 0], [689, 0, 0]]
    }, 
    {
      "op": "elemwise_add", 
      "name": "skipConn_3", 
      "inputs": [[288, 0, 0], [690, 0, 0]]
    }, 
    {
      "op": "Pad", 
      "name": "pad58", 
      "attrs": {
        "mode": "edge", 
        "pad_width": "(0, 0, 0, 0, 2, 2, 2, 2)"
      }, 
      "inputs": [[691, 0, 0]]
    }, 
    {
      "op": "tile", 
      "name": "tile1072", 
      "attrs": {"reps": "(6, 6, 1, 1)"}, 
      "inputs": [[87, 0, 0]]
    }, 
    {
      "op": "BlockGrad", 
      "name": "blockgrad1352", 
      "inputs": [[693, 0, 0]]
    }, 
    {
      "op": "null", 
      "name": "param_1->1_[3,3]_4_1_s30_Ord0_radial_(1,1,6,6)_weight", 
      "inputs": []
    }, 
    {
      "op": "broadcast_mul", 
      "name": "broadcast_mul903", 
      "inputs": [[694, 0, 0], [695, 0, 0]]
    }, 
    {
      "op": "null", 
      "name": "param_1->1_[3,3]_4_1_s30_Ord0_radial_(1,1,6,6)_bias", 
      "inputs": []
    }, 
    {
      "op": "broadcast_add", 
      "name": "broadcast_add845", 
      "inputs": [[696, 0, 0], [697, 0, 0]]
    }, 
    {
      "op": "tile", 
      "name": "tile1079", 
      "attrs": {"reps": "(6, 10, 1, 1)"}, 
      "inputs": [[94, 0, 0]]
    }, 
    {
      "op": "BlockGrad", 
      "name": "blockgrad1361", 
      "inputs": [[699, 0, 0]]
    }, 
    {
      "op": "_mul_scalar", 
      "name": "_mulscalar350", 
      "attrs": {"scalar": "1"}, 
      "inputs": [[700, 0, 0]]
    }, 
    {
      "op": "tile", 
      "name": "tile1078", 
      "attrs": {"reps": "(6, 10, 1, 1)"}, 
      "inputs": [[87, 0, 0]]
    }, 
    {
      "op": "BlockGrad", 
      "name": "blockgrad1360", 
      "inputs": [[702, 0, 0]]
    }, 
    {
      "op": "null", 
      "name": "param_2->1_[3,3]_4_1_s30_Ord1_angular_(1,1,10,6)_weight", 
      "inputs": []
    }, 
    {
      "op": "broadcast_mul", 
      "name": "broadcast_mul909", 
      "inputs": [[703, 0, 0], [704, 0, 0]]
    }, 
    {
      "op": "null", 
      "name": "param_2->1_[3,3]_4_1_s30_Ord1_angular_(1,1,10,6)_bias", 
      "inputs": []
    }, 
    {
      "op": "broadcast_add", 
      "name": "broadcast_add851", 
      "inputs": [[705, 0, 0], [706, 0, 0]]
    }, 
    {
      "op": "elemwise_add", 
      "name": "elemwise_add398", 
      "inputs": [[701, 0, 0], [707, 0, 0]]
    }, 
    {
      "op": "cos", 
      "name": "cos340", 
      "inputs": [[708, 0, 0]]
    }, 
    {
      "op": "ones_like", 
      "name": "ones_like340", 
      "inputs": [[703, 0, 0]]
    }, 
    {
      "op": "broadcast_lesser", 
      "name": "broadcast_lesser340", 
      "inputs": [[703, 0, 0], [710, 0, 0]]
    }, 
    {
      "op": "BlockGrad", 
      "name": "blockgrad1362", 
      "inputs": [[711, 0, 0]]
    }, 
    {
      "op": "elemwise_mul", 
      "name": "elemwise_mul1419", 
      "inputs": [[709, 0, 0], [712, 0, 0]]
    }, 
    {
      "op": "null", 
      "name": "param_2->1_[3,3]_4_1_s30_Ord1_radial_(1,1,10,6)_weight", 
      "inputs": []
    }, 
    {
      "op": "broadcast_mul", 
      "name": "broadcast_mul908", 
      "inputs": [[703, 0, 0], [714, 0, 0]]
    }, 
    {
      "op": "null", 
      "name": "param_2->1_[3,3]_4_1_s30_Ord1_radial_(1,1,10,6)_bias", 
      "inputs": []
    }, 
    {
      "op": "broadcast_add", 
      "name": "broadcast_add850", 
      "inputs": [[715, 0, 0], [716, 0, 0]]
    }, 
    {
      "op": "abs", 
      "name": "abs340", 
      "inputs": [[717, 0, 0]]
    }, 
    {
      "op": "elemwise_mul", 
      "name": "elemwise_mul1421", 
      "inputs": [[713, 0, 0], [718, 0, 0]]
    }, 
    {
      "op": "tile", 
      "name": "tile1085", 
      "attrs": {"reps": "(6, 5, 1, 1)"}, 
      "inputs": [[94, 0, 0]]
    }, 
    {
      "op": "BlockGrad", 
      "name": "blockgrad1369", 
      "inputs": [[720, 0, 0]]
    }, 
    {
      "op": "_mul_scalar", 
      "name": "_mulscalar352", 
      "attrs": {"scalar": "2"}, 
      "inputs": [[721, 0, 0]]
    }, 
    {
      "op": "tile", 
      "name": "tile1084", 
      "attrs": {"reps": "(6, 5, 1, 1)"}, 
      "inputs": [[87, 0, 0]]
    }, 
    {
      "op": "BlockGrad", 
      "name": "blockgrad1368", 
      "inputs": [[723, 0, 0]]
    }, 
    {
      "op": "null", 
      "name": "param_3->1_[3,3]_4_1_s30_Ord2_angular_(1,1,5,6)_weight", 
      "inputs": []
    }, 
    {
      "op": "broadcast_mul", 
      "name": "broadcast_mul914", 
      "inputs": [[724, 0, 0], [725, 0, 0]]
    }, 
    {
      "op": "null", 
      "name": "param_3->1_[3,3]_4_1_s30_Ord2_angular_(1,1,5,6)_bias", 
      "inputs": []
    }, 
    {
      "op": "broadcast_add", 
      "name": "broadcast_add856", 
      "inputs": [[726, 0, 0], [727, 0, 0]]
    }, 
    {
      "op": "elemwise_add", 
      "name": "elemwise_add400", 
      "inputs": [[722, 0, 0], [728, 0, 0]]
    }, 
    {
      "op": "cos", 
      "name": "cos342", 
      "inputs": [[729, 0, 0]]
    }, 
    {
      "op": "ones_like", 
      "name": "ones_like342", 
      "inputs": [[724, 0, 0]]
    }, 
    {
      "op": "broadcast_lesser", 
      "name": "broadcast_lesser342", 
      "inputs": [[724, 0, 0], [731, 0, 0]]
    }, 
    {
      "op": "BlockGrad", 
      "name": "blockgrad1370", 
      "inputs": [[732, 0, 0]]
    }, 
    {
      "op": "elemwise_mul", 
      "name": "elemwise_mul1427", 
      "inputs": [[730, 0, 0], [733, 0, 0]]
    }, 
    {
      "op": "null", 
      "name": "param_3->1_[3,3]_4_1_s30_Ord2_radial_(1,1,5,6)_weight", 
      "inputs": []
    }, 
    {
      "op": "broadcast_mul", 
      "name": "broadcast_mul913", 
      "inputs": [[724, 0, 0], [735, 0, 0]]
    }, 
    {
      "op": "null", 
      "name": "param_3->1_[3,3]_4_1_s30_Ord2_radial_(1,1,5,6)_bias", 
      "inputs": []
    }, 
    {
      "op": "broadcast_add", 
      "name": "broadcast_add855", 
      "inputs": [[736, 0, 0], [737, 0, 0]]
    }, 
    {
      "op": "abs", 
      "name": "abs342", 
      "inputs": [[738, 0, 0]]
    }, 
    {
      "op": "elemwise_mul", 
      "name": "elemwise_mul1429", 
      "inputs": [[734, 0, 0], [739, 0, 0]]
    }, 
    {
      "op": "Concat", 
      "name": "concat745", 
      "attrs": {
        "dim": "1", 
        "num_args": "3"
      }, 
      "inputs": [[698, 0, 0], [719, 0, 0], [740, 0, 0]]
    }, 
    {
      "op": "zeros_like", 
      "name": "zeros_like169", 
      "inputs": [[698, 0, 0]]
    }, 
    {
      "op": "sin", 
      "name": "sin340", 
      "inputs": [[708, 0, 0]]
    }, 
    {
      "op": "elemwise_mul", 
      "name": "elemwise_mul1418", 
      "inputs": [[743, 0, 0], [712, 0, 0]]
    }, 
    {
      "op": "elemwise_mul", 
      "name": "elemwise_mul1420", 
      "inputs": [[744, 0, 0], [718, 0, 0]]
    }, 
    {
      "op": "negative", 
      "name": "negative339", 
      "inputs": [[745, 0, 0]]
    }, 
    {
      "op": "sin", 
      "name": "sin342", 
      "inputs": [[729, 0, 0]]
    }, 
    {
      "op": "elemwise_mul", 
      "name": "elemwise_mul1426", 
      "inputs": [[747, 0, 0], [733, 0, 0]]
    }, 
    {
      "op": "elemwise_mul", 
      "name": "elemwise_mul1428", 
      "inputs": [[748, 0, 0], [739, 0, 0]]
    }, 
    {
      "op": "negative", 
      "name": "negative340", 
      "inputs": [[749, 0, 0]]
    }, 
    {
      "op": "Concat", 
      "name": "concat746", 
      "attrs": {
        "dim": "1", 
        "num_args": "3"
      }, 
      "inputs": [[742, 0, 0], [746, 0, 0], [750, 0, 0]]
    }, 
    {
      "op": "Concat", 
      "name": "concat747", 
      "attrs": {
        "dim": "1", 
        "num_args": "2"
      }, 
      "inputs": [[741, 0, 0], [751, 0, 0]]
    }, 
    {
      "op": "tile", 
      "name": "tile1075", 
      "attrs": {"reps": "(10, 6, 1, 1)"}, 
      "inputs": [[94, 0, 0]]
    }, 
    {
      "op": "BlockGrad", 
      "name": "blockgrad1355", 
      "inputs": [[753, 0, 0]]
    }, 
    {
      "op": "_mul_scalar", 
      "name": "_mulscalar348", 
      "attrs": {"scalar": "1"}, 
      "inputs": [[754, 0, 0]]
    }, 
    {
      "op": "tile", 
      "name": "tile1074", 
      "attrs": {"reps": "(10, 6, 1, 1)"}, 
      "inputs": [[87, 0, 0]]
    }, 
    {
      "op": "BlockGrad", 
      "name": "blockgrad1354", 
      "inputs": [[756, 0, 0]]
    }, 
    {
      "op": "null", 
      "name": "param_1->2_[3,3]_4_1_s30_Ord1_angular_(1,1,6,10)_weight", 
      "inputs": []
    }, 
    {
      "op": "broadcast_mul", 
      "name": "broadcast_mul905", 
      "inputs": [[757, 0, 0], [758, 0, 0]]
    }, 
    {
      "op": "null", 
      "name": "param_1->2_[3,3]_4_1_s30_Ord1_angular_(1,1,6,10)_bias", 
      "inputs": []
    }, 
    {
      "op": "broadcast_add", 
      "name": "broadcast_add847", 
      "inputs": [[759, 0, 0], [760, 0, 0]]
    }, 
    {
      "op": "elemwise_add", 
      "name": "elemwise_add396", 
      "inputs": [[755, 0, 0], [761, 0, 0]]
    }, 
    {
      "op": "cos", 
      "name": "cos338", 
      "inputs": [[762, 0, 0]]
    }, 
    {
      "op": "ones_like", 
      "name": "ones_like338", 
      "inputs": [[757, 0, 0]]
    }, 
    {
      "op": "broadcast_lesser", 
      "name": "broadcast_lesser338", 
      "inputs": [[757, 0, 0], [764, 0, 0]]
    }, 
    {
      "op": "BlockGrad", 
      "name": "blockgrad1356", 
      "inputs": [[765, 0, 0]]
    }, 
    {
      "op": "elemwise_mul", 
      "name": "elemwise_mul1411", 
      "inputs": [[763, 0, 0], [766, 0, 0]]
    }, 
    {
      "op": "null", 
      "name": "param_1->2_[3,3]_4_1_s30_Ord1_radial_(1,1,6,10)_weight", 
      "inputs": []
    }, 
    {
      "op": "broadcast_mul", 
      "name": "broadcast_mul904", 
      "inputs": [[757, 0, 0], [768, 0, 0]]
    }, 
    {
      "op": "null", 
      "name": "param_1->2_[3,3]_4_1_s30_Ord1_radial_(1,1,6,10)_bias", 
      "inputs": []
    }, 
    {
      "op": "broadcast_add", 
      "name": "broadcast_add846", 
      "inputs": [[769, 0, 0], [770, 0, 0]]
    }, 
    {
      "op": "abs", 
      "name": "abs338", 
      "inputs": [[771, 0, 0]]
    }, 
    {
      "op": "elemwise_mul", 
      "name": "elemwise_mul1413", 
      "inputs": [[767, 0, 0], [772, 0, 0]]
    }, 
    {
      "op": "tile", 
      "name": "tile1080", 
      "attrs": {"reps": "(10, 10, 1, 1)"}, 
      "inputs": [[87, 0, 0]]
    }, 
    {
      "op": "BlockGrad", 
      "name": "blockgrad1363", 
      "inputs": [[774, 0, 0]]
    }, 
    {
      "op": "null", 
      "name": "param_2->2_[3,3]_4_1_s30_Ord0_radial_(1,1,10,10)_weight", 
      "inputs": []
    }, 
    {
      "op": "broadcast_mul", 
      "name": "broadcast_mul910", 
      "inputs": [[775, 0, 0], [776, 0, 0]]
    }, 
    {
      "op": "null", 
      "name": "param_2->2_[3,3]_4_1_s30_Ord0_radial_(1,1,10,10)_bias", 
      "inputs": []
    }, 
    {
      "op": "broadcast_add", 
      "name": "broadcast_add852", 
      "inputs": [[777, 0, 0], [778, 0, 0]]
    }, 
    {
      "op": "tile", 
      "name": "tile1087", 
      "attrs": {"reps": "(10, 5, 1, 1)"}, 
      "inputs": [[94, 0, 0]]
    }, 
    {
      "op": "BlockGrad", 
      "name": "blockgrad1372", 
      "inputs": [[780, 0, 0]]
    }, 
    {
      "op": "_mul_scalar", 
      "name": "_mulscalar353", 
      "attrs": {"scalar": "1"}, 
      "inputs": [[781, 0, 0]]
    }, 
    {
      "op": "tile", 
      "name": "tile1086", 
      "attrs": {"reps": "(10, 5, 1, 1)"}, 
      "inputs": [[87, 0, 0]]
    }, 
    {
      "op": "BlockGrad", 
      "name": "blockgrad1371", 
      "inputs": [[783, 0, 0]]
    }, 
    {
      "op": "null", 
      "name": "param_3->2_[3,3]_4_1_s30_Ord1_angular_(1,1,5,10)_weight", 
      "inputs": []
    }, 
    {
      "op": "broadcast_mul", 
      "name": "broadcast_mul916", 
      "inputs": [[784, 0, 0], [785, 0, 0]]
    }, 
    {
      "op": "null", 
      "name": "param_3->2_[3,3]_4_1_s30_Ord1_angular_(1,1,5,10)_bias", 
      "inputs": []
    }, 
    {
      "op": "broadcast_add", 
      "name": "broadcast_add858", 
      "inputs": [[786, 0, 0], [787, 0, 0]]
    }, 
    {
      "op": "elemwise_add", 
      "name": "elemwise_add401", 
      "inputs": [[782, 0, 0], [788, 0, 0]]
    }, 
    {
      "op": "cos", 
      "name": "cos343", 
      "inputs": [[789, 0, 0]]
    }, 
    {
      "op": "ones_like", 
      "name": "ones_like343", 
      "inputs": [[784, 0, 0]]
    }, 
    {
      "op": "broadcast_lesser", 
      "name": "broadcast_lesser343", 
      "inputs": [[784, 0, 0], [791, 0, 0]]
    }, 
    {
      "op": "BlockGrad", 
      "name": "blockgrad1373", 
      "inputs": [[792, 0, 0]]
    }, 
    {
      "op": "elemwise_mul", 
      "name": "elemwise_mul1431", 
      "inputs": [[790, 0, 0], [793, 0, 0]]
    }, 
    {
      "op": "null", 
      "name": "param_3->2_[3,3]_4_1_s30_Ord1_radial_(1,1,5,10)_weight", 
      "inputs": []
    }, 
    {
      "op": "broadcast_mul", 
      "name": "broadcast_mul915", 
      "inputs": [[784, 0, 0], [795, 0, 0]]
    }, 
    {
      "op": "null", 
      "name": "param_3->2_[3,3]_4_1_s30_Ord1_radial_(1,1,5,10)_bias", 
      "inputs": []
    }, 
    {
      "op": "broadcast_add", 
      "name": "broadcast_add857", 
      "inputs": [[796, 0, 0], [797, 0, 0]]
    }, 
    {
      "op": "abs", 
      "name": "abs343", 
      "inputs": [[798, 0, 0]]
    }, 
    {
      "op": "elemwise_mul", 
      "name": "elemwise_mul1433", 
      "inputs": [[794, 0, 0], [799, 0, 0]]
    }, 
    {
      "op": "Concat", 
      "name": "concat749", 
      "attrs": {
        "dim": "1", 
        "num_args": "3"
      }, 
      "inputs": [[773, 0, 0], [779, 0, 0], [800, 0, 0]]
    }, 
    {
      "op": "sin", 
      "name": "sin338", 
      "inputs": [[762, 0, 0]]
    }, 
    {
      "op": "elemwise_mul", 
      "name": "elemwise_mul1410", 
      "inputs": [[802, 0, 0], [766, 0, 0]]
    }, 
    {
      "op": "elemwise_mul", 
      "name": "elemwise_mul1412", 
      "inputs": [[803, 0, 0], [772, 0, 0]]
    }, 
    {
      "op": "zeros_like", 
      "name": "zeros_like170", 
      "inputs": [[779, 0, 0]]
    }, 
    {
      "op": "sin", 
      "name": "sin343", 
      "inputs": [[789, 0, 0]]
    }, 
    {
      "op": "elemwise_mul", 
      "name": "elemwise_mul1430", 
      "inputs": [[806, 0, 0], [793, 0, 0]]
    }, 
    {
      "op": "elemwise_mul", 
      "name": "elemwise_mul1432", 
      "inputs": [[807, 0, 0], [799, 0, 0]]
    }, 
    {
      "op": "negative", 
      "name": "negative342", 
      "inputs": [[808, 0, 0]]
    }, 
    {
      "op": "Concat", 
      "name": "concat750", 
      "attrs": {
        "dim": "1", 
        "num_args": "3"
      }, 
      "inputs": [[804, 0, 0], [805, 0, 0], [809, 0, 0]]
    }, 
    {
      "op": "Concat", 
      "name": "concat751", 
      "attrs": {
        "dim": "1", 
        "num_args": "2"
      }, 
      "inputs": [[801, 0, 0], [810, 0, 0]]
    }, 
    {
      "op": "tile", 
      "name": "tile1077", 
      "attrs": {"reps": "(5, 6, 1, 1)"}, 
      "inputs": [[94, 0, 0]]
    }, 
    {
      "op": "BlockGrad", 
      "name": "blockgrad1358", 
      "inputs": [[812, 0, 0]]
    }, 
    {
      "op": "_mul_scalar", 
      "name": "_mulscalar349", 
      "attrs": {"scalar": "2"}, 
      "inputs": [[813, 0, 0]]
    }, 
    {
      "op": "tile", 
      "name": "tile1076", 
      "attrs": {"reps": "(5, 6, 1, 1)"}, 
      "inputs": [[87, 0, 0]]
    }, 
    {
      "op": "BlockGrad", 
      "name": "blockgrad1357", 
      "inputs": [[815, 0, 0]]
    }, 
    {
      "op": "null", 
      "name": "param_1->3_[3,3]_4_1_s30_Ord2_angular_(1,1,6,5)_weight", 
      "inputs": []
    }, 
    {
      "op": "broadcast_mul", 
      "name": "broadcast_mul907", 
      "inputs": [[816, 0, 0], [817, 0, 0]]
    }, 
    {
      "op": "null", 
      "name": "param_1->3_[3,3]_4_1_s30_Ord2_angular_(1,1,6,5)_bias", 
      "inputs": []
    }, 
    {
      "op": "broadcast_add", 
      "name": "broadcast_add849", 
      "inputs": [[818, 0, 0], [819, 0, 0]]
    }, 
    {
      "op": "elemwise_add", 
      "name": "elemwise_add397", 
      "inputs": [[814, 0, 0], [820, 0, 0]]
    }, 
    {
      "op": "cos", 
      "name": "cos339", 
      "inputs": [[821, 0, 0]]
    }, 
    {
      "op": "ones_like", 
      "name": "ones_like339", 
      "inputs": [[816, 0, 0]]
    }, 
    {
      "op": "broadcast_lesser", 
      "name": "broadcast_lesser339", 
      "inputs": [[816, 0, 0], [823, 0, 0]]
    }, 
    {
      "op": "BlockGrad", 
      "name": "blockgrad1359", 
      "inputs": [[824, 0, 0]]
    }, 
    {
      "op": "elemwise_mul", 
      "name": "elemwise_mul1415", 
      "inputs": [[822, 0, 0], [825, 0, 0]]
    }, 
    {
      "op": "null", 
      "name": "param_1->3_[3,3]_4_1_s30_Ord2_radial_(1,1,6,5)_weight", 
      "inputs": []
    }, 
    {
      "op": "broadcast_mul", 
      "name": "broadcast_mul906", 
      "inputs": [[816, 0, 0], [827, 0, 0]]
    }, 
    {
      "op": "null", 
      "name": "param_1->3_[3,3]_4_1_s30_Ord2_radial_(1,1,6,5)_bias", 
      "inputs": []
    }, 
    {
      "op": "broadcast_add", 
      "name": "broadcast_add848", 
      "inputs": [[828, 0, 0], [829, 0, 0]]
    }, 
    {
      "op": "abs", 
      "name": "abs339", 
      "inputs": [[830, 0, 0]]
    }, 
    {
      "op": "elemwise_mul", 
      "name": "elemwise_mul1417", 
      "inputs": [[826, 0, 0], [831, 0, 0]]
    }, 
    {
      "op": "tile", 
      "name": "tile1083", 
      "attrs": {"reps": "(5, 10, 1, 1)"}, 
      "inputs": [[94, 0, 0]]
    }, 
    {
      "op": "BlockGrad", 
      "name": "blockgrad1366", 
      "inputs": [[833, 0, 0]]
    }, 
    {
      "op": "_mul_scalar", 
      "name": "_mulscalar351", 
      "attrs": {"scalar": "1"}, 
      "inputs": [[834, 0, 0]]
    }, 
    {
      "op": "tile", 
      "name": "tile1082", 
      "attrs": {"reps": "(5, 10, 1, 1)"}, 
      "inputs": [[87, 0, 0]]
    }, 
    {
      "op": "BlockGrad", 
      "name": "blockgrad1365", 
      "inputs": [[836, 0, 0]]
    }, 
    {
      "op": "null", 
      "name": "param_2->3_[3,3]_4_1_s30_Ord1_angular_(1,1,10,5)_weight", 
      "inputs": []
    }, 
    {
      "op": "broadcast_mul", 
      "name": "broadcast_mul912", 
      "inputs": [[837, 0, 0], [838, 0, 0]]
    }, 
    {
      "op": "null", 
      "name": "param_2->3_[3,3]_4_1_s30_Ord1_angular_(1,1,10,5)_bias", 
      "inputs": []
    }, 
    {
      "op": "broadcast_add", 
      "name": "broadcast_add854", 
      "inputs": [[839, 0, 0], [840, 0, 0]]
    }, 
    {
      "op": "elemwise_add", 
      "name": "elemwise_add399", 
      "inputs": [[835, 0, 0], [841, 0, 0]]
    }, 
    {
      "op": "cos", 
      "name": "cos341", 
      "inputs": [[842, 0, 0]]
    }, 
    {
      "op": "ones_like", 
      "name": "ones_like341", 
      "inputs": [[837, 0, 0]]
    }, 
    {
      "op": "broadcast_lesser", 
      "name": "broadcast_lesser341", 
      "inputs": [[837, 0, 0], [844, 0, 0]]
    }, 
    {
      "op": "BlockGrad", 
      "name": "blockgrad1367", 
      "inputs": [[845, 0, 0]]
    }, 
    {
      "op": "elemwise_mul", 
      "name": "elemwise_mul1423", 
      "inputs": [[843, 0, 0], [846, 0, 0]]
    }, 
    {
      "op": "null", 
      "name": "param_2->3_[3,3]_4_1_s30_Ord1_radial_(1,1,10,5)_weight", 
      "inputs": []
    }, 
    {
      "op": "broadcast_mul", 
      "name": "broadcast_mul911", 
      "inputs": [[837, 0, 0], [848, 0, 0]]
    }, 
    {
      "op": "null", 
      "name": "param_2->3_[3,3]_4_1_s30_Ord1_radial_(1,1,10,5)_bias", 
      "inputs": []
    }, 
    {
      "op": "broadcast_add", 
      "name": "broadcast_add853", 
      "inputs": [[849, 0, 0], [850, 0, 0]]
    }, 
    {
      "op": "abs", 
      "name": "abs341", 
      "inputs": [[851, 0, 0]]
    }, 
    {
      "op": "elemwise_mul", 
      "name": "elemwise_mul1425", 
      "inputs": [[847, 0, 0], [852, 0, 0]]
    }, 
    {
      "op": "tile", 
      "name": "tile1088", 
      "attrs": {"reps": "(5, 5, 1, 1)"}, 
      "inputs": [[87, 0, 0]]
    }, 
    {
      "op": "BlockGrad", 
      "name": "blockgrad1374", 
      "inputs": [[854, 0, 0]]
    }, 
    {
      "op": "null", 
      "name": "param_3->3_[3,3]_4_1_s30_Ord0_radial_(1,1,5,5)_weight", 
      "inputs": []
    }, 
    {
      "op": "broadcast_mul", 
      "name": "broadcast_mul917", 
      "inputs": [[855, 0, 0], [856, 0, 0]]
    }, 
    {
      "op": "null", 
      "name": "param_3->3_[3,3]_4_1_s30_Ord0_radial_(1,1,5,5)_bias", 
      "inputs": []
    }, 
    {
      "op": "broadcast_add", 
      "name": "broadcast_add859", 
      "inputs": [[857, 0, 0], [858, 0, 0]]
    }, 
    {
      "op": "Concat", 
      "name": "concat753", 
      "attrs": {
        "dim": "1", 
        "num_args": "3"
      }, 
      "inputs": [[832, 0, 0], [853, 0, 0], [859, 0, 0]]
    }, 
    {
      "op": "sin", 
      "name": "sin339", 
      "inputs": [[821, 0, 0]]
    }, 
    {
      "op": "elemwise_mul", 
      "name": "elemwise_mul1414", 
      "inputs": [[861, 0, 0], [825, 0, 0]]
    }, 
    {
      "op": "elemwise_mul", 
      "name": "elemwise_mul1416", 
      "inputs": [[862, 0, 0], [831, 0, 0]]
    }, 
    {
      "op": "sin", 
      "name": "sin341", 
      "inputs": [[842, 0, 0]]
    }, 
    {
      "op": "elemwise_mul", 
      "name": "elemwise_mul1422", 
      "inputs": [[864, 0, 0], [846, 0, 0]]
    }, 
    {
      "op": "elemwise_mul", 
      "name": "elemwise_mul1424", 
      "inputs": [[865, 0, 0], [852, 0, 0]]
    }, 
    {
      "op": "zeros_like", 
      "name": "zeros_like171", 
      "inputs": [[859, 0, 0]]
    }, 
    {
      "op": "Concat", 
      "name": "concat754", 
      "attrs": {
        "dim": "1", 
        "num_args": "3"
      }, 
      "inputs": [[863, 0, 0], [866, 0, 0], [867, 0, 0]]
    }, 
    {
      "op": "Concat", 
      "name": "concat755", 
      "attrs": {
        "dim": "1", 
        "num_args": "2"
      }, 
      "inputs": [[860, 0, 0], [868, 0, 0]]
    }, 
    {
      "op": "negative", 
      "name": "negative341", 
      "inputs": [[751, 0, 0]]
    }, 
    {
      "op": "Concat", 
      "name": "concat748", 
      "attrs": {
        "dim": "1", 
        "num_args": "2"
      }, 
      "inputs": [[870, 0, 0], [741, 0, 0]]
    }, 
    {
      "op": "negative", 
      "name": "negative343", 
      "inputs": [[810, 0, 0]]
    }, 
    {
      "op": "Concat", 
      "name": "concat752", 
      "attrs": {
        "dim": "1", 
        "num_args": "2"
      }, 
      "inputs": [[872, 0, 0], [801, 0, 0]]
    }, 
    {
      "op": "negative", 
      "name": "negative344", 
      "inputs": [[868, 0, 0]]
    }, 
    {
      "op": "Concat", 
      "name": "concat756", 
      "attrs": {
        "dim": "1", 
        "num_args": "2"
      }, 
      "inputs": [[874, 0, 0], [860, 0, 0]]
    }, 
    {
      "op": "Concat", 
      "name": "concat757", 
      "attrs": {
        "dim": "0", 
        "num_args": "6"
      }, 
      "inputs": [[752, 0, 0], [811, 0, 0], [869, 0, 0], [871, 0, 0], [873, 0, 0], [875, 0, 0]]
    }, 
    {
      "op": "Cast", 
      "name": "cast133", 
      "attrs": {"dtype": "float32"}, 
      "inputs": [[876, 0, 0]]
    }, 
    {
      "op": "Convolution", 
      "name": "conv_[3,3]_4_1_s30", 
      "attrs": {
        "dilate": "(2, 2)", 
        "kernel": "(3, 3)", 
        "no_bias": "1", 
        "num_filter": "42", 
        "pad": "(0, 0)", 
        "stride": "(1, 1)"
      }, 
      "inputs": [[692, 0, 0], [877, 0, 0]]
    }, 
    {
      "op": "square", 
      "name": "square58", 
      "inputs": [[878, 0, 0]]
    }, 
    {
      "op": "SliceChannel", 
      "name": "split58", 
      "attrs": {
        "axis": "1", 
        "num_outputs": "2"
      }, 
      "inputs": [[879, 0, 0]]
    }, 
    {
      "op": "elemwise_add", 
      "name": "elemwise_add402", 
      "inputs": [[880, 0, 0], [880, 1, 0]]
    }, 
    {
      "op": "_plus_scalar", 
      "name": "_plusscalar134", 
      "attrs": {"scalar": "2e-05"}, 
      "inputs": [[881, 0, 0]]
    }, 
    {
      "op": "sqrt", 
      "name": "sqrt58", 
      "inputs": [[882, 0, 0]]
    }, 
    {
      "op": "tanh", 
      "name": "tanh58", 
      "inputs": [[883, 0, 0]]
    }, 
    {
      "op": "null", 
      "name": "4_1_s30_(1,1,21,1)_mag_weight", 
      "inputs": []
    }, 
    {
      "op": "Cast", 
      "name": "cast134", 
      "attrs": {"dtype": "float32"}, 
      "inputs": [[885, 0, 0]]
    }, 
    {
      "op": "LeakyReLU", 
      "name": "leakyrelu58", 
      "attrs": {
        "act_type": "elu", 
        "slope": "1"
      }, 
      "inputs": [[886, 0, 0]]
    }, 
    {
      "op": "_plus_scalar", 
      "name": "_plusscalar135", 
      "attrs": {"scalar": "1"}, 
      "inputs": [[887, 0, 0]]
    }, 
    {
      "op": "broadcast_mul", 
      "name": "broadcast_mul918", 
      "inputs": [[884, 0, 0], [888, 0, 0]]
    }, 
    {
      "op": "elemwise_div", 
      "name": "_div58", 
      "inputs": [[889, 0, 0], [883, 0, 0]]
    }, 
    {
      "op": "tile", 
      "name": "tile1090", 
      "attrs": {"reps": "(1, 2, 1, 1)"}, 
      "inputs": [[890, 0, 0]]
    }, 
    {
      "op": "elemwise_mul", 
      "name": "elemwise_mul1434", 
      "inputs": [[878, 0, 0], [891, 0, 0]]
    }, 
    {
      "op": "Pad", 
      "name": "pad59", 
      "attrs": {
        "mode": "edge", 
        "pad_width": "(0, 0, 0, 0, 2, 2, 2, 2)"
      }, 
      "inputs": [[892, 0, 0]]
    }, 
    {
      "op": "tile", 
      "name": "tile1091", 
      "attrs": {"reps": "(6, 6, 1, 1)"}, 
      "inputs": [[87, 0, 0]]
    }, 
    {
      "op": "BlockGrad", 
      "name": "blockgrad1376", 
      "inputs": [[894, 0, 0]]
    }, 
    {
      "op": "null", 
      "name": "param_1->1_[3,3]_4_2_s39_Ord0_radial_(1,1,6,6)_weight", 
      "inputs": []
    }, 
    {
      "op": "broadcast_mul", 
      "name": "broadcast_mul919", 
      "inputs": [[895, 0, 0], [896, 0, 0]]
    }, 
    {
      "op": "null", 
      "name": "param_1->1_[3,3]_4_2_s39_Ord0_radial_(1,1,6,6)_bias", 
      "inputs": []
    }, 
    {
      "op": "broadcast_add", 
      "name": "broadcast_add860", 
      "inputs": [[897, 0, 0], [898, 0, 0]]
    }, 
    {
      "op": "tile", 
      "name": "tile1098", 
      "attrs": {"reps": "(6, 10, 1, 1)"}, 
      "inputs": [[94, 0, 0]]
    }, 
    {
      "op": "BlockGrad", 
      "name": "blockgrad1385", 
      "inputs": [[900, 0, 0]]
    }, 
    {
      "op": "_mul_scalar", 
      "name": "_mulscalar356", 
      "attrs": {"scalar": "1"}, 
      "inputs": [[901, 0, 0]]
    }, 
    {
      "op": "tile", 
      "name": "tile1097", 
      "attrs": {"reps": "(6, 10, 1, 1)"}, 
      "inputs": [[87, 0, 0]]
    }, 
    {
      "op": "BlockGrad", 
      "name": "blockgrad1384", 
      "inputs": [[903, 0, 0]]
    }, 
    {
      "op": "null", 
      "name": "param_2->1_[3,3]_4_2_s39_Ord1_angular_(1,1,10,6)_weight", 
      "inputs": []
    }, 
    {
      "op": "broadcast_mul", 
      "name": "broadcast_mul925", 
      "inputs": [[904, 0, 0], [905, 0, 0]]
    }, 
    {
      "op": "null", 
      "name": "param_2->1_[3,3]_4_2_s39_Ord1_angular_(1,1,10,6)_bias", 
      "inputs": []
    }, 
    {
      "op": "broadcast_add", 
      "name": "broadcast_add866", 
      "inputs": [[906, 0, 0], [907, 0, 0]]
    }, 
    {
      "op": "elemwise_add", 
      "name": "elemwise_add405", 
      "inputs": [[902, 0, 0], [908, 0, 0]]
    }, 
    {
      "op": "cos", 
      "name": "cos346", 
      "inputs": [[909, 0, 0]]
    }, 
    {
      "op": "ones_like", 
      "name": "ones_like346", 
      "inputs": [[904, 0, 0]]
    }, 
    {
      "op": "broadcast_lesser", 
      "name": "broadcast_lesser346", 
      "inputs": [[904, 0, 0], [911, 0, 0]]
    }, 
    {
      "op": "BlockGrad", 
      "name": "blockgrad1386", 
      "inputs": [[912, 0, 0]]
    }, 
    {
      "op": "elemwise_mul", 
      "name": "elemwise_mul1444", 
      "inputs": [[910, 0, 0], [913, 0, 0]]
    }, 
    {
      "op": "null", 
      "name": "param_2->1_[3,3]_4_2_s39_Ord1_radial_(1,1,10,6)_weight", 
      "inputs": []
    }, 
    {
      "op": "broadcast_mul", 
      "name": "broadcast_mul924", 
      "inputs": [[904, 0, 0], [915, 0, 0]]
    }, 
    {
      "op": "null", 
      "name": "param_2->1_[3,3]_4_2_s39_Ord1_radial_(1,1,10,6)_bias", 
      "inputs": []
    }, 
    {
      "op": "broadcast_add", 
      "name": "broadcast_add865", 
      "inputs": [[916, 0, 0], [917, 0, 0]]
    }, 
    {
      "op": "abs", 
      "name": "abs346", 
      "inputs": [[918, 0, 0]]
    }, 
    {
      "op": "elemwise_mul", 
      "name": "elemwise_mul1446", 
      "inputs": [[914, 0, 0], [919, 0, 0]]
    }, 
    {
      "op": "tile", 
      "name": "tile1104", 
      "attrs": {"reps": "(6, 5, 1, 1)"}, 
      "inputs": [[94, 0, 0]]
    }, 
    {
      "op": "BlockGrad", 
      "name": "blockgrad1393", 
      "inputs": [[921, 0, 0]]
    }, 
    {
      "op": "_mul_scalar", 
      "name": "_mulscalar358", 
      "attrs": {"scalar": "2"}, 
      "inputs": [[922, 0, 0]]
    }, 
    {
      "op": "tile", 
      "name": "tile1103", 
      "attrs": {"reps": "(6, 5, 1, 1)"}, 
      "inputs": [[87, 0, 0]]
    }, 
    {
      "op": "BlockGrad", 
      "name": "blockgrad1392", 
      "inputs": [[924, 0, 0]]
    }, 
    {
      "op": "null", 
      "name": "param_3->1_[3,3]_4_2_s39_Ord2_angular_(1,1,5,6)_weight", 
      "inputs": []
    }, 
    {
      "op": "broadcast_mul", 
      "name": "broadcast_mul930", 
      "inputs": [[925, 0, 0], [926, 0, 0]]
    }, 
    {
      "op": "null", 
      "name": "param_3->1_[3,3]_4_2_s39_Ord2_angular_(1,1,5,6)_bias", 
      "inputs": []
    }, 
    {
      "op": "broadcast_add", 
      "name": "broadcast_add871", 
      "inputs": [[927, 0, 0], [928, 0, 0]]
    }, 
    {
      "op": "elemwise_add", 
      "name": "elemwise_add407", 
      "inputs": [[923, 0, 0], [929, 0, 0]]
    }, 
    {
      "op": "cos", 
      "name": "cos348", 
      "inputs": [[930, 0, 0]]
    }, 
    {
      "op": "ones_like", 
      "name": "ones_like348", 
      "inputs": [[925, 0, 0]]
    }, 
    {
      "op": "broadcast_lesser", 
      "name": "broadcast_lesser348", 
      "inputs": [[925, 0, 0], [932, 0, 0]]
    }, 
    {
      "op": "BlockGrad", 
      "name": "blockgrad1394", 
      "inputs": [[933, 0, 0]]
    }, 
    {
      "op": "elemwise_mul", 
      "name": "elemwise_mul1452", 
      "inputs": [[931, 0, 0], [934, 0, 0]]
    }, 
    {
      "op": "null", 
      "name": "param_3->1_[3,3]_4_2_s39_Ord2_radial_(1,1,5,6)_weight", 
      "inputs": []
    }, 
    {
      "op": "broadcast_mul", 
      "name": "broadcast_mul929", 
      "inputs": [[925, 0, 0], [936, 0, 0]]
    }, 
    {
      "op": "null", 
      "name": "param_3->1_[3,3]_4_2_s39_Ord2_radial_(1,1,5,6)_bias", 
      "inputs": []
    }, 
    {
      "op": "broadcast_add", 
      "name": "broadcast_add870", 
      "inputs": [[937, 0, 0], [938, 0, 0]]
    }, 
    {
      "op": "abs", 
      "name": "abs348", 
      "inputs": [[939, 0, 0]]
    }, 
    {
      "op": "elemwise_mul", 
      "name": "elemwise_mul1454", 
      "inputs": [[935, 0, 0], [940, 0, 0]]
    }, 
    {
      "op": "Concat", 
      "name": "concat758", 
      "attrs": {
        "dim": "1", 
        "num_args": "3"
      }, 
      "inputs": [[899, 0, 0], [920, 0, 0], [941, 0, 0]]
    }, 
    {
      "op": "zeros_like", 
      "name": "zeros_like172", 
      "inputs": [[899, 0, 0]]
    }, 
    {
      "op": "sin", 
      "name": "sin346", 
      "inputs": [[909, 0, 0]]
    }, 
    {
      "op": "elemwise_mul", 
      "name": "elemwise_mul1443", 
      "inputs": [[944, 0, 0], [913, 0, 0]]
    }, 
    {
      "op": "elemwise_mul", 
      "name": "elemwise_mul1445", 
      "inputs": [[945, 0, 0], [919, 0, 0]]
    }, 
    {
      "op": "negative", 
      "name": "negative345", 
      "inputs": [[946, 0, 0]]
    }, 
    {
      "op": "sin", 
      "name": "sin348", 
      "inputs": [[930, 0, 0]]
    }, 
    {
      "op": "elemwise_mul", 
      "name": "elemwise_mul1451", 
      "inputs": [[948, 0, 0], [934, 0, 0]]
    }, 
    {
      "op": "elemwise_mul", 
      "name": "elemwise_mul1453", 
      "inputs": [[949, 0, 0], [940, 0, 0]]
    }, 
    {
      "op": "negative", 
      "name": "negative346", 
      "inputs": [[950, 0, 0]]
    }, 
    {
      "op": "Concat", 
      "name": "concat759", 
      "attrs": {
        "dim": "1", 
        "num_args": "3"
      }, 
      "inputs": [[943, 0, 0], [947, 0, 0], [951, 0, 0]]
    }, 
    {
      "op": "Concat", 
      "name": "concat760", 
      "attrs": {
        "dim": "1", 
        "num_args": "2"
      }, 
      "inputs": [[942, 0, 0], [952, 0, 0]]
    }, 
    {
      "op": "tile", 
      "name": "tile1094", 
      "attrs": {"reps": "(10, 6, 1, 1)"}, 
      "inputs": [[94, 0, 0]]
    }, 
    {
      "op": "BlockGrad", 
      "name": "blockgrad1379", 
      "inputs": [[954, 0, 0]]
    }, 
    {
      "op": "_mul_scalar", 
      "name": "_mulscalar354", 
      "attrs": {"scalar": "1"}, 
      "inputs": [[955, 0, 0]]
    }, 
    {
      "op": "tile", 
      "name": "tile1093", 
      "attrs": {"reps": "(10, 6, 1, 1)"}, 
      "inputs": [[87, 0, 0]]
    }, 
    {
      "op": "BlockGrad", 
      "name": "blockgrad1378", 
      "inputs": [[957, 0, 0]]
    }, 
    {
      "op": "null", 
      "name": "param_1->2_[3,3]_4_2_s39_Ord1_angular_(1,1,6,10)_weight", 
      "inputs": []
    }, 
    {
      "op": "broadcast_mul", 
      "name": "broadcast_mul921", 
      "inputs": [[958, 0, 0], [959, 0, 0]]
    }, 
    {
      "op": "null", 
      "name": "param_1->2_[3,3]_4_2_s39_Ord1_angular_(1,1,6,10)_bias", 
      "inputs": []
    }, 
    {
      "op": "broadcast_add", 
      "name": "broadcast_add862", 
      "inputs": [[960, 0, 0], [961, 0, 0]]
    }, 
    {
      "op": "elemwise_add", 
      "name": "elemwise_add403", 
      "inputs": [[956, 0, 0], [962, 0, 0]]
    }, 
    {
      "op": "cos", 
      "name": "cos344", 
      "inputs": [[963, 0, 0]]
    }, 
    {
      "op": "ones_like", 
      "name": "ones_like344", 
      "inputs": [[958, 0, 0]]
    }, 
    {
      "op": "broadcast_lesser", 
      "name": "broadcast_lesser344", 
      "inputs": [[958, 0, 0], [965, 0, 0]]
    }, 
    {
      "op": "BlockGrad", 
      "name": "blockgrad1380", 
      "inputs": [[966, 0, 0]]
    }, 
    {
      "op": "elemwise_mul", 
      "name": "elemwise_mul1436", 
      "inputs": [[964, 0, 0], [967, 0, 0]]
    }, 
    {
      "op": "null", 
      "name": "param_1->2_[3,3]_4_2_s39_Ord1_radial_(1,1,6,10)_weight", 
      "inputs": []
    }, 
    {
      "op": "broadcast_mul", 
      "name": "broadcast_mul920", 
      "inputs": [[958, 0, 0], [969, 0, 0]]
    }, 
    {
      "op": "null", 
      "name": "param_1->2_[3,3]_4_2_s39_Ord1_radial_(1,1,6,10)_bias", 
      "inputs": []
    }, 
    {
      "op": "broadcast_add", 
      "name": "broadcast_add861", 
      "inputs": [[970, 0, 0], [971, 0, 0]]
    }, 
    {
      "op": "abs", 
      "name": "abs344", 
      "inputs": [[972, 0, 0]]
    }, 
    {
      "op": "elemwise_mul", 
      "name": "elemwise_mul1438", 
      "inputs": [[968, 0, 0], [973, 0, 0]]
    }, 
    {
      "op": "tile", 
      "name": "tile1099", 
      "attrs": {"reps": "(10, 10, 1, 1)"}, 
      "inputs": [[87, 0, 0]]
    }, 
    {
      "op": "BlockGrad", 
      "name": "blockgrad1387", 
      "inputs": [[975, 0, 0]]
    }, 
    {
      "op": "null", 
      "name": "param_2->2_[3,3]_4_2_s39_Ord0_radial_(1,1,10,10)_weight", 
      "inputs": []
    }, 
    {
      "op": "broadcast_mul", 
      "name": "broadcast_mul926", 
      "inputs": [[976, 0, 0], [977, 0, 0]]
    }, 
    {
      "op": "null", 
      "name": "param_2->2_[3,3]_4_2_s39_Ord0_radial_(1,1,10,10)_bias", 
      "inputs": []
    }, 
    {
      "op": "broadcast_add", 
      "name": "broadcast_add867", 
      "inputs": [[978, 0, 0], [979, 0, 0]]
    }, 
    {
      "op": "tile", 
      "name": "tile1106", 
      "attrs": {"reps": "(10, 5, 1, 1)"}, 
      "inputs": [[94, 0, 0]]
    }, 
    {
      "op": "BlockGrad", 
      "name": "blockgrad1396", 
      "inputs": [[981, 0, 0]]
    }, 
    {
      "op": "_mul_scalar", 
      "name": "_mulscalar359", 
      "attrs": {"scalar": "1"}, 
      "inputs": [[982, 0, 0]]
    }, 
    {
      "op": "tile", 
      "name": "tile1105", 
      "attrs": {"reps": "(10, 5, 1, 1)"}, 
      "inputs": [[87, 0, 0]]
    }, 
    {
      "op": "BlockGrad", 
      "name": "blockgrad1395", 
      "inputs": [[984, 0, 0]]
    }, 
    {
      "op": "null", 
      "name": "param_3->2_[3,3]_4_2_s39_Ord1_angular_(1,1,5,10)_weight", 
      "inputs": []
    }, 
    {
      "op": "broadcast_mul", 
      "name": "broadcast_mul932", 
      "inputs": [[985, 0, 0], [986, 0, 0]]
    }, 
    {
      "op": "null", 
      "name": "param_3->2_[3,3]_4_2_s39_Ord1_angular_(1,1,5,10)_bias", 
      "inputs": []
    }, 
    {
      "op": "broadcast_add", 
      "name": "broadcast_add873", 
      "inputs": [[987, 0, 0], [988, 0, 0]]
    }, 
    {
      "op": "elemwise_add", 
      "name": "elemwise_add408", 
      "inputs": [[983, 0, 0], [989, 0, 0]]
    }, 
    {
      "op": "cos", 
      "name": "cos349", 
      "inputs": [[990, 0, 0]]
    }, 
    {
      "op": "ones_like", 
      "name": "ones_like349", 
      "inputs": [[985, 0, 0]]
    }, 
    {
      "op": "broadcast_lesser", 
      "name": "broadcast_lesser349", 
      "inputs": [[985, 0, 0], [992, 0, 0]]
    }, 
    {
      "op": "BlockGrad", 
      "name": "blockgrad1397", 
      "inputs": [[993, 0, 0]]
    }, 
    {
      "op": "elemwise_mul", 
      "name": "elemwise_mul1456", 
      "inputs": [[991, 0, 0], [994, 0, 0]]
    }, 
    {
      "op": "null", 
      "name": "param_3->2_[3,3]_4_2_s39_Ord1_radial_(1,1,5,10)_weight", 
      "inputs": []
    }, 
    {
      "op": "broadcast_mul", 
      "name": "broadcast_mul931", 
      "inputs": [[985, 0, 0], [996, 0, 0]]
    }, 
    {
      "op": "null", 
      "name": "param_3->2_[3,3]_4_2_s39_Ord1_radial_(1,1,5,10)_bias", 
      "inputs": []
    }, 
    {
      "op": "broadcast_add", 
      "name": "broadcast_add872", 
      "inputs": [[997, 0, 0], [998, 0, 0]]
    }, 
    {
      "op": "abs", 
      "name": "abs349", 
      "inputs": [[999, 0, 0]]
    }, 
    {
      "op": "elemwise_mul", 
      "name": "elemwise_mul1458", 
      "inputs": [[995, 0, 0], [1000, 0, 0]]
    }, 
    {
      "op": "Concat", 
      "name": "concat762", 
      "attrs": {
        "dim": "1", 
        "num_args": "3"
      }, 
      "inputs": [[974, 0, 0], [980, 0, 0], [1001, 0, 0]]
    }, 
    {
      "op": "sin", 
      "name": "sin344", 
      "inputs": [[963, 0, 0]]
    }, 
    {
      "op": "elemwise_mul", 
      "name": "elemwise_mul1435", 
      "inputs": [[1003, 0, 0], [967, 0, 0]]
    }, 
    {
      "op": "elemwise_mul", 
      "name": "elemwise_mul1437", 
      "inputs": [[1004, 0, 0], [973, 0, 0]]
    }, 
    {
      "op": "zeros_like", 
      "name": "zeros_like173", 
      "inputs": [[980, 0, 0]]
    }, 
    {
      "op": "sin", 
      "name": "sin349", 
      "inputs": [[990, 0, 0]]
    }, 
    {
      "op": "elemwise_mul", 
      "name": "elemwise_mul1455", 
      "inputs": [[1007, 0, 0], [994, 0, 0]]
    }, 
    {
      "op": "elemwise_mul", 
      "name": "elemwise_mul1457", 
      "inputs": [[1008, 0, 0], [1000, 0, 0]]
    }, 
    {
      "op": "negative", 
      "name": "negative348", 
      "inputs": [[1009, 0, 0]]
    }, 
    {
      "op": "Concat", 
      "name": "concat763", 
      "attrs": {
        "dim": "1", 
        "num_args": "3"
      }, 
      "inputs": [[1005, 0, 0], [1006, 0, 0], [1010, 0, 0]]
    }, 
    {
      "op": "Concat", 
      "name": "concat764", 
      "attrs": {
        "dim": "1", 
        "num_args": "2"
      }, 
      "inputs": [[1002, 0, 0], [1011, 0, 0]]
    }, 
    {
      "op": "tile", 
      "name": "tile1096", 
      "attrs": {"reps": "(5, 6, 1, 1)"}, 
      "inputs": [[94, 0, 0]]
    }, 
    {
      "op": "BlockGrad", 
      "name": "blockgrad1382", 
      "inputs": [[1013, 0, 0]]
    }, 
    {
      "op": "_mul_scalar", 
      "name": "_mulscalar355", 
      "attrs": {"scalar": "2"}, 
      "inputs": [[1014, 0, 0]]
    }, 
    {
      "op": "tile", 
      "name": "tile1095", 
      "attrs": {"reps": "(5, 6, 1, 1)"}, 
      "inputs": [[87, 0, 0]]
    }, 
    {
      "op": "BlockGrad", 
      "name": "blockgrad1381", 
      "inputs": [[1016, 0, 0]]
    }, 
    {
      "op": "null", 
      "name": "param_1->3_[3,3]_4_2_s39_Ord2_angular_(1,1,6,5)_weight", 
      "inputs": []
    }, 
    {
      "op": "broadcast_mul", 
      "name": "broadcast_mul923", 
      "inputs": [[1017, 0, 0], [1018, 0, 0]]
    }, 
    {
      "op": "null", 
      "name": "param_1->3_[3,3]_4_2_s39_Ord2_angular_(1,1,6,5)_bias", 
      "inputs": []
    }, 
    {
      "op": "broadcast_add", 
      "name": "broadcast_add864", 
      "inputs": [[1019, 0, 0], [1020, 0, 0]]
    }, 
    {
      "op": "elemwise_add", 
      "name": "elemwise_add404", 
      "inputs": [[1015, 0, 0], [1021, 0, 0]]
    }, 
    {
      "op": "cos", 
      "name": "cos345", 
      "inputs": [[1022, 0, 0]]
    }, 
    {
      "op": "ones_like", 
      "name": "ones_like345", 
      "inputs": [[1017, 0, 0]]
    }, 
    {
      "op": "broadcast_lesser", 
      "name": "broadcast_lesser345", 
      "inputs": [[1017, 0, 0], [1024, 0, 0]]
    }, 
    {
      "op": "BlockGrad", 
      "name": "blockgrad1383", 
      "inputs": [[1025, 0, 0]]
    }, 
    {
      "op": "elemwise_mul", 
      "name": "elemwise_mul1440", 
      "inputs": [[1023, 0, 0], [1026, 0, 0]]
    }, 
    {
      "op": "null", 
      "name": "param_1->3_[3,3]_4_2_s39_Ord2_radial_(1,1,6,5)_weight", 
      "inputs": []
    }, 
    {
      "op": "broadcast_mul", 
      "name": "broadcast_mul922", 
      "inputs": [[1017, 0, 0], [1028, 0, 0]]
    }, 
    {
      "op": "null", 
      "name": "param_1->3_[3,3]_4_2_s39_Ord2_radial_(1,1,6,5)_bias", 
      "inputs": []
    }, 
    {
      "op": "broadcast_add", 
      "name": "broadcast_add863", 
      "inputs": [[1029, 0, 0], [1030, 0, 0]]
    }, 
    {
      "op": "abs", 
      "name": "abs345", 
      "inputs": [[1031, 0, 0]]
    }, 
    {
      "op": "elemwise_mul", 
      "name": "elemwise_mul1442", 
      "inputs": [[1027, 0, 0], [1032, 0, 0]]
    }, 
    {
      "op": "tile", 
      "name": "tile1102", 
      "attrs": {"reps": "(5, 10, 1, 1)"}, 
      "inputs": [[94, 0, 0]]
    }, 
    {
      "op": "BlockGrad", 
      "name": "blockgrad1390", 
      "inputs": [[1034, 0, 0]]
    }, 
    {
      "op": "_mul_scalar", 
      "name": "_mulscalar357", 
      "attrs": {"scalar": "1"}, 
      "inputs": [[1035, 0, 0]]
    }, 
    {
      "op": "tile", 
      "name": "tile1101", 
      "attrs": {"reps": "(5, 10, 1, 1)"}, 
      "inputs": [[87, 0, 0]]
    }, 
    {
      "op": "BlockGrad", 
      "name": "blockgrad1389", 
      "inputs": [[1037, 0, 0]]
    }, 
    {
      "op": "null", 
      "name": "param_2->3_[3,3]_4_2_s39_Ord1_angular_(1,1,10,5)_weight", 
      "inputs": []
    }, 
    {
      "op": "broadcast_mul", 
      "name": "broadcast_mul928", 
      "inputs": [[1038, 0, 0], [1039, 0, 0]]
    }, 
    {
      "op": "null", 
      "name": "param_2->3_[3,3]_4_2_s39_Ord1_angular_(1,1,10,5)_bias", 
      "inputs": []
    }, 
    {
      "op": "broadcast_add", 
      "name": "broadcast_add869", 
      "inputs": [[1040, 0, 0], [1041, 0, 0]]
    }, 
    {
      "op": "elemwise_add", 
      "name": "elemwise_add406", 
      "inputs": [[1036, 0, 0], [1042, 0, 0]]
    }, 
    {
      "op": "cos", 
      "name": "cos347", 
      "inputs": [[1043, 0, 0]]
    }, 
    {
      "op": "ones_like", 
      "name": "ones_like347", 
      "inputs": [[1038, 0, 0]]
    }, 
    {
      "op": "broadcast_lesser", 
      "name": "broadcast_lesser347", 
      "inputs": [[1038, 0, 0], [1045, 0, 0]]
    }, 
    {
      "op": "BlockGrad", 
      "name": "blockgrad1391", 
      "inputs": [[1046, 0, 0]]
    }, 
    {
      "op": "elemwise_mul", 
      "name": "elemwise_mul1448", 
      "inputs": [[1044, 0, 0], [1047, 0, 0]]
    }, 
    {
      "op": "null", 
      "name": "param_2->3_[3,3]_4_2_s39_Ord1_radial_(1,1,10,5)_weight", 
      "inputs": []
    }, 
    {
      "op": "broadcast_mul", 
      "name": "broadcast_mul927", 
      "inputs": [[1038, 0, 0], [1049, 0, 0]]
    }, 
    {
      "op": "null", 
      "name": "param_2->3_[3,3]_4_2_s39_Ord1_radial_(1,1,10,5)_bias", 
      "inputs": []
    }, 
    {
      "op": "broadcast_add", 
      "name": "broadcast_add868", 
      "inputs": [[1050, 0, 0], [1051, 0, 0]]
    }, 
    {
      "op": "abs", 
      "name": "abs347", 
      "inputs": [[1052, 0, 0]]
    }, 
    {
      "op": "elemwise_mul", 
      "name": "elemwise_mul1450", 
      "inputs": [[1048, 0, 0], [1053, 0, 0]]
    }, 
    {
      "op": "tile", 
      "name": "tile1107", 
      "attrs": {"reps": "(5, 5, 1, 1)"}, 
      "inputs": [[87, 0, 0]]
    }, 
    {
      "op": "BlockGrad", 
      "name": "blockgrad1398", 
      "inputs": [[1055, 0, 0]]
    }, 
    {
      "op": "null", 
      "name": "param_3->3_[3,3]_4_2_s39_Ord0_radial_(1,1,5,5)_weight", 
      "inputs": []
    }, 
    {
      "op": "broadcast_mul", 
      "name": "broadcast_mul933", 
      "inputs": [[1056, 0, 0], [1057, 0, 0]]
    }, 
    {
      "op": "null", 
      "name": "param_3->3_[3,3]_4_2_s39_Ord0_radial_(1,1,5,5)_bias", 
      "inputs": []
    }, 
    {
      "op": "broadcast_add", 
      "name": "broadcast_add874", 
      "inputs": [[1058, 0, 0], [1059, 0, 0]]
    }, 
    {
      "op": "Concat", 
      "name": "concat766", 
      "attrs": {
        "dim": "1", 
        "num_args": "3"
      }, 
      "inputs": [[1033, 0, 0], [1054, 0, 0], [1060, 0, 0]]
    }, 
    {
      "op": "sin", 
      "name": "sin345", 
      "inputs": [[1022, 0, 0]]
    }, 
    {
      "op": "elemwise_mul", 
      "name": "elemwise_mul1439", 
      "inputs": [[1062, 0, 0], [1026, 0, 0]]
    }, 
    {
      "op": "elemwise_mul", 
      "name": "elemwise_mul1441", 
      "inputs": [[1063, 0, 0], [1032, 0, 0]]
    }, 
    {
      "op": "sin", 
      "name": "sin347", 
      "inputs": [[1043, 0, 0]]
    }, 
    {
      "op": "elemwise_mul", 
      "name": "elemwise_mul1447", 
      "inputs": [[1065, 0, 0], [1047, 0, 0]]
    }, 
    {
      "op": "elemwise_mul", 
      "name": "elemwise_mul1449", 
      "inputs": [[1066, 0, 0], [1053, 0, 0]]
    }, 
    {
      "op": "zeros_like", 
      "name": "zeros_like174", 
      "inputs": [[1060, 0, 0]]
    }, 
    {
      "op": "Concat", 
      "name": "concat767", 
      "attrs": {
        "dim": "1", 
        "num_args": "3"
      }, 
      "inputs": [[1064, 0, 0], [1067, 0, 0], [1068, 0, 0]]
    }, 
    {
      "op": "Concat", 
      "name": "concat768", 
      "attrs": {
        "dim": "1", 
        "num_args": "2"
      }, 
      "inputs": [[1061, 0, 0], [1069, 0, 0]]
    }, 
    {
      "op": "negative", 
      "name": "negative347", 
      "inputs": [[952, 0, 0]]
    }, 
    {
      "op": "Concat", 
      "name": "concat761", 
      "attrs": {
        "dim": "1", 
        "num_args": "2"
      }, 
      "inputs": [[1071, 0, 0], [942, 0, 0]]
    }, 
    {
      "op": "negative", 
      "name": "negative349", 
      "inputs": [[1011, 0, 0]]
    }, 
    {
      "op": "Concat", 
      "name": "concat765", 
      "attrs": {
        "dim": "1", 
        "num_args": "2"
      }, 
      "inputs": [[1073, 0, 0], [1002, 0, 0]]
    }, 
    {
      "op": "negative", 
      "name": "negative350", 
      "inputs": [[1069, 0, 0]]
    }, 
    {
      "op": "Concat", 
      "name": "concat769", 
      "attrs": {
        "dim": "1", 
        "num_args": "2"
      }, 
      "inputs": [[1075, 0, 0], [1061, 0, 0]]
    }, 
    {
      "op": "Concat", 
      "name": "concat770", 
      "attrs": {
        "dim": "0", 
        "num_args": "6"
      }, 
      "inputs": [[953, 0, 0], [1012, 0, 0], [1070, 0, 0], [1072, 0, 0], [1074, 0, 0], [1076, 0, 0]]
    }, 
    {
      "op": "Cast", 
      "name": "cast135", 
      "attrs": {"dtype": "float32"}, 
      "inputs": [[1077, 0, 0]]
    }, 
    {
      "op": "Convolution", 
      "name": "conv_[3,3]_4_2_s39", 
      "attrs": {
        "dilate": "(2, 2)", 
        "kernel": "(3, 3)", 
        "no_bias": "1", 
        "num_filter": "42", 
        "pad": "(0, 0)", 
        "stride": "(1, 1)"
      }, 
      "inputs": [[893, 0, 0], [1078, 0, 0]]
    }, 
    {
      "op": "square", 
      "name": "square59", 
      "inputs": [[1079, 0, 0]]
    }, 
    {
      "op": "SliceChannel", 
      "name": "split59", 
      "attrs": {
        "axis": "1", 
        "num_outputs": "2"
      }, 
      "inputs": [[1080, 0, 0]]
    }, 
    {
      "op": "elemwise_add", 
      "name": "elemwise_add409", 
      "inputs": [[1081, 0, 0], [1081, 1, 0]]
    }, 
    {
      "op": "_plus_scalar", 
      "name": "_plusscalar136", 
      "attrs": {"scalar": "2e-05"}, 
      "inputs": [[1082, 0, 0]]
    }, 
    {
      "op": "sqrt", 
      "name": "sqrt59", 
      "inputs": [[1083, 0, 0]]
    }, 
    {
      "op": "tanh", 
      "name": "tanh59", 
      "inputs": [[1084, 0, 0]]
    }, 
    {
      "op": "null", 
      "name": "4_2_s39_(1,1,21,1)_mag_weight", 
      "inputs": []
    }, 
    {
      "op": "Cast", 
      "name": "cast136", 
      "attrs": {"dtype": "float32"}, 
      "inputs": [[1086, 0, 0]]
    }, 
    {
      "op": "LeakyReLU", 
      "name": "leakyrelu59", 
      "attrs": {
        "act_type": "elu", 
        "slope": "1"
      }, 
      "inputs": [[1087, 0, 0]]
    }, 
    {
      "op": "_plus_scalar", 
      "name": "_plusscalar137", 
      "attrs": {"scalar": "1"}, 
      "inputs": [[1088, 0, 0]]
    }, 
    {
      "op": "broadcast_mul", 
      "name": "broadcast_mul934", 
      "inputs": [[1085, 0, 0], [1089, 0, 0]]
    }, 
    {
      "op": "elemwise_div", 
      "name": "_div59", 
      "inputs": [[1090, 0, 0], [1084, 0, 0]]
    }, 
    {
      "op": "tile", 
      "name": "tile1109", 
      "attrs": {"reps": "(1, 2, 1, 1)"}, 
      "inputs": [[1091, 0, 0]]
    }, 
    {
      "op": "elemwise_mul", 
      "name": "elemwise_mul1459", 
      "inputs": [[1079, 0, 0], [1092, 0, 0]]
    }, 
    {
      "op": "elemwise_add", 
      "name": "skipConn_4", 
      "inputs": [[691, 0, 0], [1093, 0, 0]]
    }, 
    {
      "op": "Pad", 
      "name": "pad60", 
      "attrs": {
        "mode": "edge", 
        "pad_width": "(0, 0, 0, 0, 4, 4, 4, 4)"
      }, 
      "inputs": [[1094, 0, 0]]
    }, 
    {
      "op": "tile", 
      "name": "tile1110", 
      "attrs": {"reps": "(6, 6, 1, 1)"}, 
      "inputs": [[87, 0, 0]]
    }, 
    {
      "op": "BlockGrad", 
      "name": "blockgrad1400", 
      "inputs": [[1096, 0, 0]]
    }, 
    {
      "op": "null", 
      "name": "param_1->1_[3,3]_5_1_s94_Ord0_radial_(1,1,6,6)_weight", 
      "inputs": []
    }, 
    {
      "op": "broadcast_mul", 
      "name": "broadcast_mul935", 
      "inputs": [[1097, 0, 0], [1098, 0, 0]]
    }, 
    {
      "op": "null", 
      "name": "param_1->1_[3,3]_5_1_s94_Ord0_radial_(1,1,6,6)_bias", 
      "inputs": []
    }, 
    {
      "op": "broadcast_add", 
      "name": "broadcast_add875", 
      "inputs": [[1099, 0, 0], [1100, 0, 0]]
    }, 
    {
      "op": "tile", 
      "name": "tile1117", 
      "attrs": {"reps": "(6, 10, 1, 1)"}, 
      "inputs": [[94, 0, 0]]
    }, 
    {
      "op": "BlockGrad", 
      "name": "blockgrad1409", 
      "inputs": [[1102, 0, 0]]
    }, 
    {
      "op": "_mul_scalar", 
      "name": "_mulscalar362", 
      "attrs": {"scalar": "1"}, 
      "inputs": [[1103, 0, 0]]
    }, 
    {
      "op": "tile", 
      "name": "tile1116", 
      "attrs": {"reps": "(6, 10, 1, 1)"}, 
      "inputs": [[87, 0, 0]]
    }, 
    {
      "op": "BlockGrad", 
      "name": "blockgrad1408", 
      "inputs": [[1105, 0, 0]]
    }, 
    {
      "op": "null", 
      "name": "param_2->1_[3,3]_5_1_s94_Ord1_angular_(1,1,10,6)_weight", 
      "inputs": []
    }, 
    {
      "op": "broadcast_mul", 
      "name": "broadcast_mul941", 
      "inputs": [[1106, 0, 0], [1107, 0, 0]]
    }, 
    {
      "op": "null", 
      "name": "param_2->1_[3,3]_5_1_s94_Ord1_angular_(1,1,10,6)_bias", 
      "inputs": []
    }, 
    {
      "op": "broadcast_add", 
      "name": "broadcast_add881", 
      "inputs": [[1108, 0, 0], [1109, 0, 0]]
    }, 
    {
      "op": "elemwise_add", 
      "name": "elemwise_add412", 
      "inputs": [[1104, 0, 0], [1110, 0, 0]]
    }, 
    {
      "op": "cos", 
      "name": "cos352", 
      "inputs": [[1111, 0, 0]]
    }, 
    {
      "op": "ones_like", 
      "name": "ones_like352", 
      "inputs": [[1106, 0, 0]]
    }, 
    {
      "op": "broadcast_lesser", 
      "name": "broadcast_lesser352", 
      "inputs": [[1106, 0, 0], [1113, 0, 0]]
    }, 
    {
      "op": "BlockGrad", 
      "name": "blockgrad1410", 
      "inputs": [[1114, 0, 0]]
    }, 
    {
      "op": "elemwise_mul", 
      "name": "elemwise_mul1469", 
      "inputs": [[1112, 0, 0], [1115, 0, 0]]
    }, 
    {
      "op": "null", 
      "name": "param_2->1_[3,3]_5_1_s94_Ord1_radial_(1,1,10,6)_weight", 
      "inputs": []
    }, 
    {
      "op": "broadcast_mul", 
      "name": "broadcast_mul940", 
      "inputs": [[1106, 0, 0], [1117, 0, 0]]
    }, 
    {
      "op": "null", 
      "name": "param_2->1_[3,3]_5_1_s94_Ord1_radial_(1,1,10,6)_bias", 
      "inputs": []
    }, 
    {
      "op": "broadcast_add", 
      "name": "broadcast_add880", 
      "inputs": [[1118, 0, 0], [1119, 0, 0]]
    }, 
    {
      "op": "abs", 
      "name": "abs352", 
      "inputs": [[1120, 0, 0]]
    }, 
    {
      "op": "elemwise_mul", 
      "name": "elemwise_mul1471", 
      "inputs": [[1116, 0, 0], [1121, 0, 0]]
    }, 
    {
      "op": "tile", 
      "name": "tile1123", 
      "attrs": {"reps": "(6, 5, 1, 1)"}, 
      "inputs": [[94, 0, 0]]
    }, 
    {
      "op": "BlockGrad", 
      "name": "blockgrad1417", 
      "inputs": [[1123, 0, 0]]
    }, 
    {
      "op": "_mul_scalar", 
      "name": "_mulscalar364", 
      "attrs": {"scalar": "2"}, 
      "inputs": [[1124, 0, 0]]
    }, 
    {
      "op": "tile", 
      "name": "tile1122", 
      "attrs": {"reps": "(6, 5, 1, 1)"}, 
      "inputs": [[87, 0, 0]]
    }, 
    {
      "op": "BlockGrad", 
      "name": "blockgrad1416", 
      "inputs": [[1126, 0, 0]]
    }, 
    {
      "op": "null", 
      "name": "param_3->1_[3,3]_5_1_s94_Ord2_angular_(1,1,5,6)_weight", 
      "inputs": []
    }, 
    {
      "op": "broadcast_mul", 
      "name": "broadcast_mul946", 
      "inputs": [[1127, 0, 0], [1128, 0, 0]]
    }, 
    {
      "op": "null", 
      "name": "param_3->1_[3,3]_5_1_s94_Ord2_angular_(1,1,5,6)_bias", 
      "inputs": []
    }, 
    {
      "op": "broadcast_add", 
      "name": "broadcast_add886", 
      "inputs": [[1129, 0, 0], [1130, 0, 0]]
    }, 
    {
      "op": "elemwise_add", 
      "name": "elemwise_add414", 
      "inputs": [[1125, 0, 0], [1131, 0, 0]]
    }, 
    {
      "op": "cos", 
      "name": "cos354", 
      "inputs": [[1132, 0, 0]]
    }, 
    {
      "op": "ones_like", 
      "name": "ones_like354", 
      "inputs": [[1127, 0, 0]]
    }, 
    {
      "op": "broadcast_lesser", 
      "name": "broadcast_lesser354", 
      "inputs": [[1127, 0, 0], [1134, 0, 0]]
    }, 
    {
      "op": "BlockGrad", 
      "name": "blockgrad1418", 
      "inputs": [[1135, 0, 0]]
    }, 
    {
      "op": "elemwise_mul", 
      "name": "elemwise_mul1477", 
      "inputs": [[1133, 0, 0], [1136, 0, 0]]
    }, 
    {
      "op": "null", 
      "name": "param_3->1_[3,3]_5_1_s94_Ord2_radial_(1,1,5,6)_weight", 
      "inputs": []
    }, 
    {
      "op": "broadcast_mul", 
      "name": "broadcast_mul945", 
      "inputs": [[1127, 0, 0], [1138, 0, 0]]
    }, 
    {
      "op": "null", 
      "name": "param_3->1_[3,3]_5_1_s94_Ord2_radial_(1,1,5,6)_bias", 
      "inputs": []
    }, 
    {
      "op": "broadcast_add", 
      "name": "broadcast_add885", 
      "inputs": [[1139, 0, 0], [1140, 0, 0]]
    }, 
    {
      "op": "abs", 
      "name": "abs354", 
      "inputs": [[1141, 0, 0]]
    }, 
    {
      "op": "elemwise_mul", 
      "name": "elemwise_mul1479", 
      "inputs": [[1137, 0, 0], [1142, 0, 0]]
    }, 
    {
      "op": "Concat", 
      "name": "concat771", 
      "attrs": {
        "dim": "1", 
        "num_args": "3"
      }, 
      "inputs": [[1101, 0, 0], [1122, 0, 0], [1143, 0, 0]]
    }, 
    {
      "op": "zeros_like", 
      "name": "zeros_like175", 
      "inputs": [[1101, 0, 0]]
    }, 
    {
      "op": "sin", 
      "name": "sin352", 
      "inputs": [[1111, 0, 0]]
    }, 
    {
      "op": "elemwise_mul", 
      "name": "elemwise_mul1468", 
      "inputs": [[1146, 0, 0], [1115, 0, 0]]
    }, 
    {
      "op": "elemwise_mul", 
      "name": "elemwise_mul1470", 
      "inputs": [[1147, 0, 0], [1121, 0, 0]]
    }, 
    {
      "op": "negative", 
      "name": "negative351", 
      "inputs": [[1148, 0, 0]]
    }, 
    {
      "op": "sin", 
      "name": "sin354", 
      "inputs": [[1132, 0, 0]]
    }, 
    {
      "op": "elemwise_mul", 
      "name": "elemwise_mul1476", 
      "inputs": [[1150, 0, 0], [1136, 0, 0]]
    }, 
    {
      "op": "elemwise_mul", 
      "name": "elemwise_mul1478", 
      "inputs": [[1151, 0, 0], [1142, 0, 0]]
    }, 
    {
      "op": "negative", 
      "name": "negative352", 
      "inputs": [[1152, 0, 0]]
    }, 
    {
      "op": "Concat", 
      "name": "concat772", 
      "attrs": {
        "dim": "1", 
        "num_args": "3"
      }, 
      "inputs": [[1145, 0, 0], [1149, 0, 0], [1153, 0, 0]]
    }, 
    {
      "op": "Concat", 
      "name": "concat773", 
      "attrs": {
        "dim": "1", 
        "num_args": "2"
      }, 
      "inputs": [[1144, 0, 0], [1154, 0, 0]]
    }, 
    {
      "op": "tile", 
      "name": "tile1113", 
      "attrs": {"reps": "(10, 6, 1, 1)"}, 
      "inputs": [[94, 0, 0]]
    }, 
    {
      "op": "BlockGrad", 
      "name": "blockgrad1403", 
      "inputs": [[1156, 0, 0]]
    }, 
    {
      "op": "_mul_scalar", 
      "name": "_mulscalar360", 
      "attrs": {"scalar": "1"}, 
      "inputs": [[1157, 0, 0]]
    }, 
    {
      "op": "tile", 
      "name": "tile1112", 
      "attrs": {"reps": "(10, 6, 1, 1)"}, 
      "inputs": [[87, 0, 0]]
    }, 
    {
      "op": "BlockGrad", 
      "name": "blockgrad1402", 
      "inputs": [[1159, 0, 0]]
    }, 
    {
      "op": "null", 
      "name": "param_1->2_[3,3]_5_1_s94_Ord1_angular_(1,1,6,10)_weight", 
      "inputs": []
    }, 
    {
      "op": "broadcast_mul", 
      "name": "broadcast_mul937", 
      "inputs": [[1160, 0, 0], [1161, 0, 0]]
    }, 
    {
      "op": "null", 
      "name": "param_1->2_[3,3]_5_1_s94_Ord1_angular_(1,1,6,10)_bias", 
      "inputs": []
    }, 
    {
      "op": "broadcast_add", 
      "name": "broadcast_add877", 
      "inputs": [[1162, 0, 0], [1163, 0, 0]]
    }, 
    {
      "op": "elemwise_add", 
      "name": "elemwise_add410", 
      "inputs": [[1158, 0, 0], [1164, 0, 0]]
    }, 
    {
      "op": "cos", 
      "name": "cos350", 
      "inputs": [[1165, 0, 0]]
    }, 
    {
      "op": "ones_like", 
      "name": "ones_like350", 
      "inputs": [[1160, 0, 0]]
    }, 
    {
      "op": "broadcast_lesser", 
      "name": "broadcast_lesser350", 
      "inputs": [[1160, 0, 0], [1167, 0, 0]]
    }, 
    {
      "op": "BlockGrad", 
      "name": "blockgrad1404", 
      "inputs": [[1168, 0, 0]]
    }, 
    {
      "op": "elemwise_mul", 
      "name": "elemwise_mul1461", 
      "inputs": [[1166, 0, 0], [1169, 0, 0]]
    }, 
    {
      "op": "null", 
      "name": "param_1->2_[3,3]_5_1_s94_Ord1_radial_(1,1,6,10)_weight", 
      "inputs": []
    }, 
    {
      "op": "broadcast_mul", 
      "name": "broadcast_mul936", 
      "inputs": [[1160, 0, 0], [1171, 0, 0]]
    }, 
    {
      "op": "null", 
      "name": "param_1->2_[3,3]_5_1_s94_Ord1_radial_(1,1,6,10)_bias", 
      "inputs": []
    }, 
    {
      "op": "broadcast_add", 
      "name": "broadcast_add876", 
      "inputs": [[1172, 0, 0], [1173, 0, 0]]
    }, 
    {
      "op": "abs", 
      "name": "abs350", 
      "inputs": [[1174, 0, 0]]
    }, 
    {
      "op": "elemwise_mul", 
      "name": "elemwise_mul1463", 
      "inputs": [[1170, 0, 0], [1175, 0, 0]]
    }, 
    {
      "op": "tile", 
      "name": "tile1118", 
      "attrs": {"reps": "(10, 10, 1, 1)"}, 
      "inputs": [[87, 0, 0]]
    }, 
    {
      "op": "BlockGrad", 
      "name": "blockgrad1411", 
      "inputs": [[1177, 0, 0]]
    }, 
    {
      "op": "null", 
      "name": "param_2->2_[3,3]_5_1_s94_Ord0_radial_(1,1,10,10)_weight", 
      "inputs": []
    }, 
    {
      "op": "broadcast_mul", 
      "name": "broadcast_mul942", 
      "inputs": [[1178, 0, 0], [1179, 0, 0]]
    }, 
    {
      "op": "null", 
      "name": "param_2->2_[3,3]_5_1_s94_Ord0_radial_(1,1,10,10)_bias", 
      "inputs": []
    }, 
    {
      "op": "broadcast_add", 
      "name": "broadcast_add882", 
      "inputs": [[1180, 0, 0], [1181, 0, 0]]
    }, 
    {
      "op": "tile", 
      "name": "tile1125", 
      "attrs": {"reps": "(10, 5, 1, 1)"}, 
      "inputs": [[94, 0, 0]]
    }, 
    {
      "op": "BlockGrad", 
      "name": "blockgrad1420", 
      "inputs": [[1183, 0, 0]]
    }, 
    {
      "op": "_mul_scalar", 
      "name": "_mulscalar365", 
      "attrs": {"scalar": "1"}, 
      "inputs": [[1184, 0, 0]]
    }, 
    {
      "op": "tile", 
      "name": "tile1124", 
      "attrs": {"reps": "(10, 5, 1, 1)"}, 
      "inputs": [[87, 0, 0]]
    }, 
    {
      "op": "BlockGrad", 
      "name": "blockgrad1419", 
      "inputs": [[1186, 0, 0]]
    }, 
    {
      "op": "null", 
      "name": "param_3->2_[3,3]_5_1_s94_Ord1_angular_(1,1,5,10)_weight", 
      "inputs": []
    }, 
    {
      "op": "broadcast_mul", 
      "name": "broadcast_mul948", 
      "inputs": [[1187, 0, 0], [1188, 0, 0]]
    }, 
    {
      "op": "null", 
      "name": "param_3->2_[3,3]_5_1_s94_Ord1_angular_(1,1,5,10)_bias", 
      "inputs": []
    }, 
    {
      "op": "broadcast_add", 
      "name": "broadcast_add888", 
      "inputs": [[1189, 0, 0], [1190, 0, 0]]
    }, 
    {
      "op": "elemwise_add", 
      "name": "elemwise_add415", 
      "inputs": [[1185, 0, 0], [1191, 0, 0]]
    }, 
    {
      "op": "cos", 
      "name": "cos355", 
      "inputs": [[1192, 0, 0]]
    }, 
    {
      "op": "ones_like", 
      "name": "ones_like355", 
      "inputs": [[1187, 0, 0]]
    }, 
    {
      "op": "broadcast_lesser", 
      "name": "broadcast_lesser355", 
      "inputs": [[1187, 0, 0], [1194, 0, 0]]
    }, 
    {
      "op": "BlockGrad", 
      "name": "blockgrad1421", 
      "inputs": [[1195, 0, 0]]
    }, 
    {
      "op": "elemwise_mul", 
      "name": "elemwise_mul1481", 
      "inputs": [[1193, 0, 0], [1196, 0, 0]]
    }, 
    {
      "op": "null", 
      "name": "param_3->2_[3,3]_5_1_s94_Ord1_radial_(1,1,5,10)_weight", 
      "inputs": []
    }, 
    {
      "op": "broadcast_mul", 
      "name": "broadcast_mul947", 
      "inputs": [[1187, 0, 0], [1198, 0, 0]]
    }, 
    {
      "op": "null", 
      "name": "param_3->2_[3,3]_5_1_s94_Ord1_radial_(1,1,5,10)_bias", 
      "inputs": []
    }, 
    {
      "op": "broadcast_add", 
      "name": "broadcast_add887", 
      "inputs": [[1199, 0, 0], [1200, 0, 0]]
    }, 
    {
      "op": "abs", 
      "name": "abs355", 
      "inputs": [[1201, 0, 0]]
    }, 
    {
      "op": "elemwise_mul", 
      "name": "elemwise_mul1483", 
      "inputs": [[1197, 0, 0], [1202, 0, 0]]
    }, 
    {
      "op": "Concat", 
      "name": "concat775", 
      "attrs": {
        "dim": "1", 
        "num_args": "3"
      }, 
      "inputs": [[1176, 0, 0], [1182, 0, 0], [1203, 0, 0]]
    }, 
    {
      "op": "sin", 
      "name": "sin350", 
      "inputs": [[1165, 0, 0]]
    }, 
    {
      "op": "elemwise_mul", 
      "name": "elemwise_mul1460", 
      "inputs": [[1205, 0, 0], [1169, 0, 0]]
    }, 
    {
      "op": "elemwise_mul", 
      "name": "elemwise_mul1462", 
      "inputs": [[1206, 0, 0], [1175, 0, 0]]
    }, 
    {
      "op": "zeros_like", 
      "name": "zeros_like176", 
      "inputs": [[1182, 0, 0]]
    }, 
    {
      "op": "sin", 
      "name": "sin355", 
      "inputs": [[1192, 0, 0]]
    }, 
    {
      "op": "elemwise_mul", 
      "name": "elemwise_mul1480", 
      "inputs": [[1209, 0, 0], [1196, 0, 0]]
    }, 
    {
      "op": "elemwise_mul", 
      "name": "elemwise_mul1482", 
      "inputs": [[1210, 0, 0], [1202, 0, 0]]
    }, 
    {
      "op": "negative", 
      "name": "negative354", 
      "inputs": [[1211, 0, 0]]
    }, 
    {
      "op": "Concat", 
      "name": "concat776", 
      "attrs": {
        "dim": "1", 
        "num_args": "3"
      }, 
      "inputs": [[1207, 0, 0], [1208, 0, 0], [1212, 0, 0]]
    }, 
    {
      "op": "Concat", 
      "name": "concat777", 
      "attrs": {
        "dim": "1", 
        "num_args": "2"
      }, 
      "inputs": [[1204, 0, 0], [1213, 0, 0]]
    }, 
    {
      "op": "tile", 
…
      "op": "null", 
      "name": "anchor2_moving_mean", 
      "attrs": {
        "__init__": "[\"zero\", {}]", 
        "eps": "2e-05", 
        "fix_gamma": "0", 
        "momentum": "0.9", 
        "use_global_stats": "0"
      }, 
      "inputs": []
    }, 
    {
      "op": "null", 
      "name": "anchor2_moving_var", 
      "attrs": {
        "__init__": "[\"one\", {}]", 
        "eps": "2e-05", 
        "fix_gamma": "0", 
        "momentum": "0.9", 
        "use_global_stats": "0"
      }, 
      "inputs": []
    }, 
    {
      "op": "BatchNorm", 
      "name": "anchor2", 
      "attrs": {
        "eps": "2e-05", 
        "fix_gamma": "0", 
        "momentum": "0.9", 
        "use_global_stats": "0"
      }, 
      "inputs": [[3580, 0, 0], [3584, 0, 0], [3585, 0, 0], [3586, 0, 1], [3587, 0, 1]]
    }, 
    {
      "op": "exp", 
      "name": "exp7", 
      "inputs": [[3588, 0, 0]]
    }, 
    {
      "op": "clip", 
      "name": "lrClip", 
      "attrs": {
        "a_max": "1e+10", 
        "a_min": "0"
      }, 
      "inputs": [[3589, 0, 0]]
    }, 
    {
      "op": "sum", 
      "name": "sum7", 
      "attrs": {
        "axis": "1", 
        "keepdims": "1"
      }, 
      "inputs": [[3590, 0, 0]]
    }, 
    {
      "op": "_plus_scalar", 
      "name": "_plusscalar166", 
      "attrs": {"scalar": "2e-05"}, 
      "inputs": [[3591, 0, 0]]
    }, 
    {
      "op": "broadcast_div", 
      "name": "softmax_f16", 
      "inputs": [[3590, 0, 0], [3592, 0, 0]]
    }, 
    {
      "op": "Cast", 
      "name": "softmaxEdgePre", 
      "attrs": {"dtype": "float32"}, 
      "inputs": [[3593, 0, 0]]
    }, 
    {
      "op": "expand_dims", 
      "name": "expand_dims10", 
      "attrs": {"axis": "0"}, 
      "inputs": [[3594, 0, 0]]
    }, 
    {
      "op": "nansum", 
      "name": "softmaxEdge", 
      "attrs": {
        "axis": "0", 
        "keepdims": "0"
      }, 
      "inputs": [[3595, 0, 0]]
    }, 
    {
      "op": "null", 
      "name": "nin2_weight", 
      "inputs": []
    }, 
    {
      "op": "Cast", 
      "name": "cast163", 
      "attrs": {"dtype": "float32"}, 
      "inputs": [[3597, 0, 0]]
    }, 
    {
      "op": "Convolution", 
      "name": "nin2", 
      "attrs": {
        "kernel": "(1, 1)", 
        "no_bias": "1", 
        "num_filter": "3", 
        "pad": "(0, 0)", 
        "stride": "(1, 1)"
      }, 
      "inputs": [[3577, 0, 0], [3598, 0, 0]]
    }, 
    {
      "op": "null", 
      "name": "anchor3_gamma", 
      "inputs": []
    }, 
    {
      "op": "_minus_scalar", 
      "name": "_minusscalar11", 
      "attrs": {"scalar": "1"}, 
      "inputs": [[3600, 0, 0]]
    }, 
    {
      "op": "Activation", 
      "name": "activation7", 
      "attrs": {"act_type": "softsign"}, 
      "inputs": [[3601, 0, 0]]
    }, 
    {
      "op": "_plus_scalar", 
      "name": "_plusscalar163", 
      "attrs": {"scalar": "1"}, 
      "inputs": [[3602, 0, 0]]
    }, 
    {
      "op": "null", 
      "name": "anchor3_beta", 
      "inputs": []
    }, 
    {
      "op": "null", 
      "name": "anchor3_moving_mean", 
      "attrs": {
        "__init__": "[\"zero\", {}]", 
        "eps": "2e-05", 
        "fix_gamma": "0", 
        "momentum": "0.9", 
        "use_global_stats": "0"
      }, 
      "inputs": []
    }, 
    {
      "op": "null", 
      "name": "anchor3_moving_var", 
      "attrs": {
        "__init__": "[\"one\", {}]", 
        "eps": "2e-05", 
        "fix_gamma": "0", 
        "momentum": "0.9", 
        "use_global_stats": "0"
      }, 
      "inputs": []
    }, 
    {
      "op": "BatchNorm", 
      "name": "anchor3", 
      "attrs": {
        "eps": "2e-05", 
        "fix_gamma": "0", 
        "momentum": "0.9", 
        "use_global_stats": "0"
      }, 
      "inputs": [[3599, 0, 0], [3603, 0, 0], [3604, 0, 0], [3605, 0, 1], [3606, 0, 1]]
    }, 
    {
      "op": "exp", 
      "name": "exp6", 
      "inputs": [[3607, 0, 0]]
    }, 
    {
      "op": "clip", 
      "name": "spat_lrClip", 
      "attrs": {
        "a_max": "1e+10", 
        "a_min": "0"
      }, 
      "inputs": [[3608, 0, 0]]
    }, 
    {
      "op": "sum", 
      "name": "sum6", 
      "attrs": {
        "axis": "1", 
        "keepdims": "1"
      }, 
      "inputs": [[3609, 0, 0]]
    }, 
    {
      "op": "_plus_scalar", 
      "name": "_plusscalar164", 
      "attrs": {"scalar": "2e-05"}, 
      "inputs": [[3610, 0, 0]]
    }, 
    {
      "op": "broadcast_div", 
      "name": "softmaxSpatLoss_f16", 
      "inputs": [[3609, 0, 0], [3611, 0, 0]]
    }, 
    {
      "op": "Cast", 
      "name": "softmaxSpatLossPre", 
      "attrs": {"dtype": "float32"}, 
      "inputs": [[3612, 0, 0]]
    }, 
    {
      "op": "expand_dims", 
      "name": "expand_dims9", 
      "attrs": {"axis": "0"}, 
      "inputs": [[3613, 0, 0]]
    }, 
    {
      "op": "nansum", 
      "name": "softmaxSpatLoss", 
      "attrs": {
        "axis": "0", 
        "keepdims": "0"
      }, 
      "inputs": [[3614, 0, 0]]
    }, 
    {
      "op": "Concat", 
      "name": "softmax", 
      "attrs": {
        "dim": "1", 
        "num_args": "2"
      }, 
      "inputs": [[3596, 0, 0], [3615, 0, 0]]
    }
  ], 
  "arg_nodes": [
    0, 
    6, 
    9, 
    11, 
    14, 
    20, 
    22, 
    30, 
    32, 
    42, 
    44, 
    52, 
    54, 
    78, 
    87, 
    90, 
    92, 
    94, 
    100, 
    102, 
    110, 
    112, 
    121, 
    123, 
    131, 
    133, 
    154, 
    156, 
    164, 
    166, 
    172, 
    174, 
    181, 
    183, 
    191, 
    193, 
    213, 
    215, 
    223, 
    225, 
    234, 
    236, 
    244, 
    246, 
    252, 
    254, 
    281, 
    292, 
    294, 
    301, 
    303, 
    311, 
    313, 
    322, 
    324, 
    332, 
    334, 
    355, 
    357, 
    365, 
    367, 
    373, 
    375, 
    382, 
    384, 
    392, 
    394, 
    414, 
    416, 
    424, 
    426, 
    435, 
    437, 
    445, 
    447, 
    453, 
    455, 
    482, 
    493, 
    495, 
    502, 
    504, 
    512, 
    514, 
    523, 
    525, 
    533, 
    535, 
    556, 
    558, 
    566, 
    568, 
    574, 
    576, 
    583, 
    585, 
    593, 
    595, 
    615, 
    617, 
    625, 
    627, 
    636, 
    638, 
    646, 
    648, 
    654, 
    656, 
    683, 
    695, 
    697, 
    704, 
    706, 
    714, 
    716, 
    725, 
    727, 
    735, 
    737, 
    758, 
    760, 
    768, 
    770, 
    776, 
    778, 
    785, 
    787, 
    795, 
    797, 
    817, 
    819, 
    827, 
    829, 
    838, 
    840, 
    848, 
    850, 
    856, 
    858, 
    885, 
    896, 
    898, 
    905, 
    907, 
    915, 
    917, 
    926, 
    928, 
    936, 
    938, 
    959, 
    961, 
    969, 
    971, 
    977, 
    979, 
    986, 
    988, 
    996, 
    998, 
    1018, 
    1020, 
    1028, 
    1030, 
    1039, 
    1041, 
    1049, 
    1051, 
    1057, 
    1059, 
    1086, 
    1098, 
    1100, 
    1107, 
    1109, 
    1117, 
    1119, 
    1128, 
    1130, 
    1138, 
    1140, 
    1161, 
    1163, 
    1171, 
    1173, 
    1179, 
    1181, 
    1188, 
    1190, 
    1198, 
    1200, 
    1220, 
    1222, 
    1230, 
    1232, 
    1241, 
    1243, 
    1251, 
    1253, 
    1259, 
    1261, 
    1288, 
    1299, 
    1301, 
    1308, 
    1310, 
    1318, 
    1320, 
    1329, 
    1331, 
    1339, 
    1341, 
    1362, 
    1364, 
    1372, 
    1374, 
    1380, 
    1382, 
    1389, 
    1391, 
    1399, 
    1401, 
    1421, 
    1423, 
    1431, 
    1433, 
    1442, 
    1444, 
    1452, 
    1454, 
    1460, 
    1462, 
    1489, 
    1501, 
    1503, 
    1510, 
    1512, 
    1520, 
    1522, 
    1531, 
    1533, 
    1541, 
    1543, 
    1564, 
    1566, 
    1574, 
    1576, 
    1582, 
    1584, 
    1591, 
    1593, 
    1601, 
    1603, 
    1623, 
    1625, 
    1633, 
    1635, 
    1644, 
    1646, 
    1654, 
    1656, 
    1662, 
    1664, 
    1691, 
    1702, 
    1704, 
    1711, 
    1713, 
    1721, 
    1723, 
    1732, 
    1734, 
    1742, 
    1744, 
    1765, 
    1767, 
    1775, 
    1777, 
    1783, 
    1785, 
    1792, 
    1794, 
    1802, 
    1804, 
    1824, 
    1826, 
    1834, 
    1836, 
    1845, 
    1847, 
    1855, 
    1857, 
    1863, 
    1865, 
    1892, 
    1904, 
    1906, 
    1913, 
    1915, 
    1923, 
    1925, 
    1934, 
    1936, 
    1944, 
    1946, 
    1967, 
    1969, 
    1977, 
    1979, 
    1985, 
    1987, 
    1994, 
    1996, 
    2004, 
    2006, 
    2026, 
    2028, 
    2036, 
    2038, 
    2047, 
    2049, 
    2057, 
    2059, 
    2065, 
    2067, 
    2094, 
    2105, 
    2107, 
    2114, 
    2116, 
    2124, 
    2126, 
    2135, 
    2137, 
    2145, 
    2147, 
    2168, 
    2170, 
    2178, 
    2180, 
    2186, 
    2188, 
    2195, 
    2197, 
    2205, 
    2207, 
    2227, 
    2229, 
    2237, 
    2239, 
    2248, 
    2250, 
    2258, 
    2260, 
    2266, 
    2268, 
    2295, 
    2307, 
    2309, 
    2316, 
    2318, 
    2326, 
    2328, 
    2337, 
    2339, 
    2347, 
    2349, 
    2370, 
    2372, 
    2380, 
    2382, 
    2388, 
    2390, 
    2397, 
    2399, 
    2407, 
    2409, 
    2429, 
    2431, 
    2439, 
    2441, 
    2450, 
    2452, 
    2460, 
    2462, 
    2468, 
    2470, 
    2497, 
    2508, 
    2510, 
    2517, 
    2519, 
    2527, 
    2529, 
    2538, 
    2540, 
    2548, 
    2550, 
    2571, 
    2573, 
    2581, 
    2583, 
    2589, 
    2591, 
    2598, 
    2600, 
    2608, 
    2610, 
    2630, 
    2632, 
    2640, 
    2642, 
    2651, 
    2653, 
    2661, 
    2663, 
    2669, 
    2671, 
    2698, 
    2710, 
    2712, 
    2719, 
    2721, 
    2729, 
    2731, 
    2740, 
    2742, 
    2750, 
    2752, 
    2773, 
    2775, 
    2783, 
    2785, 
    2791, 
    2793, 
    2800, 
    2802, 
    2810, 
    2812, 
    2832, 
    2834, 
    2842, 
    2844, 
    2853, 
    2855, 
    2863, 
    2865, 
    2871, 
    2873, 
    2900, 
    2911, 
    2913, 
    2920, 
    2922, 
    2930, 
    2932, 
    2941, 
    2943, 
    2951, 
    2953, 
    2974, 
    2976, 
    2984, 
    2986, 
    2992, 
    2994, 
    3001, 
    3003, 
    3011, 
    3013, 
    3033, 
    3035, 
    3043, 
    3045, 
    3054, 
    3056, 
    3064, 
    3066, 
    3072, 
    3074, 
    3101, 
    3113, 
    3115, 
    3122, 
    3124, 
    3132, 
    3134, 
    3143, 
    3145, 
    3153, 
    3155, 
    3176, 
    3178, 
    3186, 
    3188, 
    3194, 
    3196, 
    3203, 
    3205, 
    3213, 
    3215, 
    3235, 
    3237, 
    3245, 
    3247, 
    3256, 
    3258, 
    3266, 
    3268, 
    3274, 
    3276, 
    3303, 
    3314, 
    3316, 
    3323, 
    3325, 
    3333, 
    3335, 
    3344, 
    3346, 
    3354, 
    3356, 
    3377, 
    3379, 
    3387, 
    3389, 
    3395, 
    3397, 
    3404, 
    3406, 
    3414, 
    3416, 
    3436, 
    3438, 
    3446, 
    3448, 
    3457, 
    3459, 
    3467, 
    3469, 
    3475, 
    3477, 
    3504, 
    3515, 
    3517, 
    3524, 
    3526, 
    3534, 
    3536, 
    3545, 
    3547, 
    3555, 
    3557, 
    3578, 
    3581, 
    3585, 
    3586, 
    3587, 
    3597, 
    3600, 
    3604, 
    3605, 
    3606
  ], 
  "node_row_ptr": [
    0, 
    1, 
    2, 
    3, 
    4, 
    5, 
    6, 
    7, 
    8, 
    9, 
    10, 
    11, 
    12, 
    13, 
    14, 
    15, 
    16, 
    17, 
    18, 
    19, 
    20, 
    21, 
    22, 
    23, 
    24, 
    25, 
    26, 
    27, 
    28, 
    29, 
    30, 
    31, 
    32, 
    33, 
    34, 
    35, 
    36, 
    37, 
    38, 
    39, 
    40, 
    41, 
    42, 
    43, 
    44, 
    45, 
    46, 
    47, 
    48, 
    49, 
    50, 
    51, 
    52, 
    53, 
    54, 
    55, 
    56, 
    57, 
    58, 
    59, 
    60, 
    61, 
    62, 
    63, 
    64, 
    65, 
    66, 
    67, 
    68, 
    69, 
    70, 
    71, 
    72, 
    73, 
    75, 
    76, 
    77, 
    78, 
    79, 
    80, 
    81, 
    82, 
    83, 
    84, 
    85, 
    86, 
    87, 
    88, 
    89, 
    90, 
    91, 
    92, 
    93, 
    94, 
    95, 
    96, 
    97, 
    98, 
    99, 
    100, 
    101, 
    102, 
    103, 
    104, 
    105, 
    106, 
    107, 
    108, 
    109, 
    110, 
    111, 
    112, 
    113, 
    114, 
    115, 
    116, 
    117, 
    118, 
    119, 
    120, 
    121, 
    122, 
    123, 
    124, 
    125, 
    126, 
    127, 
    128, 
    129, 
    130, 
    131, 
    132, 
    133, 
    134, 
    135, 
    136, 
    137, 
    138, 
    139, 
    140, 
    141, 
    142, 
    143, 
    144, 
    145, 
    146, 
    147, 
    148, 
    149, 
    150, 
    151, 
    152, 
    153, 
    154, 
    155, 
    156, 
    157, 
    158, 
    159, 
    160, 
    161, 
    162, 
    163, 
    164, 
    165, 
    166, 
    167, 
    168, 
    169, 
    170, 
    171, 
    172, 
    173, 
    174, 
    175, 
    176, 
    177, 
    178, 
    179, 
    180, 
    181, 
    182, 
    183, 
    184, 
    185, 
    186, 
    187, 
    188, 
    189, 
    190, 
    191, 
    192, 
    193, 
    194, 
    195, 
    196, 
    197, 
    198, 
    199, 
    200, 
    201, 
    202, 
    203, 
    204, 
    205, 
    206, 
    207, 
    208, 
    209, 
    210, 
    211, 
    212, 
    213, 
    214, 
    215, 
    216, 
    217, 
    218, 
    219, 
    220, 
    221, 
    222, 
    223, 
    224, 
    225, 
    226, 
    227, 
    228, 
    229, 
    230, 
    231, 
    232, 
    233, 
    234, 
    235, 
    236, 
    237, 
    238, 
    239, 
    240, 
    241, 
    242, 
    243, 
    244, 
    245, 
    246, 
    247, 
    248, 
    249, 
    250, 
    251, 
    252, 
    253, 
    254, 
    255, 
    256, 
    257, 
    258, 
    259, 
    260, 
    261, 
    262, 
    263, 
    264, 
    265, 
    266, 
    267, 
    268, 
    269, 
    270, 
    271, 
    272, 
    273, 
    274, 
    275, 
    276, 
    277, 
    279, 
    280, 
    281, 
    282, 
    283, 
    284, 
    285, 
    286, 
    287, 
    288, 
    289, 
    290, 
    291, 
    292, 
    293, 
    294, 
    295, 
    296, 
    297, 
    298, 
    299, 
    300, 
    301, 
    302, 
    303, 
    304, 
    305, 
    306, 
    307, 
    308, 
    309, 
    310, 
    311, 
    312, 
    313, 
    314, 
    315, 
    316, 
    317, 
    318, 
    319, 
    320, 
    321, 
    322, 
    323, 
    324, 
    325, 
    326, 
    327, 
    328, 
    329, 
    330, 
    331, 
    332, 
    333, 
    334, 
    335, 
    336, 
    337, 
    338, 
    339, 
    340, 
    341, 
    342, 
    343, 
    344, 
    345, 
    346, 
    347, 
    348, 
    349, 
    350, 
    351, 
    352, 
    353, 
    354, 
    355, 
    356, 
    357, 
    358, 
    359, 
    360, 
    361, 
    362, 
    363, 
    364, 
    365, 
    366, 
    367, 
    368, 
    369, 
    370, 
    371, 
    372, 
    373, 
    374, 
    375, 
    376, 
    377, 
    378, 
    379, 
    380, 
    381, 
    382, 
    383, 
    384, 
    385, 
    386, 
    387, 
    388, 
    389, 
    390, 
    391, 
    392, 
    393, 
    394, 
    395, 
    396, 
    397, 
    398, 
    399, 
    400, 
    401, 
    402, 
    403, 
    404, 
    405, 
    406, 
    407, 
    408, 
    409, 
    410, 
    411, 
    412, 
    413, 
    414, 
    415, 
    416, 
    417, 
    418, 
    419, 
    420, 
    421, 
    422, 
    423, 
    424, 
    425, 
    426, 
    427, 
    428, 
    429, 
    430, 
    431, 
    432, 
    433, 
    434, 
    435, 
    436, 
    437, 
    438, 
    439, 
    440, 
    441, 
    442, 
    443, 
    444, 
    445, 
    446, 
    447, 
    448, 
    449, 
    450, 
    451, 
    452, 
    453, 
    454, 
    455, 
    456, 
    457, 
    458, 
    459, 
    460, 
    461, 
    462, 
    463, 
    464, 
    465, 
    466, 
    467, 
    468, 
    469, 
    470, 
    471, 
    472, 
    473, 
    474, 
    475, 
    476, 
    477, 
    478, 
    479, 
    481, 
    482, 
    483, 
    484, 
    485, 
    486, 
    487, 
    488, 
    489, 
    490, 
    491, 
    492, 
    493, 
    494, 
    495, 
    496, 
    497, 
    498, 
    499, 
    500, 
    501, 
    502, 
    503, 
    504, 
    505, 
    506, 
    507, 
    508, 
    509, 
    510, 
    511, 
    512, 
    513, 
    514, 
    515, 
    516, 
    517, 
    518, 
    519, 
    520, 
    521, 
    522, 
    523, 
    524, 
    525, 
    526, 
    527, 
    528, 
    529, 
    530, 
    531, 
    532, 
    533, 
    534, 
    535, 
    536, 
    537, 
    538, 
    539, 
    540, 
    541, 
    542, 
    543, 
    544, 
    545, 
    546, 
    547, 
    548, 
    549, 
    550, 
    551, 
    552, 
    553, 
    554, 
    555, 
    556, 
    557, 
    558, 
    559, 
    560, 
    561, 
    562, 
    563, 
    564, 
    565, 
    566, 
    567, 
    568, 
    569, 
    570, 
    571, 
    572, 
    573, 
    574, 
    575, 
    576, 
    577, 
    578, 
    579, 
    580, 
    581, 
    582, 
    583, 
    584, 
    585, 
    586, 
    587, 
    588, 
    589, 
    590, 
    591, 
    592, 
    593, 
    594, 
    595, 
    596, 
    597, 
    598, 
    599, 
    600, 
    601, 
    602, 
    603, 
    604, 
    605, 
    606, 
    607, 
    608, 
    609, 
    610, 
    611, 
    612, 
    613, 
    614, 
    615, 
    616, 
    617, 
    618, 
    619, 
    620, 
    621, 
    622, 
    623, 
    624, 
    625, 
    626, 
    627, 
    628, 
    629, 
    630, 
    631, 
    632, 
    633, 
    634, 
    635, 
    636, 
    637, 
    638, 
    639, 
    640, 
    641, 
    642, 
    643, 
    644, 
    645, 
    646, 
    647, 
    648, 
    649, 
    650, 
    651, 
    652, 
    653, 
    654, 
    655, 
    656, 
    657, 
    658, 
    659, 
    660, 
    661, 
    662, 
    663, 
    664, 
    665, 
    666, 
    667, 
    668, 
    669, 
    670, 
    671, 
    672, 
    673, 
    674, 
    675, 
    676, 
    677, 
    678, 
    679, 
    680, 
    681, 
    683, 
    684, 
    685, 
    686, 
    687, 
    688, 
    689, 
    690, 
    691, 
    692, 
    693, 
    694, 
    695, 
    696, 
    697, 
    698, 
    699, 
    700, 
    701, 
    702, 
    703, 
    704, 
    705, 
    706, 
    707, 
    708, 
    709, 
    710, 
    711, 
    712, 
    713, 
    714, 
    715, 
    716, 
    717, 
    718, 
    719, 
    720, 
    721, 
    722, 
    723, 
    724, 
    725, 
    726, 
    727, 
    728, 
    729, 
    730, 
    731, 
    732, 
    733, 
    734, 
    735, 
    736, 
    737, 
    738, 
    739, 
    740, 
    741, 
    742, 
    743, 
    744, 
    745, 
    746, 
    747, 
    748, 
    749, 
    750, 
    751, 
    752, 
    753, 
    754, 
    755, 
    756, 
    757, 
    758, 
    759, 
    760, 
    761, 
    762, 
    763, 
    764, 
    765, 
    766, 
    767, 
    768, 
    769, 
    770, 
    771, 
    772, 
    773, 
    774, 
    775, 
    776, 
    777, 
    778, 
    779, 
    780, 
    781, 
    782, 
    783, 
    784, 
    785, 
    786, 
    787, 
    788, 
    789, 
    790, 
    791, 
    792, 
    793, 
    794, 
    795, 
    796, 
    797, 
    798, 
    799, 
    800, 
    801, 
    802, 
    803, 
    804, 
    805, 
    806, 
    807, 
    808, 
    809, 
    810, 
    811, 
    812, 
    813, 
    814, 
    815, 
    816, 
    817, 
    818, 
    819, 
    820, 
    821, 
    822, 
    823, 
    824, 
    825, 
    826, 
    827, 
    828, 
    829, 
    830, 
    831, 
    832, 
    833, 
    834, 
    835, 
    836, 
    837, 
    838, 
    839, 
    840, 
    841, 
    842, 
    843, 
    844, 
    845, 
    846, 
    847, 
    848, 
    849, 
    850, 
    851, 
    852, 
    853, 
    854, 
    855, 
    856, 
    857, 
    858, 
    859, 
    860, 
    861, 
    862, 
    863, 
    864, 
    865, 
    866, 
    867, 
    868, 
    869, 
    870, 
    871, 
    872, 
    873, 
    874, 
    875, 
    876, 
    877, 
    878, 
    879, 
    880, 
    881, 
    882, 
    883, 
    884, 
    886, 
    887, 
    888, 
    889, 
    890, 
    891, 
    892, 
    893, 
    894, 
    895, 
    896, 
    897, 
    898, 
    899, 
    900, 
    901, 
    902, 
    903, 
    904, 
    905, 
    906, 
    907, 
    908, 
    909, 
    910, 
    911, 
    912, 
    913, 
    914, 
    915, 
    916, 
    917, 
    918, 
    919, 
    920, 
    921, 
    922, 
    923, 
    924, 
    925, 
    926, 
    927, 
    928, 
    929, 
    930, 
    931, 
    932, 
    933, 
    934, 
    935, 
    936, 
    937, 
    938, 
    939, 
    940, 
    941, 
    942, 
    943, 
    944, 
    945, 
    946, 
    947, 
    948, 
    949, 
    950, 
    951, 
    952, 
    953, 
    954, 
    955, 
    956, 
    957, 
    958, 
    959, 
    960, 
    961, 
    962, 
    963, 
    964, 
    965, 
    966, 
    967, 
    968, 
    969, 
    970, 
    971, 
    972, 
    973, 
    974, 
    975, 
    976, 
    977, 
    978, 
    979, 
    980, 
    981, 
    982, 
    983, 
    984, 
    985, 
    986, 
    987, 
    988, 
    989, 
    990, 
    991, 
    992, 
    993, 
    994, 
    995, 
    996, 
    997, 
    998, 
    999, 
    1000, 
    1001, 
    1002, 
    1003, 
    1004, 
    1005, 
    1006, 
    1007, 
    1008, 
    1009, 
    1010, 
    1011, 
    1012, 
    1013, 
    1014, 
    1015, 
    1016, 
    1017, 
    1018, 
    1019, 
    1020, 
    1021, 
    1022, 
    1023, 
    1024, 
    1025, 
    1026, 
    1027, 
    1028, 
    1029, 
    1030, 
    1031, 
    1032, 
    1033, 
    1034, 
    1035, 
    1036, 
    1037, 
    1038, 
    1039, 
    1040, 
    1041, 
    1042, 
    1043, 
    1044, 
    1045, 
    1046, 
    1047, 
    1048, 
    1049, 
    1050, 
    1051, 
    1052, 
    1053, 
    1054, 
    1055, 
    1056, 
    1057, 
    1058, 
    1059, 
    1060, 
    1061, 
    1062, 
    1063, 
    1064, 
    1065, 
    1066, 
    1067, 
    1068, 
    1069, 
    1070, 
    1071, 
    1072, 
    1073, 
    1074, 
    1075, 
    1076, 
    1077, 
    1078, 
    1079, 
    1080, 
    1081, 
    1082, 
    1083, 
    1084, 
    1085, 
    1086, 
    1088, 
    1089, 
    1090, 
    1091, 
    1092, 
    1093, 
    1094, 
    1095, 
    1096, 
    1097, 
    1098, 
    1099, 
    1100, 
    1101, 
    1102, 
    1103, 
    1104, 
    1105, 
    1106, 
    1107, 
    1108, 
    1109, 
    1110, 
    1111, 
    1112, 
    1113, 
    1114, 
    1115, 
    1116, 
    1117, 
    1118, 
    1119, 
    1120, 
    1121, 
    1122, 
    1123, 
    1124, 
    1125, 
    1126, 
    1127, 
    1128, 
    1129, 
    1130, 
    1131, 
    1132, 
    1133, 
    1134, 
    1135, 
    1136, 
    1137, 
    1138, 
    1139, 
    1140, 
    1141, 
    1142, 
    1143, 
    1144, 
    1145, 
    1146, 
    1147, 
    1148, 
    1149, 
    1150, 
    1151, 
    1152, 
    1153, 
    1154, 
    1155, 
    1156, 
    1157, 
    1158, 
    1159, 
    1160, 
    1161, 
    1162, 
    1163, 
    1164, 
    1165, 
    1166, 
    1167, 
    1168, 
    1169, 
    1170, 
    1171, 
    1172, 
    1173, 
    1174, 
    1175, 
    1176, 
    1177, 
    1178, 
    1179, 
    1180, 
    1181, 
    1182, 
    1183, 
    1184, 
    1185, 
    1186, 
    1187, 
    1188, 
    1189, 
    1190, 
    1191, 
    1192, 
    1193, 
    1194, 
    1195, 
    1196, 
    1197, 
    1198, 
    1199, 
    1200, 
    1201, 
    1202, 
    1203, 
    1204, 
    1205, 
    1206, 
    1207, 
    1208, 
    1209, 
    1210, 
    1211, 
    1212, 
    1213, 
    1214, 
    1215, 
    1216, 
    1217, 
    1218, 
    1219, 
    1220, 
    1221, 
    1222, 
    1223, 
    1224, 
    1225, 
    1226, 
    1227, 
    1228, 
    1229, 
    1230, 
    1231, 
    1232, 
    1233, 
    1234, 
    1235, 
    1236, 
    1237, 
    1238, 
    1239, 
    1240, 
    1241, 
    1242, 
    1243, 
    1244, 
    1245, 
    1246, 
    1247, 
    1248, 
    1249, 
    1250, 
    1251, 
    1252, 
    1253, 
    1254, 
    1255, 
    1256, 
    1257, 
    1258, 
    1259, 
    1260, 
    1261, 
    1262, 
    1263, 
    1264, 
    1265, 
    1266, 
    1267, 
    1268, 
    1269, 
    1270, 
    1271, 
    1272, 
    1273, 
    1274, 
    1275, 
    1276, 
    1277, 
    1278, 
    1279, 
    1280, 
    1281, 
    1282, 
    1283, 
    1284, 
    1285, 
    1286, 
    1287, 
    1288, 
    1289, 
    1291, 
    1292, 
    1293, 
    1294, 
    1295, 
    1296, 
    1297, 
    1298, 
    1299, 
    1300, 
    1301, 
    1302, 
    1303, 
    1304, 
    1305, 
    1306, 
    1307, 
    1308, 
    1309, 
    1310, 
    1311, 
    1312, 
    1313, 
    1314, 
    1315, 
    1316, 
    1317, 
    1318, 
    1319, 
    1320, 
    1321, 
    1322, 
    1323, 
    1324, 
    1325, 
    1326, 
    1327, 
    1328, 
    1329, 
    1330, 
    1331, 
    1332, 
    1333, 
    1334, 
    1335, 
    1336, 
    1337, 
    1338, 
    1339, 
    1340, 
    1341, 
    1342, 
    1343, 
    1344, 
    1345, 
    1346, 
    1347, 
    1348, 
    1349, 
    1350, 
    1351, 
    1352, 
    1353, 
    1354, 
    1355, 
    1356, 
    1357, 
    1358, 
    1359, 
    1360, 
    1361, 
    1362, 
    1363, 
    1364, 
    1365, 
    1366, 
    1367, 
    1368, 
    1369, 
    1370, 
    1371, 
    1372, 
    1373, 
    1374, 
    1375, 
    1376, 
    1377, 
    1378, 
    1379, 
    1380, 
    1381, 
    1382, 
    1383, 
    1384, 
    1385, 
    1386, 
    1387, 
    1388, 
    1389, 
    1390, 
    1391, 
    1392, 
    1393, 
    1394, 
    1395, 
    1396, 
    1397, 
    1398, 
    1399, 
    1400, 
    1401, 
    1402, 
    1403, 
    1404, 
    1405, 
    1406, 
    1407, 
    1408, 
    1409, 
    1410, 
    1411, 
    1412, 
    1413, 
    1414, 
    1415, 
    1416, 
    1417, 
    1418, 
    1419, 
    1420, 
    1421, 
    1422, 
    1423, 
    1424, 
    1425, 
    1426, 
    1427, 
    1428, 
    1429, 
    1430, 
    1431, 
    1432, 
    1433, 
    1434, 
    1435, 
    1436, 
    1437, 
    1438, 
    1439, 
    1440, 
    1441, 
    1442, 
    1443, 
    1444, 
    1445, 
    1446, 
    1447, 
    1448, 
    1449, 
    1450, 
    1451, 
    1452, 
    1453, 
    1454, 
    1455, 
    1456, 
    1457, 
    1458, 
    1459, 
    1460, 
    1461, 
    1462, 
    1463, 
    1464, 
    1465, 
    1466, 
    1467, 
    1468, 
    1469, 
    1470, 
    1471, 
    1472, 
    1473, 
    1474, 
    1475, 
    1476, 
    1477, 
    1478, 
    1479, 
    1480, 
    1481, 
    1482, 
    1483, 
    1484, 
    1485, 
    1486, 
    1487, 
    1488, 
    1489, 
    1490, 
    1491, 
    1493, 
    1494, 
    1495, 
    1496, 
    1497, 
    1498, 
    1499, 
    1500, 
    1501, 
    1502, 
    1503, 
    1504, 
    1505, 
    1506, 
    1507, 
    1508, 
    1509, 
    1510, 
    1511, 
    1512, 
    1513, 
    1514, 
    1515, 
    1516, 
    1517, 
    1518, 
    1519, 
    1520, 
    1521, 
    1522, 
    1523, 
    1524, 
    1525, 
    1526, 
    1527, 
    1528, 
    1529, 
    1530, 
    1531, 
    1532, 
    1533, 
    1534, 
    1535, 
    1536, 
    1537, 
    1538, 
    1539, 
    1540, 
    1541, 
    1542, 
    1543, 
    1544, 
    1545, 
    1546, 
    1547, 
    1548, 
    1549, 
    1550, 
    1551, 
    1552, 
    1553, 
    1554, 
    1555, 
    1556, 
    1557, 
    1558, 
    1559, 
    1560, 
    1561, 
    1562, 
    1563, 
    1564, 
    1565, 
    1566, 
    1567, 
    1568, 
    1569, 
    1570, 
    1571, 
    1572, 
    1573, 
    1574, 
    1575, 
    1576, 
    1577, 
    1578, 
    1579, 
    1580, 
    1581, 
    1582, 
    1583, 
    1584, 
    1585, 
    1586, 
    1587, 
    1588, 
    1589, 
    1590, 
    1591, 
    1592, 
    1593, 
    1594, 
    1595, 
    1596, 
    1597, 
    1598, 
    1599, 
    1600, 
    1601, 
    1602, 
    1603, 
    1604, 
    1605, 
    1606, 
    1607, 
    1608, 
    1609, 
    1610, 
    1611, 
    1612, 
    1613, 
    1614, 
    1615, 
    1616, 
    1617, 
    1618, 
    1619, 
    1620, 
    1621, 
    1622, 
    1623, 
    1624, 
    1625, 
    1626, 
    1627, 
    1628, 
    1629, 
    1630, 
    1631, 
    1632, 
    1633, 
    1634, 
    1635, 
    1636, 
    1637, 
    1638, 
    1639, 
    1640, 
    1641, 
    1642, 
    1643, 
    1644, 
    1645, 
    1646, 
    1647, 
    1648, 
    1649, 
    1650, 
    1651, 
    1652, 
    1653, 
    1654, 
    1655, 
    1656, 
    1657, 
    1658, 
    1659, 
    1660, 
    1661, 
    1662, 
    1663, 
    1664, 
    1665, 
    1666, 
    1667, 
    1668, 
    1669, 
    1670, 
    1671, 
    1672, 
    1673, 
    1674, 
    1675, 
    1676, 
    1677, 
    1678, 
    1679, 
    1680, 
    1681, 
    1682, 
    1683, 
    1684, 
    1685, 
    1686, 
    1687, 
    1688, 
    1689, 
    1690, 
    1691, 
    1692, 
    1693, 
    1694, 
    1696, 
    1697, 
    1698, 
    1699, 
    1700, 
    1701, 
    1702, 
    1703, 
    1704, 
    1705, 
    1706, 
    1707, 
    1708, 
    1709, 
    1710, 
    1711, 
    1712, 
    1713, 
    1714, 
    1715, 
    1716, 
    1717, 
    1718, 
    1719, 
    1720, 
    1721, 
    1722, 
    1723, 
    1724, 
    1725, 
    1726, 
    1727, 
    1728, 
    1729, 
    1730, 
    1731, 
    1732, 
    1733, 
    1734, 
    1735, 
    1736, 
    1737, 
    1738, 
    1739, 
    1740, 
    1741, 
    1742, 
    1743, 
    1744, 
    1745, 
    1746, 
    1747, 
    1748, 
    1749, 
    1750, 
    1751, 
    1752, 
    1753, 
    1754, 
    1755, 
    1756, 
    1757, 
    1758, 
    1759, 
    1760, 
    1761, 
    1762, 
    1763, 
    1764, 
    1765, 
    1766, 
    1767, 
    1768, 
    1769, 
    1770, 
    1771, 
    1772, 
    1773, 
    1774, 
    1775, 
    1776, 
    1777, 
    1778, 
    1779, 
    1780, 
    1781, 
    1782, 
    1783, 
    1784, 
    1785, 
    1786, 
    1787, 
    1788, 
    1789, 
    1790, 
    1791, 
    1792, 
    1793, 
    1794, 
    1795, 
    1796, 
    1797, 
    1798, 
    1799, 
    1800, 
    1801, 
    1802, 
    1803, 
    1804, 
    1805, 
    1806, 
    1807, 
    1808, 
    1809, 
    1810, 
    1811, 
    1812, 
    1813, 
    1814, 
    1815, 
    1816, 
    1817, 
    1818, 
    1819, 
    1820, 
    1821, 
    1822, 
    1823, 
    1824, 
    1825, 
    1826, 
    1827, 
    1828, 
    1829, 
    1830, 
    1831, 
    1832, 
    1833, 
    1834, 
    1835, 
    1836, 
    1837, 
    1838, 
    1839, 
    1840, 
    1841, 
    1842, 
    1843, 
    1844, 
    1845, 
    1846, 
    1847, 
    1848, 
    1849, 
    1850, 
    1851, 
    1852, 
    1853, 
    1854, 
    1855, 
    1856, 
    1857, 
    1858, 
    1859, 
    1860, 
    1861, 
    1862, 
    1863, 
    1864, 
    1865, 
    1866, 
    1867, 
    1868, 
    1869, 
    1870, 
    1871, 
    1872, 
    1873, 
    1874, 
    1875, 
    1876, 
    1877, 
    1878, 
    1879, 
    1880, 
    1881, 
    1882, 
    1883, 
    1884, 
    1885, 
    1886, 
    1887, 
    1888, 
    1889, 
    1890, 
    1891, 
    1892, 
    1893, 
    1894, 
    1895, 
    1896, 
    1898, 
    1899, 
    1900, 
    1901, 
    1902, 
    1903, 
    1904, 
    1905, 
    1906, 
    1907, 
    1908, 
    1909, 
    1910, 
    1911, 
    1912, 
    1913, 
    1914, 
    1915, 
    1916, 
    1917, 
    1918, 
    1919, 
    1920, 
    1921, 
    1922, 
    1923, 
    1924, 
    1925, 
    1926, 
    1927, 
    1928, 
    1929, 
    1930, 
    1931, 
    1932, 
    1933, 
    1934, 
    1935, 
    1936, 
    1937, 
    1938, 
    1939, 
    1940, 
    1941, 
    1942, 
    1943, 
    1944, 
    1945, 
    1946, 
    1947, 
    1948, 
    1949, 
    1950, 
    1951, 
    1952, 
    1953, 
    1954, 
    1955, 
    1956, 
    1957, 
    1958, 
    1959, 
    1960, 
    1961, 
    1962, 
    1963, 
    1964, 
    1965, 
    1966, 
    1967, 
    1968, 
    1969, 
    1970, 
    1971, 
    1972, 
    1973, 
    1974, 
    1975, 
    1976, 
    1977, 
    1978, 
    1979, 
    1980, 
    1981, 
    1982, 
    1983, 
    1984, 
    1985, 
    1986, 
    1987, 
    1988, 
    1989, 
    1990, 
    1991, 
    1992, 
    1993, 
    1994, 
    1995, 
    1996, 
    1997, 
    1998, 
    1999, 
    2000, 
    2001, 
    2002, 
    2003, 
    2004, 
    2005, 
    2006, 
    2007, 
    2008, 
    2009, 
    2010, 
    2011, 
    2012, 
    2013, 
    2014, 
    2015, 
    2016, 
    2017, 
    2018, 
    2019, 
    2020, 
    2021, 
    2022, 
    2023, 
    2024, 
    2025, 
    2026, 
    2027, 
    2028, 
    2029, 
    2030, 
    2031, 
    2032, 
    2033, 
    2034, 
    2035, 
    2036, 
    2037, 
    2038, 
    2039, 
    2040, 
    2041, 
    2042, 
    2043, 
    2044, 
    2045, 
    2046, 
    2047, 
    2048, 
    2049, 
    2050, 
    2051, 
    2052, 
    2053, 
    2054, 
    2055, 
    2056, 
    2057, 
    2058, 
    2059, 
    2060, 
    2061, 
    2062, 
    2063, 
    2064, 
    2065, 
    2066, 
    2067, 
    2068, 
    2069, 
    2070, 
    2071, 
    2072, 
    2073, 
    2074, 
    2075, 
    2076, 
    2077, 
    2078, 
    2079, 
    2080, 
    2081, 
    2082, 
    2083, 
    2084, 
    2085, 
    2086, 
    2087, 
    2088, 
    2089, 
    2090, 
    2091, 
    2092, 
    2093, 
    2094, 
    2095, 
    2096, 
    2097, 
    2098, 
    2099, 
    2101, 
    2102, 
    2103, 
    2104, 
    2105, 
    2106, 
    2107, 
    2108, 
    2109, 
    2110, 
    2111, 
    2112, 
    2113, 
    2114, 
    2115, 
    2116, 
    2117, 
    2118, 
    2119, 
    2120, 
    2121, 
    2122, 
    2123, 
    2124, 
    2125, 
    2126, 
    2127, 
    2128, 
    2129, 
    2130, 
    2131, 
    2132, 
    2133, 
    2134, 
    2135, 
    2136, 
    2137, 
    2138, 
    2139, 
    2140, 
    2141, 
    2142, 
    2143, 
    2144, 
    2145, 
    2146, 
    2147, 
    2148, 
    2149, 
    2150, 
    2151, 
    2152, 
    2153, 
    2154, 
    2155, 
    2156, 
    2157, 
    2158, 
    2159, 
    2160, 
    2161, 
    2162, 
    2163, 
    2164, 
    2165, 
    2166, 
    2167, 
    2168, 
    2169, 
    2170, 
    2171, 
    2172, 
    2173, 
    2174, 
    2175, 
    2176, 
    2177, 
    2178, 
    2179, 
    2180, 
    2181, 
    2182, 
    2183, 
    2184, 
    2185, 
    2186, 
    2187, 
    2188, 
    2189, 
    2190, 
    2191, 
    2192, 
    2193, 
    2194, 
    2195, 
    2196, 
    2197, 
    2198, 
    2199, 
    2200, 
    2201, 
    2202, 
    2203, 
    2204, 
    2205, 
    2206, 
    2207, 
    2208, 
    2209, 
    2210, 
    2211, 
    2212, 
    2213, 
    2214, 
    2215, 
    2216, 
    2217, 
    2218, 
    2219, 
    2220, 
    2221, 
    2222, 
    2223, 
    2224, 
    2225, 
    2226, 
    2227, 
    2228, 
    2229, 
    2230, 
    2231, 
    2232, 
    2233, 
    2234, 
    2235, 
    2236, 
    2237, 
    2238, 
    2239, 
    2240, 
    2241, 
    2242, 
    2243, 
    2244, 
    2245, 
    2246, 
    2247, 
    2248, 
    2249, 
    2250, 
    2251, 
    2252, 
    2253, 
    2254, 
    2255, 
    2256, 
    2257, 
    2258, 
    2259, 
    2260, 
    2261, 
    2262, 
    2263, 
    2264, 
    2265, 
    2266, 
    2267, 
    2268, 
    2269, 
    2270, 
    2271, 
    2272, 
    2273, 
    2274, 
    2275, 
    2276, 
    2277, 
    2278, 
    2279, 
    2280, 
    2281, 
    2282, 
    2283, 
    2284, 
    2285, 
    2286, 
    2287, 
    2288, 
    2289, 
    2290, 
    2291, 
    2292, 
    2293, 
    2294, 
    2295, 
    2296, 
    2297, 
    2298, 
    2299, 
    2300, 
    2301, 
    2303, 
    2304, 
    2305, 
    2306, 
    2307, 
    2308, 
    2309, 
    2310, 
    2311, 
    2312, 
    2313, 
    2314, 
    2315, 
    2316, 
    2317, 
    2318, 
    2319, 
    2320, 
    2321, 
    2322, 
    2323, 
    2324, 
    2325, 
    2326, 
    2327, 
    2328, 
    2329, 
    2330, 
    2331, 
    2332, 
    2333, 
    2334, 
    2335, 
    2336, 
    2337, 
    2338, 
    2339, 
    2340, 
    2341, 
    2342, 
    2343, 
    2344, 
    2345, 
    2346, 
    2347, 
    2348, 
    2349, 
    2350, 
    2351, 
    2352, 
    2353, 
    2354, 
    2355, 
    2356, 
    2357, 
    2358, 
    2359, 
    2360, 
    2361, 
    2362, 
    2363, 
    2364, 
    2365, 
    2366, 
    2367, 
    2368, 
    2369, 
    2370, 
    2371, 
    2372, 
    2373, 
    2374, 
    2375, 
    2376, 
    2377, 
    2378, 
    2379, 
    2380, 
    2381, 
    2382, 
    2383, 
    2384, 
    2385, 
    2386, 
    2387, 
    2388, 
    2389, 
    2390, 
    2391, 
    2392, 
    2393, 
    2394, 
    2395, 
    2396, 
    2397, 
    2398, 
    2399, 
    2400, 
    2401, 
    2402, 
    2403, 
    2404, 
    2405, 
    2406, 
    2407, 
    2408, 
    2409, 
    2410, 
    2411, 
    2412, 
    2413, 
    2414, 
    2415, 
    2416, 
    2417, 
    2418, 
    2419, 
    2420, 
    2421, 
    2422, 
    2423, 
    2424, 
    2425, 
    2426, 
    2427, 
    2428, 
    2429, 
    2430, 
    2431, 
    2432, 
    2433, 
    2434, 
    2435, 
    2436, 
    2437, 
    2438, 
    2439, 
    2440, 
    2441, 
    2442, 
    2443, 
    2444, 
    2445, 
    2446, 
    2447, 
    2448, 
    2449, 
    2450, 
    2451, 
    2452, 
    2453, 
    2454, 
    2455, 
    2456, 
    2457, 
    2458, 
    2459, 
    2460, 
    2461, 
    2462, 
    2463, 
    2464, 
    2465, 
    2466, 
    2467, 
    2468, 
    2469, 
    2470, 
    2471, 
    2472, 
    2473, 
    2474, 
    2475, 
    2476, 
    2477, 
    2478, 
    2479, 
    2480, 
    2481, 
    2482, 
    2483, 
    2484, 
    2485, 
    2486, 
    2487, 
    2488, 
    2489, 
    2490, 
    2491, 
    2492, 
    2493, 
    2494, 
    2495, 
    2496, 
    2497, 
    2498, 
    2499, 
    2500, 
    2501, 
    2502, 
    2503, 
    2504, 
    2506, 
    2507, 
    2508, 
    2509, 
    2510, 
    2511, 
    2512, 
    2513, 
    2514, 
    2515, 
    2516, 
    2517, 
    2518, 
    2519, 
    2520, 
    2521, 
    2522, 
    2523, 
    2524, 
    2525, 
    2526, 
    2527, 
    2528, 
    2529, 
    2530, 
    2531, 
    2532, 
    2533, 
    2534, 
    2535, 
    2536, 
    2537, 
    2538, 
    2539, 
    2540, 
    2541, 
    2542, 
    2543, 
    2544, 
    2545, 
    2546, 
    2547, 
    2548, 
    2549, 
    2550, 
    2551, 
    2552, 
    2553, 
    2554, 
    2555, 
    2556, 
    2557, 
    2558, 
    2559, 
    2560, 
    2561, 
    2562, 
    2563, 
    2564, 
    2565, 
    2566, 
    2567, 
    2568, 
    2569, 
    2570, 
    2571, 
    2572, 
    2573, 
    2574, 
    2575, 
    2576, 
    2577, 
    2578, 
    2579, 
    2580, 
    2581, 
    2582, 
    2583, 
    2584, 
    2585, 
    2586, 
    2587, 
    2588, 
    2589, 
    2590, 
    2591, 
    2592, 
    2593, 
    2594, 
    2595, 
    2596, 
    2597, 
    2598, 
    2599, 
    2600, 
    2601, 
    2602, 
    2603, 
    2604, 
    2605, 
    2606, 
    2607, 
    2608, 
    2609, 
    2610, 
    2611, 
    2612, 
    2613, 
    2614, 
    2615, 
    2616, 
    2617, 
    2618, 
    2619, 
    2620, 
    2621, 
    2622, 
    2623, 
    2624, 
    2625, 
    2626, 
    2627, 
    2628, 
    2629, 
    2630, 
    2631, 
    2632, 
    2633, 
    2634, 
    2635, 
    2636, 
    2637, 
    2638, 
    2639, 
    2640, 
    2641, 
    2642, 
    2643, 
    2644, 
    2645, 
    2646, 
    2647, 
    2648, 
    2649, 
    2650, 
    2651, 
    2652, 
    2653, 
    2654, 
    2655, 
    2656, 
    2657, 
    2658, 
    2659, 
    2660, 
    2661, 
    2662, 
    2663, 
    2664, 
    2665, 
    2666, 
    2667, 
    2668, 
    2669, 
    2670, 
    2671, 
    2672, 
    2673, 
    2674, 
    2675, 
    2676, 
    2677, 
    2678, 
    2679, 
    2680, 
    2681, 
    2682, 
    2683, 
    2684, 
    2685, 
    2686, 
    2687, 
    2688, 
    2689, 
    2690, 
    2691, 
    2692, 
    2693, 
    2694, 
    2695, 
    2696, 
    2697, 
    2698, 
    2699, 
    2700, 
    2701, 
    2702, 
    2703, 
    2704, 
    2705, 
    2706, 
    2708, 
    2709, 
    2710, 
    2711, 
    2712, 
    2713, 
    2714, 
    2715, 
    2716, 
    2717, 
    2718, 
    2719, 
    2720, 
    2721, 
    2722, 
    2723, 
    2724, 
    2725, 
    2726, 
    2727, 
    2728, 
    2729, 
    2730, 
    2731, 
    2732, 
    2733, 
    2734, 
    2735, 
    2736, 
    2737, 
    2738, 
    2739, 
    2740, 
    2741, 
    2742, 
    2743, 
    2744, 
    2745, 
    2746, 
    2747, 
    2748, 
    2749, 
    2750, 
    2751, 
    2752, 
    2753, 
    2754, 
    2755, 
    2756, 
    2757, 
    2758, 
    2759, 
    2760, 
    2761, 
    2762, 
    2763, 
    2764, 
    2765, 
    2766, 
    2767, 
    2768, 
    2769, 
    2770, 
    2771, 
    2772, 
    2773, 
    2774, 
    2775, 
    2776, 
    2777, 
    2778, 
    2779, 
    2780, 
    2781, 
    2782, 
    2783, 
    2784, 
    2785, 
    2786, 
    2787, 
    2788, 
    2789, 
    2790, 
    2791, 
    2792, 
    2793, 
    2794, 
    2795, 
    2796, 
    2797, 
    2798, 
    2799, 
    2800, 
    2801, 
    2802, 
    2803, 
    2804, 
    2805, 
    2806, 
    2807, 
    2808, 
    2809, 
    2810, 
    2811, 
    2812, 
    2813, 
    2814, 
    2815, 
    2816, 
    2817, 
    2818, 
    2819, 
    2820, 
    2821, 
    2822, 
    2823, 
    2824, 
    2825, 
    2826, 
    2827, 
    2828, 
    2829, 
    2830, 
    2831, 
    2832, 
    2833, 
    2834, 
    2835, 
    2836, 
    2837, 
    2838, 
    2839, 
    2840, 
    2841, 
    2842, 
    2843, 
    2844, 
    2845, 
    2846, 
    2847, 
    2848, 
    2849, 
    2850, 
    2851, 
    2852, 
    2853, 
    2854, 
    2855, 
    2856, 
    2857, 
    2858, 
    2859, 
    2860, 
    2861, 
    2862, 
    2863, 
    2864, 
    2865, 
    2866, 
    2867, 
    2868, 
    2869, 
    2870, 
    2871, 
    2872, 
    2873, 
    2874, 
    2875, 
    2876, 
    2877, 
    2878, 
    2879, 
    2880, 
    2881, 
    2882, 
    2883, 
    2884, 
    2885, 
    2886, 
    2887, 
    2888, 
    2889, 
    2890, 
    2891, 
    2892, 
    2893, 
    2894, 
    2895, 
    2896, 
    2897, 
    2898, 
    2899, 
    2900, 
    2901, 
    2902, 
    2903, 
    2904, 
    2905, 
    2906, 
    2907, 
    2908, 
    2909, 
    2911, 
    2912, 
    2913, 
    2914, 
    2915, 
    2916, 
    2917, 
    2918, 
    2919, 
    2920, 
    2921, 
    2922, 
    2923, 
    2924, 
    2925, 
    2926, 
    2927, 
    2928, 
    2929, 
    2930, 
    2931, 
    2932, 
    2933, 
    2934, 
    2935, 
    2936, 
    2937, 
    2938, 
    2939, 
    2940, 
    2941, 
    2942, 
    2943, 
    2944, 
    2945, 
    2946, 
    2947, 
    2948, 
    2949, 
    2950, 
    2951, 
    2952, 
    2953, 
    2954, 
    2955, 
    2956, 
    2957, 
    2958, 
    2959, 
    2960, 
    2961, 
    2962, 
    2963, 
    2964, 
    2965, 
    2966, 
    2967, 
    2968, 
    2969, 
    2970, 
    2971, 
    2972, 
    2973, 
    2974, 
    2975, 
    2976, 
    2977, 
    2978, 
    2979, 
    2980, 
    2981, 
    2982, 
    2983, 
    2984, 
    2985, 
    2986, 
    2987, 
    2988, 
    2989, 
    2990, 
    2991, 
    2992, 
    2993, 
    2994, 
    2995, 
    2996, 
    2997, 
    2998, 
    2999, 
    3000, 
    3001, 
    3002, 
    3003, 
    3004, 
    3005, 
    3006, 
    3007, 
    3008, 
    3009, 
    3010, 
    3011, 
    3012, 
    3013, 
    3014, 
    3015, 
    3016, 
    3017, 
    3018, 
    3019, 
    3020, 
    3021, 
    3022, 
    3023, 
    3024, 
    3025, 
    3026, 
    3027, 
    3028, 
    3029, 
    3030, 
    3031, 
    3032, 
    3033, 
    3034, 
    3035, 
    3036, 
    3037, 
    3038, 
    3039, 
    3040, 
    3041, 
    3042, 
    3043, 
    3044, 
    3045, 
    3046, 
    3047, 
    3048, 
    3049, 
    3050, 
    3051, 
    3052, 
    3053, 
    3054, 
    3055, 
    3056, 
    3057, 
    3058, 
    3059, 
    3060, 
    3061, 
    3062, 
    3063, 
    3064, 
    3065, 
    3066, 
    3067, 
    3068, 
    3069, 
    3070, 
    3071, 
    3072, 
    3073, 
    3074, 
    3075, 
    3076, 
    3077, 
    3078, 
    3079, 
    3080, 
    3081, 
    3082, 
    3083, 
    3084, 
    3085, 
    3086, 
    3087, 
    3088, 
    3089, 
    3090, 
    3091, 
    3092, 
    3093, 
    3094, 
    3095, 
    3096, 
    3097, 
    3098, 
    3099, 
    3100, 
    3101, 
    3102, 
    3103, 
    3104, 
    3105, 
    3106, 
    3107, 
    3108, 
    3109, 
    3110, 
    3111, 
    3113, 
    3114, 
    3115, 
    3116, 
    3117, 
    3118, 
    3119, 
    3120, 
    3121, 
    3122, 
    3123, 
    3124, 
    3125, 
    3126, 
    3127, 
    3128, 
    3129, 
    3130, 
    3131, 
    3132, 
    3133, 
    3134, 
    3135, 
    3136, 
    3137, 
    3138, 
    3139, 
    3140, 
    3141, 
    3142, 
    3143, 
    3144, 
    3145, 
    3146, 
    3147, 
    3148, 
    3149, 
    3150, 
    3151, 
    3152, 
    3153, 
    3154, 
    3155, 
    3156, 
    3157, 
    3158, 
    3159, 
    3160, 
    3161, 
    3162, 
    3163, 
    3164, 
    3165, 
    3166, 
    3167, 
    3168, 
    3169, 
    3170, 
    3171, 
    3172, 
    3173, 
    3174, 
    3175, 
    3176, 
    3177, 
    3178, 
    3179, 
    3180, 
    3181, 
    3182, 
    3183, 
    3184, 
    3185, 
    3186, 
    3187, 
    3188, 
    3189, 
    3190, 
    3191, 
    3192, 
    3193, 
    3194, 
    3195, 
    3196, 
    3197, 
    3198, 
    3199, 
    3200, 
    3201, 
    3202, 
    3203, 
    3204, 
    3205, 
    3206, 
    3207, 
    3208, 
    3209, 
    3210, 
    3211, 
    3212, 
    3213, 
    3214, 
    3215, 
    3216, 
    3217, 
    3218, 
    3219, 
    3220, 
    3221, 
    3222, 
    3223, 
    3224, 
    3225, 
    3226, 
    3227, 
    3228, 
    3229, 
    3230, 
    3231, 
    3232, 
    3233, 
    3234, 
    3235, 
    3236, 
    3237, 
    3238, 
    3239, 
    3240, 
    3241, 
    3242, 
    3243, 
    3244, 
    3245, 
    3246, 
    3247, 
    3248, 
    3249, 
    3250, 
    3251, 
    3252, 
    3253, 
    3254, 
    3255, 
    3256, 
    3257, 
    3258, 
    3259, 
    3260, 
    3261, 
    3262, 
    3263, 
    3264, 
    3265, 
    3266, 
    3267, 
    3268, 
    3269, 
    3270, 
    3271, 
    3272, 
    3273, 
    3274, 
    3275, 
    3276, 
    3277, 
    3278, 
    3279, 
    3280, 
    3281, 
    3282, 
    3283, 
    3284, 
    3285, 
    3286, 
    3287, 
    3288, 
    3289, 
    3290, 
    3291, 
    3292, 
    3293, 
    3294, 
    3295, 
    3296, 
    3297, 
    3298, 
    3299, 
    3300, 
    3301, 
    3302, 
    3303, 
    3304, 
    3305, 
    3306, 
    3307, 
    3308, 
    3309, 
    3310, 
    3311, 
    3312, 
    3313, 
    3314, 
    3316, 
    3317, 
    3318, 
    3319, 
    3320, 
    3321, 
    3322, 
    3323, 
    3324, 
    3325, 
    3326, 
    3327, 
    3328, 
    3329, 
    3330, 
    3331, 
    3332, 
    3333, 
    3334, 
    3335, 
    3336, 
    3337, 
    3338, 
    3339, 
    3340, 
    3341, 
    3342, 
    3343, 
    3344, 
    3345, 
    3346, 
    3347, 
    3348, 
    3349, 
    3350, 
    3351, 
    3352, 
    3353, 
    3354, 
    3355, 
    3356, 
    3357, 
    3358, 
    3359, 
    3360, 
    3361, 
    3362, 
    3363, 
    3364, 
    3365, 
    3366, 
    3367, 
    3368, 
    3369, 
    3370, 
    3371, 
    3372, 
    3373, 
    3374, 
    3375, 
    3376, 
    3377, 
    3378, 
    3379, 
    3380, 
    3381, 
    3382, 
    3383, 
    3384, 
    3385, 
    3386, 
    3387, 
    3388, 
    3389, 
    3390, 
    3391, 
    3392, 
    3393, 
    3394, 
    3395, 
    3396, 
    3397, 
    3398, 
    3399, 
    3400, 
    3401, 
    3402, 
    3403, 
    3404, 
    3405, 
    3406, 
    3407, 
    3408, 
    3409, 
    3410, 
    3411, 
    3412, 
    3413, 
    3414, 
    3415, 
    3416, 
    3417, 
    3418, 
    3419, 
    3420, 
    3421, 
    3422, 
    3423, 
    3424, 
    3425, 
    3426, 
    3427, 
    3428, 
    3429, 
    3430, 
    3431, 
    3432, 
    3433, 
    3434, 
    3435, 
    3436, 
    3437, 
    3438, 
    3439, 
    3440, 
    3441, 
    3442, 
    3443, 
    3444, 
    3445, 
    3446, 
    3447, 
    3448, 
    3449, 
    3450, 
    3451, 
    3452, 
    3453, 
    3454, 
    3455, 
    3456, 
    3457, 
    3458, 
    3459, 
    3460, 
    3461, 
    3462, 
    3463, 
    3464, 
    3465, 
    3466, 
    3467, 
    3468, 
    3469, 
    3470, 
    3471, 
    3472, 
    3473, 
    3474, 
    3475, 
    3476, 
    3477, 
    3478, 
    3479, 
    3480, 
    3481, 
    3482, 
    3483, 
    3484, 
    3485, 
    3486, 
    3487, 
    3488, 
    3489, 
    3490, 
    3491, 
    3492, 
    3493, 
    3494, 
    3495, 
    3496, 
    3497, 
    3498, 
    3499, 
    3500, 
    3501, 
    3502, 
    3503, 
    3504, 
    3505, 
    3506, 
    3507, 
    3508, 
    3509, 
    3510, 
    3511, 
    3512, 
    3513, 
    3514, 
    3515, 
    3516, 
    3518, 
    3519, 
    3520, 
    3521, 
    3522, 
    3523, 
    3524, 
    3525, 
    3526, 
    3527, 
    3528, 
    3529, 
    3530, 
    3531, 
    3532, 
    3533, 
    3534, 
    3535, 
    3536, 
    3537, 
    3538, 
    3539, 
    3540, 
    3541, 
    3542, 
    3543, 
    3544, 
    3545, 
    3546, 
    3547, 
    3548, 
    3549, 
    3550, 
    3551, 
    3552, 
    3553, 
    3554, 
    3555, 
    3556, 
    3557, 
    3558, 
    3559, 
    3560, 
    3561, 
    3562, 
    3563, 
    3564, 
    3565, 
    3566, 
    3567, 
    3568, 
    3569, 
    3570, 
    3571, 
    3572, 
    3573, 
    3574, 
    3575, 
    3576, 
    3577, 
    3578, 
    3579, 
    3580, 
    3581, 
    3582, 
    3583, 
    3584, 
    3585, 
    3586, 
    3587, 
    3588, 
    3589, 
    3590, 
    3591, 
    3592, 
    3593, 
    3594, 
    3595, 
    3596, 
    3597, 
    3598, 
    3599, 
    3600, 
    3601, 
    3602, 
    3603, 
    3604, 
    3605, 
    3606, 
    3609, 
    3610, 
    3611, 
    3612, 
    3613, 
    3614, 
    3615, 
    3616, 
    3617, 
    3618, 
    3619, 
    3620, 
    3621, 
    3622, 
    3623, 
    3624, 
    3625, 
    3626, 
    3627, 
    3630, 
    3631, 
    3632, 
    3633, 
    3634, 
    3635, 
    3636, 
    3637, 
    3638, 
    3639
  ], 
  "heads": [[3616, 0, 0]], 
  "attrs": {"mxnet_version": ["int", 10600]}
}
