{
  "nodes": [
    {
      "op": "null", 
      "name": "data", 
      "inputs": []
    }, 
    {
      "op": "null", 
      "name": "inputConv_weight", 
      "attrs": {
        "kernel": "(16, 1)", 
        "no_bias": "0", 
        "num_filter": "32", 
        "pad": "(0, 0)", 
        "stride": "(1, 1)"
      }, 
      "inputs": []
    }, 
    {
      "op": "null", 
      "name": "inputConv_bias", 
      "attrs": {
        "kernel": "(16, 1)", 
        "no_bias": "0", 
        "num_filter": "32", 
        "pad": "(0, 0)", 
        "stride": "(1, 1)"
      }, 
      "inputs": []
    }, 
    {
      "op": "Convolution", 
      "name": "inputConv", 
      "attrs": {
        "kernel": "(16, 1)", 
        "no_bias": "0", 
        "num_filter": "32", 
        "pad": "(0, 0)", 
        "stride": "(1, 1)"
      }, 
      "inputs": [[0, 0, 0], [1, 0, 0], [2, 0, 0]]
    }, 
    {
      "op": "nansum", 
      "name": "squeeze", 
      "attrs": {
        "axis": "2", 
        "keepdims": "0"
      }, 
      "inputs": [[3, 0, 0]]
    }, 
    {
      "op": "Dropout", 
      "name": "dropout16", 
      "attrs": {
        "mode": "training", 
        "p": "0.0"
      }, 
      "inputs": [[4, 0, 0]]
    }, 
    {
      "op": "_random_uniform", 
      "name": "uniform17", 
      "attrs": {
        "high": "1", 
        "low": "-1"
      }, 
      "inputs": []
    }, 
    {
      "op": "mean", 
      "name": "mean32", 
      "attrs": {
        "axis": "1", 
        "exclude": "1", 
        "keepdims": "1"
      }, 
      "inputs": [[4, 0, 0]]
    }, 
    {
      "op": "zeros_like", 
      "name": "zeros_like16", 
      "inputs": [[4, 0, 0]]
    }, 
    {
      "op": "broadcast_add", 
      "name": "broadcast_add32", 
      "inputs": [[7, 0, 0], [8, 0, 0]]
    }, 
    {
      "op": "broadcast_sub", 
      "name": "broadcast_sub17", 
      "inputs": [[4, 0, 0], [9, 0, 0]]
    }, 
    {
      "op": "abs", 
      "name": "abs17", 
      "inputs": [[10, 0, 0]]
    }, 
    {
      "op": "mean", 
      "name": "mean33", 
      "attrs": {
        "axis": "1", 
        "exclude": "1", 
        "keepdims": "1"
      }, 
      "inputs": [[11, 0, 0]]
    }, 
    {
      "op": "broadcast_add", 
      "name": "broadcast_add33", 
      "inputs": [[12, 0, 0], [8, 0, 0]]
    }, 
    {
      "op": "elemwise_mul", 
      "name": "_mul18", 
      "inputs": [[6, 0, 0], [13, 0, 0]]
    }, 
    {
      "op": "elemwise_add", 
      "name": "_plus28", 
      "inputs": [[14, 0, 0], [9, 0, 0]]
    }, 
    {
      "op": "BlockGrad", 
      "name": "blockgrad18", 
      "inputs": [[15, 0, 0]]
    }, 
    {
      "op": "where", 
      "name": "where16", 
      "inputs": [[5, 0, 0], [4, 0, 0], [16, 0, 0]]
    }, 
    {
      "op": "LeakyReLU", 
      "name": "leakyrelu15", 
      "attrs": {
        "act_type": "elu", 
        "slope": "1"
      }, 
      "inputs": [[17, 0, 0]]
    }, 
    {
      "op": "null", 
      "name": "convolution29_weight", 
      "attrs": {
        "kernel": "3", 
        "no_bias": "0", 
        "num_filter": "32", 
        "pad": "1", 
        "stride": "1"
      }, 
      "inputs": []
    }, 
    {
      "op": "null", 
      "name": "convolution29_bias", 
      "attrs": {
        "kernel": "3", 
        "no_bias": "0", 
        "num_filter": "32", 
        "pad": "1", 
        "stride": "1"
      }, 
      "inputs": []
    }, 
    {
      "op": "Convolution", 
      "name": "convolution29", 
      "attrs": {
        "kernel": "3", 
        "no_bias": "0", 
        "num_filter": "32", 
        "pad": "1", 
        "stride": "1"
      }, 
      "inputs": [[18, 0, 0], [19, 0, 0], [20, 0, 0]]
    }, 
    {
      "op": "Dropout", 
      "name": "dropout17", 
      "attrs": {
        "mode": "training", 
        "p": "0.0"
      }, 
      "inputs": [[21, 0, 0]]
    }, 
    {
      "op": "_random_uniform", 
      "name": "uniform18", 
      "attrs": {
        "high": "1", 
        "low": "-1"
      }, 
      "inputs": []
    }, 
    {
      "op": "mean", 
      "name": "mean34", 
      "attrs": {
        "axis": "1", 
        "exclude": "1", 
        "keepdims": "1"
      }, 
      "inputs": [[21, 0, 0]]
    }, 
    {
      "op": "zeros_like", 
      "name": "zeros_like17", 
      "inputs": [[21, 0, 0]]
    }, 
    {
      "op": "broadcast_add", 
      "name": "broadcast_add34", 
      "inputs": [[24, 0, 0], [25, 0, 0]]
    }, 
    {
      "op": "broadcast_sub", 
      "name": "broadcast_sub18", 
      "inputs": [[21, 0, 0], [26, 0, 0]]
    }, 
    {
      "op": "abs", 
      "name": "abs18", 
      "inputs": [[27, 0, 0]]
    }, 
    {
      "op": "mean", 
      "name": "mean35", 
      "attrs": {
        "axis": "1", 
        "exclude": "1", 
        "keepdims": "1"
      }, 
      "inputs": [[28, 0, 0]]
    }, 
    {
      "op": "broadcast_add", 
      "name": "broadcast_add35", 
      "inputs": [[29, 0, 0], [25, 0, 0]]
    }, 
    {
      "op": "elemwise_mul", 
      "name": "_mul19", 
      "inputs": [[23, 0, 0], [30, 0, 0]]
    }, 
    {
      "op": "elemwise_add", 
      "name": "_plus29", 
      "inputs": [[31, 0, 0], [26, 0, 0]]
    }, 
    {
      "op": "BlockGrad", 
      "name": "blockgrad19", 
      "inputs": [[32, 0, 0]]
    }, 
    {
      "op": "where", 
      "name": "where17", 
      "inputs": [[22, 0, 0], [21, 0, 0], [33, 0, 0]]
    }, 
    {
      "op": "LeakyReLU", 
      "name": "leakyrelu16", 
      "attrs": {
        "act_type": "elu", 
        "slope": "1"
      }, 
      "inputs": [[34, 0, 0]]
    }, 
    {
      "op": "null", 
      "name": "convolution30_weight", 
      "attrs": {
        "kernel": "1", 
        "no_bias": "0", 
        "num_filter": "64", 
        "pad": "1", 
        "stride": "1"
      }, 
      "inputs": []
    }, 
    {
      "op": "null", 
      "name": "convolution30_bias", 
      "attrs": {
        "kernel": "1", 
        "no_bias": "0", 
        "num_filter": "64", 
        "pad": "1", 
        "stride": "1"
      }, 
      "inputs": []
    }, 
    {
      "op": "Convolution", 
      "name": "convolution30", 
      "attrs": {
        "kernel": "1", 
        "no_bias": "0", 
        "num_filter": "64", 
        "pad": "1", 
        "stride": "1"
      }, 
      "inputs": [[35, 0, 0], [36, 0, 0], [37, 0, 0]]
    }, 
    {
      "op": "Dropout", 
      "name": "dropout18", 
      "attrs": {
        "mode": "training", 
        "p": "0.0"
      }, 
      "inputs": [[38, 0, 0]]
    }, 
    {
      "op": "_random_uniform", 
      "name": "uniform19", 
      "attrs": {
        "high": "1", 
        "low": "-1"
      }, 
      "inputs": []
    }, 
    {
      "op": "mean", 
      "name": "mean36", 
      "attrs": {
        "axis": "1", 
        "exclude": "1", 
        "keepdims": "1"
      }, 
      "inputs": [[38, 0, 0]]
    }, 
    {
      "op": "zeros_like", 
      "name": "zeros_like18", 
      "inputs": [[38, 0, 0]]
    }, 
    {
      "op": "broadcast_add", 
      "name": "broadcast_add36", 
      "inputs": [[41, 0, 0], [42, 0, 0]]
    }, 
    {
      "op": "broadcast_sub", 
      "name": "broadcast_sub19", 
      "inputs": [[38, 0, 0], [43, 0, 0]]
    }, 
    {
      "op": "abs", 
      "name": "abs19", 
      "inputs": [[44, 0, 0]]
    }, 
    {
      "op": "mean", 
      "name": "mean37", 
      "attrs": {
        "axis": "1", 
        "exclude": "1", 
        "keepdims": "1"
      }, 
      "inputs": [[45, 0, 0]]
    }, 
    {
      "op": "broadcast_add", 
      "name": "broadcast_add37", 
      "inputs": [[46, 0, 0], [42, 0, 0]]
    }, 
    {
      "op": "elemwise_mul", 
      "name": "_mul20", 
      "inputs": [[40, 0, 0], [47, 0, 0]]
    }, 
    {
      "op": "elemwise_add", 
      "name": "_plus30", 
      "inputs": [[48, 0, 0], [43, 0, 0]]
    }, 
    {
      "op": "BlockGrad", 
      "name": "blockgrad20", 
      "inputs": [[49, 0, 0]]
    }, 
    {
      "op": "where", 
      "name": "where18", 
      "inputs": [[39, 0, 0], [38, 0, 0], [50, 0, 0]]
    }, 
    {
      "op": "null", 
      "name": "batchnorm14_gamma", 
      "attrs": {
        "eps": "2e-005", 
        "fix_gamma": "0", 
        "momentum": "0.95", 
        "use_global_stats": "0"
      }, 
      "inputs": []
    }, 
    {
      "op": "null", 
      "name": "batchnorm14_beta", 
      "attrs": {
        "eps": "2e-005", 
        "fix_gamma": "0", 
        "momentum": "0.95", 
        "use_global_stats": "0"
      }, 
      "inputs": []
    }, 
    {
      "op": "null", 
      "name": "batchnorm14_moving_mean", 
      "attrs": {
        "__init__": "[\"zero\", {}]", 
        "eps": "2e-005", 
        "fix_gamma": "0", 
        "momentum": "0.95", 
        "use_global_stats": "0"
      }, 
      "inputs": []
    }, 
    {
      "op": "null", 
      "name": "batchnorm14_moving_var", 
      "attrs": {
        "__init__": "[\"one\", {}]", 
        "eps": "2e-005", 
        "fix_gamma": "0", 
        "momentum": "0.95", 
        "use_global_stats": "0"
      }, 
      "inputs": []
    }, 
    {
      "op": "BatchNorm", 
      "name": "batchnorm14", 
      "attrs": {
        "eps": "2e-005", 
        "fix_gamma": "0", 
        "momentum": "0.95", 
        "use_global_stats": "0"
      }, 
      "inputs": [[51, 0, 0], [52, 0, 0], [53, 0, 0], [54, 0, 1], [55, 0, 1]]
    }, 
    {
      "op": "Pooling", 
      "name": "pooling3", 
      "attrs": {
        "kernel": "3", 
        "pad": "1", 
        "pool_type": "avg", 
        "stride": "2"
      }, 
      "inputs": [[56, 0, 0]]
    }, 
    {
      "op": "null", 
      "name": "convolution31_weight", 
      "attrs": {
        "dilate": "1", 
        "kernel": "3", 
        "no_bias": "1", 
        "num_filter": "64", 
        "pad": "1", 
        "stride": "2"
      }, 
      "inputs": []
    }, 
    {
      "op": "Convolution", 
      "name": "convolution31", 
      "attrs": {
        "dilate": "1", 
        "kernel": "3", 
        "no_bias": "1", 
        "num_filter": "64", 
        "pad": "1", 
        "stride": "2"
      }, 
      "inputs": [[56, 0, 0], [58, 0, 0]]
    }, 
    {
      "op": "Dropout", 
      "name": "dropout19", 
      "attrs": {
        "mode": "training", 
        "p": "0.0"
      }, 
      "inputs": [[59, 0, 0]]
    }, 
    {
      "op": "_random_uniform", 
      "name": "uniform20", 
      "attrs": {
        "high": "1", 
        "low": "-1"
      }, 
      "inputs": []
    }, 
    {
      "op": "mean", 
      "name": "mean38", 
      "attrs": {
        "axis": "1", 
        "exclude": "1", 
        "keepdims": "1"
      }, 
      "inputs": [[59, 0, 0]]
    }, 
    {
      "op": "zeros_like", 
      "name": "zeros_like19", 
      "inputs": [[59, 0, 0]]
    }, 
    {
      "op": "broadcast_add", 
      "name": "broadcast_add38", 
      "inputs": [[62, 0, 0], [63, 0, 0]]
    }, 
    {
      "op": "broadcast_sub", 
      "name": "broadcast_sub20", 
      "inputs": [[59, 0, 0], [64, 0, 0]]
    }, 
    {
      "op": "abs", 
      "name": "abs20", 
      "inputs": [[65, 0, 0]]
    }, 
    {
      "op": "mean", 
      "name": "mean39", 
      "attrs": {
        "axis": "1", 
        "exclude": "1", 
        "keepdims": "1"
      }, 
      "inputs": [[66, 0, 0]]
    }, 
    {
      "op": "broadcast_add", 
      "name": "broadcast_add39", 
      "inputs": [[67, 0, 0], [63, 0, 0]]
    }, 
    {
      "op": "elemwise_mul", 
      "name": "_mul21", 
      "inputs": [[61, 0, 0], [68, 0, 0]]
    }, 
    {
      "op": "elemwise_add", 
      "name": "_plus31", 
      "inputs": [[69, 0, 0], [64, 0, 0]]
    }, 
    {
      "op": "BlockGrad", 
      "name": "blockgrad21", 
      "inputs": [[70, 0, 0]]
    }, 
    {
      "op": "where", 
      "name": "where19", 
      "inputs": [[60, 0, 0], [59, 0, 0], [71, 0, 0]]
    }, 
    {
      "op": "LeakyReLU", 
      "name": "leakyrelu17", 
      "attrs": {
        "act_type": "elu", 
        "slope": "1"
      }, 
      "inputs": [[72, 0, 0]]
    }, 
    {
      "op": "null", 
      "name": "convolution32_weight", 
      "attrs": {
        "dilate": "1", 
        "kernel": "3", 
        "no_bias": "1", 
        "num_filter": "64", 
        "pad": "1", 
        "stride": "1"
      }, 
      "inputs": []
    }, 
    {
      "op": "Convolution", 
      "name": "convolution32", 
      "attrs": {
        "dilate": "1", 
        "kernel": "3", 
        "no_bias": "1", 
        "num_filter": "64", 
        "pad": "1", 
        "stride": "1"
      }, 
      "inputs": [[73, 0, 0], [74, 0, 0]]
    }, 
    {
      "op": "null", 
      "name": "batchnorm15_gamma", 
      "attrs": {
        "eps": "2e-005", 
        "fix_gamma": "0", 
        "momentum": "0.95", 
        "use_global_stats": "0"
      }, 
      "inputs": []
    }, 
    {
      "op": "null", 
      "name": "batchnorm15_beta", 
      "attrs": {
        "eps": "2e-005", 
        "fix_gamma": "0", 
        "momentum": "0.95", 
        "use_global_stats": "0"
      }, 
      "inputs": []
    }, 
    {
      "op": "null", 
      "name": "batchnorm15_moving_mean", 
      "attrs": {
        "__init__": "[\"zero\", {}]", 
        "eps": "2e-005", 
        "fix_gamma": "0", 
        "momentum": "0.95", 
        "use_global_stats": "0"
      }, 
      "inputs": []
    }, 
    {
      "op": "null", 
      "name": "batchnorm15_moving_var", 
      "attrs": {
        "__init__": "[\"one\", {}]", 
        "eps": "2e-005", 
        "fix_gamma": "0", 
        "momentum": "0.95", 
        "use_global_stats": "0"
      }, 
      "inputs": []
    }, 
    {
      "op": "BatchNorm", 
      "name": "batchnorm15", 
      "attrs": {
        "eps": "2e-005", 
        "fix_gamma": "0", 
        "momentum": "0.95", 
        "use_global_stats": "0"
      }, 
      "inputs": [[75, 0, 0], [76, 0, 0], [77, 0, 0], [78, 0, 1], [79, 0, 1]]
    }, 
    {
      "op": "elemwise_add", 
      "name": "_plus32", 
      "inputs": [[57, 0, 0], [80, 0, 0]]
    }, 
    {
      "op": "Pooling", 
      "name": "pooling4", 
      "attrs": {
        "kernel": "3", 
        "pad": "1", 
        "pool_type": "avg", 
        "stride": "2"
      }, 
      "inputs": [[81, 0, 0]]
    }, 
    {
      "op": "null", 
      "name": "convolution33_weight", 
      "attrs": {
        "dilate": "1", 
        "kernel": "3", 
        "no_bias": "1", 
        "num_filter": "64", 
        "pad": "1", 
        "stride": "2"
      }, 
      "inputs": []
    }, 
    {
      "op": "Convolution", 
      "name": "convolution33", 
      "attrs": {
        "dilate": "1", 
        "kernel": "3", 
        "no_bias": "1", 
        "num_filter": "64", 
        "pad": "1", 
        "stride": "2"
      }, 
      "inputs": [[81, 0, 0], [83, 0, 0]]
    }, 
    {
      "op": "Dropout", 
      "name": "dropout20", 
      "attrs": {
        "mode": "training", 
        "p": "0.0"
      }, 
      "inputs": [[84, 0, 0]]
    }, 
    {
      "op": "_random_uniform", 
      "name": "uniform21", 
      "attrs": {
        "high": "1", 
        "low": "-1"
      }, 
      "inputs": []
    }, 
    {
      "op": "mean", 
      "name": "mean40", 
      "attrs": {
        "axis": "1", 
        "exclude": "1", 
        "keepdims": "1"
      }, 
      "inputs": [[84, 0, 0]]
    }, 
    {
      "op": "zeros_like", 
      "name": "zeros_like20", 
      "inputs": [[84, 0, 0]]
    }, 
    {
      "op": "broadcast_add", 
      "name": "broadcast_add40", 
      "inputs": [[87, 0, 0], [88, 0, 0]]
    }, 
    {
      "op": "broadcast_sub", 
      "name": "broadcast_sub21", 
      "inputs": [[84, 0, 0], [89, 0, 0]]
    }, 
    {
      "op": "abs", 
      "name": "abs21", 
      "inputs": [[90, 0, 0]]
    }, 
    {
      "op": "mean", 
      "name": "mean41", 
      "attrs": {
        "axis": "1", 
        "exclude": "1", 
        "keepdims": "1"
      }, 
      "inputs": [[91, 0, 0]]
    }, 
    {
      "op": "broadcast_add", 
      "name": "broadcast_add41", 
      "inputs": [[92, 0, 0], [88, 0, 0]]
    }, 
    {
      "op": "elemwise_mul", 
      "name": "_mul22", 
      "inputs": [[86, 0, 0], [93, 0, 0]]
    }, 
    {
      "op": "elemwise_add", 
      "name": "_plus33", 
      "inputs": [[94, 0, 0], [89, 0, 0]]
    }, 
    {
      "op": "BlockGrad", 
      "name": "blockgrad22", 
      "inputs": [[95, 0, 0]]
    }, 
    {
      "op": "where", 
      "name": "where20", 
      "inputs": [[85, 0, 0], [84, 0, 0], [96, 0, 0]]
    }, 
    {
      "op": "LeakyReLU", 
      "name": "leakyrelu18", 
      "attrs": {
        "act_type": "elu", 
        "slope": "1"
      }, 
      "inputs": [[97, 0, 0]]
    }, 
    {
      "op": "null", 
      "name": "convolution34_weight", 
      "attrs": {
        "dilate": "1", 
        "kernel": "3", 
        "no_bias": "1", 
        "num_filter": "64", 
        "pad": "1", 
        "stride": "1"
      }, 
      "inputs": []
    }, 
    {
      "op": "Convolution", 
      "name": "convolution34", 
      "attrs": {
        "dilate": "1", 
        "kernel": "3", 
        "no_bias": "1", 
        "num_filter": "64", 
        "pad": "1", 
        "stride": "1"
      }, 
      "inputs": [[98, 0, 0], [99, 0, 0]]
    }, 
    {
      "op": "null", 
      "name": "batchnorm16_gamma", 
      "attrs": {
        "eps": "2e-005", 
        "fix_gamma": "0", 
        "momentum": "0.95", 
        "use_global_stats": "0"
      }, 
      "inputs": []
    }, 
    {
      "op": "null", 
      "name": "batchnorm16_beta", 
      "attrs": {
        "eps": "2e-005", 
        "fix_gamma": "0", 
        "momentum": "0.95", 
        "use_global_stats": "0"
      }, 
      "inputs": []
    }, 
    {
      "op": "null", 
      "name": "batchnorm16_moving_mean", 
      "attrs": {
        "__init__": "[\"zero\", {}]", 
        "eps": "2e-005", 
        "fix_gamma": "0", 
        "momentum": "0.95", 
        "use_global_stats": "0"
      }, 
      "inputs": []
    }, 
    {
      "op": "null", 
      "name": "batchnorm16_moving_var", 
      "attrs": {
        "__init__": "[\"one\", {}]", 
        "eps": "2e-005", 
        "fix_gamma": "0", 
        "momentum": "0.95", 
        "use_global_stats": "0"
      }, 
      "inputs": []
    }, 
    {
      "op": "BatchNorm", 
      "name": "batchnorm16", 
      "attrs": {
        "eps": "2e-005", 
        "fix_gamma": "0", 
        "momentum": "0.95", 
        "use_global_stats": "0"
      }, 
      "inputs": [[100, 0, 0], [101, 0, 0], [102, 0, 0], [103, 0, 1], [104, 0, 1]]
    }, 
    {
      "op": "elemwise_add", 
      "name": "_plus34", 
      "inputs": [[82, 0, 0], [105, 0, 0]]
    }, 
    {
      "op": "null", 
      "name": "convolution35_weight", 
      "attrs": {
        "dilate": "1", 
        "kernel": "3", 
        "no_bias": "1", 
        "num_filter": "64", 
        "pad": "1", 
        "stride": "1"
      }, 
      "inputs": []
    }, 
    {
      "op": "Convolution", 
      "name": "convolution35", 
      "attrs": {
        "dilate": "1", 
        "kernel": "3", 
        "no_bias": "1", 
        "num_filter": "64", 
        "pad": "1", 
        "stride": "1"
      }, 
      "inputs": [[106, 0, 0], [107, 0, 0]]
    }, 
    {
      "op": "Dropout", 
      "name": "dropout21", 
      "attrs": {
        "mode": "training", 
        "p": "0.0"
      }, 
      "inputs": [[108, 0, 0]]
    }, 
    {
      "op": "_random_uniform", 
      "name": "uniform22", 
      "attrs": {
        "high": "1", 
        "low": "-1"
      }, 
      "inputs": []
    }, 
    {
      "op": "mean", 
      "name": "mean42", 
      "attrs": {
        "axis": "1", 
        "exclude": "1", 
        "keepdims": "1"
      }, 
      "inputs": [[108, 0, 0]]
    }, 
    {
      "op": "zeros_like", 
      "name": "zeros_like21", 
      "inputs": [[108, 0, 0]]
    }, 
    {
      "op": "broadcast_add", 
      "name": "broadcast_add42", 
      "inputs": [[111, 0, 0], [112, 0, 0]]
    }, 
    {
      "op": "broadcast_sub", 
      "name": "broadcast_sub22", 
      "inputs": [[108, 0, 0], [113, 0, 0]]
    }, 
    {
      "op": "abs", 
      "name": "abs22", 
      "inputs": [[114, 0, 0]]
    }, 
    {
      "op": "mean", 
      "name": "mean43", 
      "attrs": {
        "axis": "1", 
        "exclude": "1", 
        "keepdims": "1"
      }, 
      "inputs": [[115, 0, 0]]
    }, 
    {
      "op": "broadcast_add", 
      "name": "broadcast_add43", 
      "inputs": [[116, 0, 0], [112, 0, 0]]
    }, 
    {
      "op": "elemwise_mul", 
      "name": "_mul23", 
      "inputs": [[110, 0, 0], [117, 0, 0]]
    }, 
    {
      "op": "elemwise_add", 
      "name": "_plus35", 
      "inputs": [[118, 0, 0], [113, 0, 0]]
    }, 
    {
      "op": "BlockGrad", 
      "name": "blockgrad23", 
      "inputs": [[119, 0, 0]]
    }, 
    {
      "op": "where", 
      "name": "where21", 
      "inputs": [[109, 0, 0], [108, 0, 0], [120, 0, 0]]
    }, 
    {
      "op": "LeakyReLU", 
      "name": "leakyrelu19", 
      "attrs": {
        "act_type": "elu", 
        "slope": "1"
      }, 
      "inputs": [[121, 0, 0]]
    }, 
    {
      "op": "null", 
      "name": "convolution36_weight", 
      "attrs": {
        "dilate": "1", 
        "kernel": "3", 
        "no_bias": "1", 
        "num_filter": "64", 
        "pad": "1", 
        "stride": "1"
      }, 
      "inputs": []
    }, 
    {
      "op": "Convolution", 
      "name": "convolution36", 
      "attrs": {
        "dilate": "1", 
        "kernel": "3", 
        "no_bias": "1", 
        "num_filter": "64", 
        "pad": "1", 
        "stride": "1"
      }, 
      "inputs": [[122, 0, 0], [123, 0, 0]]
    }, 
    {
      "op": "null", 
      "name": "batchnorm17_gamma", 
      "attrs": {
        "eps": "2e-005", 
        "fix_gamma": "0", 
        "momentum": "0.95", 
        "use_global_stats": "0"
      }, 
      "inputs": []
    }, 
    {
      "op": "null", 
      "name": "batchnorm17_beta", 
      "attrs": {
        "eps": "2e-005", 
        "fix_gamma": "0", 
        "momentum": "0.95", 
        "use_global_stats": "0"
      }, 
      "inputs": []
    }, 
    {
      "op": "null", 
      "name": "batchnorm17_moving_mean", 
      "attrs": {
        "__init__": "[\"zero\", {}]", 
        "eps": "2e-005", 
        "fix_gamma": "0", 
        "momentum": "0.95", 
        "use_global_stats": "0"
      }, 
      "inputs": []
    }, 
    {
      "op": "null", 
      "name": "batchnorm17_moving_var", 
      "attrs": {
        "__init__": "[\"one\", {}]", 
        "eps": "2e-005", 
        "fix_gamma": "0", 
        "momentum": "0.95", 
        "use_global_stats": "0"
      }, 
      "inputs": []
    }, 
    {
      "op": "BatchNorm", 
      "name": "batchnorm17", 
      "attrs": {
        "eps": "2e-005", 
        "fix_gamma": "0", 
        "momentum": "0.95", 
        "use_global_stats": "0"
      }, 
      "inputs": [[124, 0, 0], [125, 0, 0], [126, 0, 0], [127, 0, 1], [128, 0, 1]]
    }, 
    {
      "op": "elemwise_add", 
      "name": "_plus36", 
      "inputs": [[106, 0, 0], [129, 0, 0]]
    }, 
    {
      "op": "Pooling", 
      "name": "pooling5", 
      "attrs": {
        "kernel": "3", 
        "pad": "1", 
        "pool_type": "avg", 
        "stride": "2"
      }, 
      "inputs": [[130, 0, 0]]
    }, 
    {
      "op": "null", 
      "name": "convolution37_weight", 
      "attrs": {
        "dilate": "1", 
        "kernel": "3", 
        "no_bias": "1", 
        "num_filter": "64", 
        "pad": "1", 
        "stride": "2"
      }, 
      "inputs": []
    }, 
    {
      "op": "Convolution", 
      "name": "convolution37", 
      "attrs": {
        "dilate": "1", 
        "kernel": "3", 
        "no_bias": "1", 
        "num_filter": "64", 
        "pad": "1", 
        "stride": "2"
      }, 
      "inputs": [[130, 0, 0], [132, 0, 0]]
    }, 
    {
      "op": "Dropout", 
      "name": "dropout22", 
      "attrs": {
        "mode": "training", 
        "p": "0.0"
      }, 
      "inputs": [[133, 0, 0]]
    }, 
    {
      "op": "_random_uniform", 
      "name": "uniform23", 
      "attrs": {
        "high": "1", 
        "low": "-1"
      }, 
      "inputs": []
    }, 
    {
      "op": "mean", 
      "name": "mean44", 
      "attrs": {
        "axis": "1", 
        "exclude": "1", 
        "keepdims": "1"
      }, 
      "inputs": [[133, 0, 0]]
    }, 
    {
      "op": "zeros_like", 
      "name": "zeros_like22", 
      "inputs": [[133, 0, 0]]
    }, 
    {
      "op": "broadcast_add", 
      "name": "broadcast_add44", 
      "inputs": [[136, 0, 0], [137, 0, 0]]
    }, 
    {
      "op": "broadcast_sub", 
      "name": "broadcast_sub23", 
      "inputs": [[133, 0, 0], [138, 0, 0]]
    }, 
    {
      "op": "abs", 
      "name": "abs23", 
      "inputs": [[139, 0, 0]]
    }, 
    {
      "op": "mean", 
      "name": "mean45", 
      "attrs": {
        "axis": "1", 
        "exclude": "1", 
        "keepdims": "1"
      }, 
      "inputs": [[140, 0, 0]]
    }, 
    {
      "op": "broadcast_add", 
      "name": "broadcast_add45", 
      "inputs": [[141, 0, 0], [137, 0, 0]]
    }, 
    {
      "op": "elemwise_mul", 
      "name": "_mul24", 
      "inputs": [[135, 0, 0], [142, 0, 0]]
    }, 
    {
      "op": "elemwise_add", 
      "name": "_plus37", 
      "inputs": [[143, 0, 0], [138, 0, 0]]
    }, 
    {
      "op": "BlockGrad", 
      "name": "blockgrad24", 
      "inputs": [[144, 0, 0]]
    }, 
    {
      "op": "where", 
      "name": "where22", 
      "inputs": [[134, 0, 0], [133, 0, 0], [145, 0, 0]]
    }, 
    {
      "op": "LeakyReLU", 
      "name": "leakyrelu20", 
      "attrs": {
        "act_type": "elu", 
        "slope": "1"
      }, 
      "inputs": [[146, 0, 0]]
    }, 
    {
      "op": "null", 
      "name": "convolution38_weight", 
      "attrs": {
        "dilate": "1", 
        "kernel": "3", 
        "no_bias": "1", 
        "num_filter": "64", 
        "pad": "1", 
        "stride": "1"
      }, 
      "inputs": []
    }, 
    {
      "op": "Convolution", 
      "name": "convolution38", 
      "attrs": {
        "dilate": "1", 
        "kernel": "3", 
        "no_bias": "1", 
        "num_filter": "64", 
        "pad": "1", 
        "stride": "1"
      }, 
      "inputs": [[147, 0, 0], [148, 0, 0]]
    }, 
    {
      "op": "null", 
      "name": "batchnorm18_gamma", 
      "attrs": {
        "eps": "2e-005", 
        "fix_gamma": "0", 
        "momentum": "0.95", 
        "use_global_stats": "0"
      }, 
      "inputs": []
    }, 
    {
      "op": "null", 
      "name": "batchnorm18_beta", 
      "attrs": {
        "eps": "2e-005", 
        "fix_gamma": "0", 
        "momentum": "0.95", 
        "use_global_stats": "0"
      }, 
      "inputs": []
    }, 
    {
      "op": "null", 
      "name": "batchnorm18_moving_mean", 
      "attrs": {
        "__init__": "[\"zero\", {}]", 
        "eps": "2e-005", 
        "fix_gamma": "0", 
        "momentum": "0.95", 
        "use_global_stats": "0"
      }, 
      "inputs": []
    }, 
    {
      "op": "null", 
      "name": "batchnorm18_moving_var", 
      "attrs": {
        "__init__": "[\"one\", {}]", 
        "eps": "2e-005", 
        "fix_gamma": "0", 
        "momentum": "0.95", 
        "use_global_stats": "0"
      }, 
      "inputs": []
    }, 
    {
      "op": "BatchNorm", 
      "name": "batchnorm18", 
      "attrs": {
        "eps": "2e-005", 
        "fix_gamma": "0", 
        "momentum": "0.95", 
        "use_global_stats": "0"
      }, 
      "inputs": [[149, 0, 0], [150, 0, 0], [151, 0, 0], [152, 0, 1], [153, 0, 1]]
    }, 
    {
      "op": "elemwise_add", 
      "name": "_plus38", 
      "inputs": [[131, 0, 0], [154, 0, 0]]
    }, 
    {
      "op": "null", 
      "name": "convolution39_weight", 
      "attrs": {
        "kernel": "1", 
        "no_bias": "1", 
        "num_filter": "128", 
        "stride": "1"
      }, 
      "inputs": []
    }, 
    {
      "op": "Convolution", 
      "name": "convolution39", 
      "attrs": {
        "kernel": "1", 
        "no_bias": "1", 
        "num_filter": "128", 
        "stride": "1"
      }, 
      "inputs": [[155, 0, 0], [156, 0, 0]]
    }, 
    {
      "op": "null", 
      "name": "convolution40_weight", 
      "attrs": {
        "dilate": "1", 
        "kernel": "3", 
        "no_bias": "1", 
        "num_filter": "128", 
        "pad": "1", 
        "stride": "1"
      }, 
      "inputs": []
    }, 
    {
      "op": "Convolution", 
      "name": "convolution40", 
      "attrs": {
        "dilate": "1", 
        "kernel": "3", 
        "no_bias": "1", 
        "num_filter": "128", 
        "pad": "1", 
        "stride": "1"
      }, 
      "inputs": [[155, 0, 0], [158, 0, 0]]
    }, 
    {
      "op": "Dropout", 
      "name": "dropout23", 
      "attrs": {
        "mode": "training", 
        "p": "0.0"
      }, 
      "inputs": [[159, 0, 0]]
    }, 
    {
      "op": "_random_uniform", 
      "name": "uniform24", 
      "attrs": {
        "high": "1", 
        "low": "-1"
      }, 
      "inputs": []
    }, 
    {
      "op": "mean", 
      "name": "mean46", 
      "attrs": {
        "axis": "1", 
        "exclude": "1", 
        "keepdims": "1"
      }, 
      "inputs": [[159, 0, 0]]
    }, 
    {
      "op": "zeros_like", 
      "name": "zeros_like23", 
      "inputs": [[159, 0, 0]]
    }, 
    {
      "op": "broadcast_add", 
      "name": "broadcast_add46", 
      "inputs": [[162, 0, 0], [163, 0, 0]]
    }, 
    {
      "op": "broadcast_sub", 
      "name": "broadcast_sub24", 
      "inputs": [[159, 0, 0], [164, 0, 0]]
    }, 
    {
      "op": "abs", 
      "name": "abs24", 
      "inputs": [[165, 0, 0]]
    }, 
    {
      "op": "mean", 
      "name": "mean47", 
      "attrs": {
        "axis": "1", 
        "exclude": "1", 
        "keepdims": "1"
      }, 
      "inputs": [[166, 0, 0]]
    }, 
    {
      "op": "broadcast_add", 
      "name": "broadcast_add47", 
      "inputs": [[167, 0, 0], [163, 0, 0]]
    }, 
    {
      "op": "elemwise_mul", 
      "name": "_mul25", 
      "inputs": [[161, 0, 0], [168, 0, 0]]
    }, 
    {
      "op": "elemwise_add", 
      "name": "_plus39", 
      "inputs": [[169, 0, 0], [164, 0, 0]]
    }, 
    {
      "op": "BlockGrad", 
      "name": "blockgrad25", 
      "inputs": [[170, 0, 0]]
    }, 
    {
      "op": "where", 
      "name": "where23", 
      "inputs": [[160, 0, 0], [159, 0, 0], [171, 0, 0]]
    }, 
    {
      "op": "LeakyReLU", 
      "name": "leakyrelu21", 
      "attrs": {
        "act_type": "elu", 
        "slope": "1"
      }, 
      "inputs": [[172, 0, 0]]
    }, 
    {
      "op": "null", 
      "name": "convolution41_weight", 
      "attrs": {
        "dilate": "1", 
        "kernel": "3", 
        "no_bias": "1", 
        "num_filter": "128", 
        "pad": "1", 
        "stride": "1"
      }, 
      "inputs": []
    }, 
    {
      "op": "Convolution", 
      "name": "convolution41", 
      "attrs": {
        "dilate": "1", 
        "kernel": "3", 
        "no_bias": "1", 
        "num_filter": "128", 
        "pad": "1", 
        "stride": "1"
      }, 
      "inputs": [[173, 0, 0], [174, 0, 0]]
    }, 
    {
      "op": "null", 
      "name": "batchnorm19_gamma", 
      "attrs": {
        "eps": "2e-005", 
        "fix_gamma": "0", 
        "momentum": "0.95", 
        "use_global_stats": "0"
      }, 
      "inputs": []
    }, 
    {
      "op": "null", 
      "name": "batchnorm19_beta", 
      "attrs": {
        "eps": "2e-005", 
        "fix_gamma": "0", 
        "momentum": "0.95", 
        "use_global_stats": "0"
      }, 
      "inputs": []
    }, 
    {
      "op": "null", 
      "name": "batchnorm19_moving_mean", 
      "attrs": {
        "__init__": "[\"zero\", {}]", 
        "eps": "2e-005", 
        "fix_gamma": "0", 
        "momentum": "0.95", 
        "use_global_stats": "0"
      }, 
      "inputs": []
    }, 
    {
      "op": "null", 
      "name": "batchnorm19_moving_var", 
      "attrs": {
        "__init__": "[\"one\", {}]", 
        "eps": "2e-005", 
        "fix_gamma": "0", 
        "momentum": "0.95", 
        "use_global_stats": "0"
      }, 
      "inputs": []
    }, 
    {
      "op": "BatchNorm", 
      "name": "batchnorm19", 
      "attrs": {
        "eps": "2e-005", 
        "fix_gamma": "0", 
        "momentum": "0.95", 
        "use_global_stats": "0"
      }, 
      "inputs": [[175, 0, 0], [176, 0, 0], [177, 0, 0], [178, 0, 1], [179, 0, 1]]
    }, 
    {
      "op": "elemwise_add", 
      "name": "_plus40", 
      "inputs": [[157, 0, 0], [180, 0, 0]]
    }, 
    {
      "op": "null", 
      "name": "convolution42_weight", 
      "attrs": {
        "dilate": "2", 
        "kernel": "3", 
        "no_bias": "1", 
        "num_filter": "128", 
        "pad": "2", 
        "stride": "1"
      }, 
      "inputs": []
    }, 
    {
      "op": "Convolution", 
      "name": "convolution42", 
      "attrs": {
        "dilate": "2", 
        "kernel": "3", 
        "no_bias": "1", 
        "num_filter": "128", 
        "pad": "2", 
        "stride": "1"
      }, 
      "inputs": [[181, 0, 0], [182, 0, 0]]
    }, 
    {
      "op": "Dropout", 
      "name": "dropout24", 
      "attrs": {
        "mode": "training", 
        "p": "0.0"
      }, 
      "inputs": [[183, 0, 0]]
    }, 
    {
      "op": "_random_uniform", 
      "name": "uniform25", 
      "attrs": {
        "high": "1", 
        "low": "-1"
      }, 
      "inputs": []
    }, 
    {
      "op": "mean", 
      "name": "mean48", 
      "attrs": {
        "axis": "1", 
        "exclude": "1", 
        "keepdims": "1"
      }, 
      "inputs": [[183, 0, 0]]
    }, 
    {
      "op": "zeros_like", 
      "name": "zeros_like24", 
      "inputs": [[183, 0, 0]]
    }, 
    {
      "op": "broadcast_add", 
      "name": "broadcast_add48", 
      "inputs": [[186, 0, 0], [187, 0, 0]]
    }, 
    {
      "op": "broadcast_sub", 
      "name": "broadcast_sub25", 
      "inputs": [[183, 0, 0], [188, 0, 0]]
    }, 
    {
      "op": "abs", 
      "name": "abs25", 
      "inputs": [[189, 0, 0]]
    }, 
    {
      "op": "mean", 
      "name": "mean49", 
      "attrs": {
        "axis": "1", 
        "exclude": "1", 
        "keepdims": "1"
      }, 
      "inputs": [[190, 0, 0]]
    }, 
    {
      "op": "broadcast_add", 
      "name": "broadcast_add49", 
      "inputs": [[191, 0, 0], [187, 0, 0]]
    }, 
    {
      "op": "elemwise_mul", 
      "name": "_mul26", 
      "inputs": [[185, 0, 0], [192, 0, 0]]
    }, 
    {
      "op": "elemwise_add", 
      "name": "_plus41", 
      "inputs": [[193, 0, 0], [188, 0, 0]]
    }, 
    {
      "op": "BlockGrad", 
      "name": "blockgrad26", 
      "inputs": [[194, 0, 0]]
    }, 
    {
      "op": "where", 
      "name": "where24", 
      "inputs": [[184, 0, 0], [183, 0, 0], [195, 0, 0]]
    }, 
    {
      "op": "LeakyReLU", 
      "name": "leakyrelu22", 
      "attrs": {
        "act_type": "elu", 
        "slope": "1"
      }, 
      "inputs": [[196, 0, 0]]
    }, 
    {
      "op": "null", 
      "name": "convolution43_weight", 
      "attrs": {
        "dilate": "2", 
        "kernel": "3", 
        "no_bias": "1", 
        "num_filter": "128", 
        "pad": "2", 
        "stride": "1"
      }, 
      "inputs": []
    }, 
    {
      "op": "Convolution", 
      "name": "convolution43", 
      "attrs": {
        "dilate": "2", 
        "kernel": "3", 
        "no_bias": "1", 
        "num_filter": "128", 
        "pad": "2", 
        "stride": "1"
      }, 
      "inputs": [[197, 0, 0], [198, 0, 0]]
    }, 
    {
      "op": "null", 
      "name": "batchnorm20_gamma", 
      "attrs": {
        "eps": "2e-005", 
        "fix_gamma": "0", 
        "momentum": "0.95", 
        "use_global_stats": "0"
      }, 
      "inputs": []
    }, 
    {
      "op": "null", 
      "name": "batchnorm20_beta", 
      "attrs": {
        "eps": "2e-005", 
        "fix_gamma": "0", 
        "momentum": "0.95", 
        "use_global_stats": "0"
      }, 
      "inputs": []
    }, 
    {
      "op": "null", 
      "name": "batchnorm20_moving_mean", 
      "attrs": {
        "__init__": "[\"zero\", {}]", 
        "eps": "2e-005", 
        "fix_gamma": "0", 
        "momentum": "0.95", 
        "use_global_stats": "0"
      }, 
      "inputs": []
    }, 
    {
      "op": "null", 
      "name": "batchnorm20_moving_var", 
      "attrs": {
        "__init__": "[\"one\", {}]", 
        "eps": "2e-005", 
        "fix_gamma": "0", 
        "momentum": "0.95", 
        "use_global_stats": "0"
      }, 
      "inputs": []
    }, 
    {
      "op": "BatchNorm", 
      "name": "batchnorm20", 
      "attrs": {
        "eps": "2e-005", 
        "fix_gamma": "0", 
        "momentum": "0.95", 
        "use_global_stats": "0"
      }, 
      "inputs": [[199, 0, 0], [200, 0, 0], [201, 0, 0], [202, 0, 1], [203, 0, 1]]
    }, 
    {
      "op": "null", 
      "name": "convolution44_weight", 
      "attrs": {
        "dilate": "2", 
        "kernel": "3", 
        "no_bias": "1", 
        "num_filter": "128", 
        "pad": "2", 
        "stride": "1"
      }, 
      "inputs": []
    }, 
    {
      "op": "Convolution", 
      "name": "convolution44", 
      "attrs": {
        "dilate": "2", 
        "kernel": "3", 
        "no_bias": "1", 
        "num_filter": "128", 
        "pad": "2", 
        "stride": "1"
      }, 
      "inputs": [[204, 0, 0], [205, 0, 0]]
    }, 
    {
      "op": "Dropout", 
      "name": "dropout25", 
      "attrs": {
        "mode": "training", 
        "p": "0.0"
      }, 
      "inputs": [[206, 0, 0]]
    }, 
    {
      "op": "_random_uniform", 
      "name": "uniform26", 
      "attrs": {
        "high": "1", 
        "low": "-1"
      }, 
      "inputs": []
    }, 
    {
      "op": "mean", 
      "name": "mean50", 
      "attrs": {
        "axis": "1", 
        "exclude": "1", 
        "keepdims": "1"
      }, 
      "inputs": [[206, 0, 0]]
    }, 
    {
      "op": "zeros_like", 
      "name": "zeros_like25", 
      "inputs": [[206, 0, 0]]
    }, 
    {
      "op": "broadcast_add", 
      "name": "broadcast_add50", 
      "inputs": [[209, 0, 0], [210, 0, 0]]
    }, 
    {
      "op": "broadcast_sub", 
      "name": "broadcast_sub26", 
      "inputs": [[206, 0, 0], [211, 0, 0]]
    }, 
    {
      "op": "abs", 
      "name": "abs26", 
      "inputs": [[212, 0, 0]]
    }, 
    {
      "op": "mean", 
      "name": "mean51", 
      "attrs": {
        "axis": "1", 
        "exclude": "1", 
        "keepdims": "1"
      }, 
      "inputs": [[213, 0, 0]]
    }, 
    {
      "op": "broadcast_add", 
      "name": "broadcast_add51", 
      "inputs": [[214, 0, 0], [210, 0, 0]]
    }, 
    {
      "op": "elemwise_mul", 
      "name": "_mul27", 
      "inputs": [[208, 0, 0], [215, 0, 0]]
    }, 
    {
      "op": "elemwise_add", 
      "name": "_plus42", 
      "inputs": [[216, 0, 0], [211, 0, 0]]
    }, 
    {
      "op": "BlockGrad", 
      "name": "blockgrad27", 
      "inputs": [[217, 0, 0]]
    }, 
    {
      "op": "where", 
      "name": "where25", 
      "inputs": [[207, 0, 0], [206, 0, 0], [218, 0, 0]]
    }, 
    {
      "op": "LeakyReLU", 
      "name": "leakyrelu23", 
      "attrs": {
        "act_type": "elu", 
        "slope": "1"
      }, 
      "inputs": [[219, 0, 0]]
    }, 
    {
      "op": "null", 
      "name": "convolution45_weight", 
      "attrs": {
        "dilate": "2", 
        "kernel": "3", 
        "no_bias": "1", 
        "num_filter": "128", 
        "pad": "2", 
        "stride": "1"
      }, 
      "inputs": []
    }, 
    {
      "op": "Convolution", 
      "name": "convolution45", 
      "attrs": {
        "dilate": "2", 
        "kernel": "3", 
        "no_bias": "1", 
        "num_filter": "128", 
        "pad": "2", 
        "stride": "1"
      }, 
      "inputs": [[220, 0, 0], [221, 0, 0]]
    }, 
    {
      "op": "null", 
      "name": "batchnorm21_gamma", 
      "attrs": {
        "eps": "2e-005", 
        "fix_gamma": "0", 
        "momentum": "0.95", 
        "use_global_stats": "0"
      }, 
      "inputs": []
    }, 
    {
      "op": "null", 
      "name": "batchnorm21_beta", 
      "attrs": {
        "eps": "2e-005", 
        "fix_gamma": "0", 
        "momentum": "0.95", 
        "use_global_stats": "0"
      }, 
      "inputs": []
    }, 
    {
      "op": "null", 
      "name": "batchnorm21_moving_mean", 
      "attrs": {
        "__init__": "[\"zero\", {}]", 
        "eps": "2e-005", 
        "fix_gamma": "0", 
        "momentum": "0.95", 
        "use_global_stats": "0"
      }, 
      "inputs": []
    }, 
    {
      "op": "null", 
      "name": "batchnorm21_moving_var", 
      "attrs": {
        "__init__": "[\"one\", {}]", 
        "eps": "2e-005", 
        "fix_gamma": "0", 
        "momentum": "0.95", 
        "use_global_stats": "0"
      }, 
      "inputs": []
    }, 
    {
      "op": "BatchNorm", 
      "name": "batchnorm21", 
      "attrs": {
        "eps": "2e-005", 
        "fix_gamma": "0", 
        "momentum": "0.95", 
        "use_global_stats": "0"
      }, 
      "inputs": [[222, 0, 0], [223, 0, 0], [224, 0, 0], [225, 0, 1], [226, 0, 1]]
    }, 
    {
      "op": "elemwise_add", 
      "name": "_plus43", 
      "inputs": [[181, 0, 0], [227, 0, 0]]
    }, 
    {
      "op": "null", 
      "name": "convolution46_weight", 
      "attrs": {
        "dilate": "4", 
        "kernel": "3", 
        "no_bias": "1", 
        "num_filter": "128", 
        "pad": "4", 
        "stride": "1"
      }, 
      "inputs": []
    }, 
    {
      "op": "Convolution", 
      "name": "convolution46", 
      "attrs": {
        "dilate": "4", 
        "kernel": "3", 
        "no_bias": "1", 
        "num_filter": "128", 
        "pad": "4", 
        "stride": "1"
      }, 
      "inputs": [[228, 0, 0], [229, 0, 0]]
    }, 
    {
      "op": "Dropout", 
      "name": "dropout26", 
      "attrs": {
        "mode": "training", 
        "p": "0.0"
      }, 
      "inputs": [[230, 0, 0]]
    }, 
    {
      "op": "_random_uniform", 
      "name": "uniform27", 
      "attrs": {
        "high": "1", 
        "low": "-1"
      }, 
      "inputs": []
    }, 
    {
      "op": "mean", 
      "name": "mean52", 
      "attrs": {
        "axis": "1", 
        "exclude": "1", 
        "keepdims": "1"
      }, 
      "inputs": [[230, 0, 0]]
    }, 
    {
      "op": "zeros_like", 
      "name": "zeros_like26", 
      "inputs": [[230, 0, 0]]
    }, 
    {
      "op": "broadcast_add", 
      "name": "broadcast_add52", 
      "inputs": [[233, 0, 0], [234, 0, 0]]
    }, 
    {
      "op": "broadcast_sub", 
      "name": "broadcast_sub27", 
      "inputs": [[230, 0, 0], [235, 0, 0]]
    }, 
    {
      "op": "abs", 
      "name": "abs27", 
      "inputs": [[236, 0, 0]]
    }, 
    {
      "op": "mean", 
      "name": "mean53", 
      "attrs": {
        "axis": "1", 
        "exclude": "1", 
        "keepdims": "1"
      }, 
      "inputs": [[237, 0, 0]]
    }, 
    {
      "op": "broadcast_add", 
      "name": "broadcast_add53", 
      "inputs": [[238, 0, 0], [234, 0, 0]]
    }, 
    {
      "op": "elemwise_mul", 
      "name": "_mul28", 
      "inputs": [[232, 0, 0], [239, 0, 0]]
    }, 
    {
      "op": "elemwise_add", 
      "name": "_plus44", 
      "inputs": [[240, 0, 0], [235, 0, 0]]
    }, 
    {
      "op": "BlockGrad", 
      "name": "blockgrad28", 
      "inputs": [[241, 0, 0]]
    }, 
    {
      "op": "where", 
      "name": "where26", 
      "inputs": [[231, 0, 0], [230, 0, 0], [242, 0, 0]]
    }, 
    {
      "op": "LeakyReLU", 
      "name": "leakyrelu24", 
      "attrs": {
        "act_type": "elu", 
        "slope": "1"
      }, 
      "inputs": [[243, 0, 0]]
    }, 
    {
      "op": "null", 
      "name": "convolution47_weight", 
      "attrs": {
        "dilate": "4", 
        "kernel": "3", 
        "no_bias": "1", 
        "num_filter": "128", 
        "pad": "4", 
        "stride": "1"
      }, 
      "inputs": []
    }, 
    {
      "op": "Convolution", 
      "name": "convolution47", 
      "attrs": {
        "dilate": "4", 
        "kernel": "3", 
        "no_bias": "1", 
        "num_filter": "128", 
        "pad": "4", 
        "stride": "1"
      }, 
      "inputs": [[244, 0, 0], [245, 0, 0]]
    }, 
    {
      "op": "null", 
      "name": "batchnorm22_gamma", 
      "attrs": {
        "eps": "2e-005", 
        "fix_gamma": "0", 
        "momentum": "0.95", 
        "use_global_stats": "0"
      }, 
      "inputs": []
    }, 
    {
      "op": "null", 
      "name": "batchnorm22_beta", 
      "attrs": {
        "eps": "2e-005", 
        "fix_gamma": "0", 
        "momentum": "0.95", 
        "use_global_stats": "0"
      }, 
      "inputs": []
    }, 
    {
      "op": "null", 
      "name": "batchnorm22_moving_mean", 
      "attrs": {
        "__init__": "[\"zero\", {}]", 
        "eps": "2e-005", 
        "fix_gamma": "0", 
        "momentum": "0.95", 
        "use_global_stats": "0"
      }, 
      "inputs": []
    }, 
    {
      "op": "null", 
      "name": "batchnorm22_moving_var", 
      "attrs": {
        "__init__": "[\"one\", {}]", 
        "eps": "2e-005", 
        "fix_gamma": "0", 
        "momentum": "0.95", 
        "use_global_stats": "0"
      }, 
      "inputs": []
    }, 
    {
      "op": "BatchNorm", 
      "name": "batchnorm22", 
      "attrs": {
        "eps": "2e-005", 
        "fix_gamma": "0", 
        "momentum": "0.95", 
        "use_global_stats": "0"
      }, 
      "inputs": [[246, 0, 0], [247, 0, 0], [248, 0, 0], [249, 0, 1], [250, 0, 1]]
    }, 
    {
      "op": "null", 
      "name": "convolution48_weight", 
      "attrs": {
        "dilate": "4", 
        "kernel": "3", 
        "no_bias": "1", 
        "num_filter": "128", 
        "pad": "4", 
        "stride": "1"
      }, 
      "inputs": []
    }, 
    {
      "op": "Convolution", 
      "name": "convolution48", 
      "attrs": {
        "dilate": "4", 
        "kernel": "3", 
        "no_bias": "1", 
        "num_filter": "128", 
        "pad": "4", 
        "stride": "1"
      }, 
      "inputs": [[251, 0, 0], [252, 0, 0]]
    }, 
    {
      "op": "Dropout", 
      "name": "dropout27", 
      "attrs": {
        "mode": "training", 
        "p": "0.0"
      }, 
      "inputs": [[253, 0, 0]]
    }, 
    {
      "op": "_random_uniform", 
      "name": "uniform28", 
      "attrs": {
        "high": "1", 
        "low": "-1"
      }, 
      "inputs": []
    }, 
    {
      "op": "mean", 
      "name": "mean54", 
      "attrs": {
        "axis": "1", 
        "exclude": "1", 
        "keepdims": "1"
      }, 
      "inputs": [[253, 0, 0]]
    }, 
    {
      "op": "zeros_like", 
      "name": "zeros_like27", 
      "inputs": [[253, 0, 0]]
    }, 
    {
      "op": "broadcast_add", 
      "name": "broadcast_add54", 
      "inputs": [[256, 0, 0], [257, 0, 0]]
    }, 
    {
      "op": "broadcast_sub", 
      "name": "broadcast_sub28", 
      "inputs": [[253, 0, 0], [258, 0, 0]]
    }, 
    {
      "op": "abs", 
      "name": "abs28", 
      "inputs": [[259, 0, 0]]
    }, 
    {
      "op": "mean", 
      "name": "mean55", 
      "attrs": {
        "axis": "1", 
        "exclude": "1", 
        "keepdims": "1"
      }, 
      "inputs": [[260, 0, 0]]
    }, 
    {
      "op": "broadcast_add", 
      "name": "broadcast_add55", 
      "inputs": [[261, 0, 0], [257, 0, 0]]
    }, 
    {
      "op": "elemwise_mul", 
      "name": "_mul29", 
      "inputs": [[255, 0, 0], [262, 0, 0]]
    }, 
    {
      "op": "elemwise_add", 
      "name": "_plus45", 
      "inputs": [[263, 0, 0], [258, 0, 0]]
    }, 
    {
      "op": "BlockGrad", 
      "name": "blockgrad29", 
      "inputs": [[264, 0, 0]]
    }, 
    {
      "op": "where", 
      "name": "where27", 
      "inputs": [[254, 0, 0], [253, 0, 0], [265, 0, 0]]
    }, 
    {
      "op": "LeakyReLU", 
      "name": "leakyrelu25", 
      "attrs": {
        "act_type": "elu", 
        "slope": "1"
      }, 
      "inputs": [[266, 0, 0]]
    }, 
    {
      "op": "null", 
      "name": "convolution49_weight", 
      "attrs": {
        "dilate": "4", 
        "kernel": "3", 
        "no_bias": "1", 
        "num_filter": "128", 
        "pad": "4", 
        "stride": "1"
      }, 
      "inputs": []
    }, 
    {
      "op": "Convolution", 
      "name": "convolution49", 
      "attrs": {
        "dilate": "4", 
        "kernel": "3", 
        "no_bias": "1", 
        "num_filter": "128", 
        "pad": "4", 
        "stride": "1"
      }, 
      "inputs": [[267, 0, 0], [268, 0, 0]]
    }, 
    {
      "op": "null", 
      "name": "batchnorm23_gamma", 
      "attrs": {
        "eps": "2e-005", 
        "fix_gamma": "0", 
        "momentum": "0.95", 
        "use_global_stats": "0"
      }, 
      "inputs": []
    }, 
    {
      "op": "null", 
      "name": "batchnorm23_beta", 
      "attrs": {
        "eps": "2e-005", 
        "fix_gamma": "0", 
        "momentum": "0.95", 
        "use_global_stats": "0"
      }, 
      "inputs": []
    }, 
    {
      "op": "null", 
      "name": "batchnorm23_moving_mean", 
      "attrs": {
        "__init__": "[\"zero\", {}]", 
        "eps": "2e-005", 
        "fix_gamma": "0", 
        "momentum": "0.95", 
        "use_global_stats": "0"
      }, 
      "inputs": []
    }, 
    {
      "op": "null", 
      "name": "batchnorm23_moving_var", 
      "attrs": {
        "__init__": "[\"one\", {}]", 
        "eps": "2e-005", 
        "fix_gamma": "0", 
        "momentum": "0.95", 
        "use_global_stats": "0"
      }, 
      "inputs": []
    }, 
    {
      "op": "BatchNorm", 
      "name": "batchnorm23", 
      "attrs": {
        "eps": "2e-005", 
        "fix_gamma": "0", 
        "momentum": "0.95", 
        "use_global_stats": "0"
      }, 
      "inputs": [[269, 0, 0], [270, 0, 0], [271, 0, 0], [272, 0, 1], [273, 0, 1]]
    }, 
    {
      "op": "elemwise_add", 
      "name": "_plus46", 
      "inputs": [[228, 0, 0], [274, 0, 0]]
    }, 
    {
      "op": "null", 
      "name": "convolution50_weight", 
      "attrs": {
        "dilate": "8", 
        "kernel": "3", 
        "no_bias": "1", 
        "num_filter": "128", 
        "pad": "8", 
        "stride": "1"
      }, 
      "inputs": []
    }, 
    {
      "op": "Convolution", 
      "name": "convolution50", 
      "attrs": {
        "dilate": "8", 
        "kernel": "3", 
        "no_bias": "1", 
        "num_filter": "128", 
        "pad": "8", 
        "stride": "1"
      }, 
      "inputs": [[275, 0, 0], [276, 0, 0]]
    }, 
    {
      "op": "Dropout", 
      "name": "dropout28", 
      "attrs": {
        "mode": "training", 
        "p": "0.0"
      }, 
      "inputs": [[277, 0, 0]]
    }, 
    {
      "op": "_random_uniform", 
      "name": "uniform29", 
      "attrs": {
        "high": "1", 
        "low": "-1"
      }, 
      "inputs": []
    }, 
    {
      "op": "mean", 
      "name": "mean56", 
      "attrs": {
        "axis": "1", 
        "exclude": "1", 
        "keepdims": "1"
      }, 
      "inputs": [[277, 0, 0]]
    }, 
    {
      "op": "zeros_like", 
      "name": "zeros_like28", 
      "inputs": [[277, 0, 0]]
    }, 
    {
      "op": "broadcast_add", 
      "name": "broadcast_add56", 
      "inputs": [[280, 0, 0], [281, 0, 0]]
    }, 
    {
      "op": "broadcast_sub", 
      "name": "broadcast_sub29", 
      "inputs": [[277, 0, 0], [282, 0, 0]]
    }, 
    {
      "op": "abs", 
      "name": "abs29", 
      "inputs": [[283, 0, 0]]
    }, 
    {
      "op": "mean", 
      "name": "mean57", 
      "attrs": {
        "axis": "1", 
        "exclude": "1", 
        "keepdims": "1"
      }, 
      "inputs": [[284, 0, 0]]
    }, 
    {
      "op": "broadcast_add", 
      "name": "broadcast_add57", 
      "inputs": [[285, 0, 0], [281, 0, 0]]
    }, 
    {
      "op": "elemwise_mul", 
      "name": "_mul30", 
      "inputs": [[279, 0, 0], [286, 0, 0]]
    }, 
    {
      "op": "elemwise_add", 
      "name": "_plus47", 
      "inputs": [[287, 0, 0], [282, 0, 0]]
    }, 
    {
      "op": "BlockGrad", 
      "name": "blockgrad30", 
      "inputs": [[288, 0, 0]]
    }, 
    {
      "op": "where", 
      "name": "where28", 
      "inputs": [[278, 0, 0], [277, 0, 0], [289, 0, 0]]
    }, 
    {
      "op": "LeakyReLU", 
      "name": "leakyrelu26", 
      "attrs": {
        "act_type": "elu", 
        "slope": "1"
      }, 
      "inputs": [[290, 0, 0]]
    }, 
    {
      "op": "null", 
      "name": "convolution51_weight", 
      "attrs": {
        "dilate": "8", 
        "kernel": "3", 
        "no_bias": "1", 
        "num_filter": "128", 
        "pad": "8", 
        "stride": "1"
      }, 
      "inputs": []
    }, 
    {
      "op": "Convolution", 
      "name": "convolution51", 
      "attrs": {
        "dilate": "8", 
        "kernel": "3", 
        "no_bias": "1", 
        "num_filter": "128", 
        "pad": "8", 
        "stride": "1"
      }, 
      "inputs": [[291, 0, 0], [292, 0, 0]]
    }, 
    {
      "op": "null", 
      "name": "batchnorm24_gamma", 
      "attrs": {
        "eps": "2e-005", 
        "fix_gamma": "0", 
        "momentum": "0.95", 
        "use_global_stats": "0"
      }, 
      "inputs": []
    }, 
    {
      "op": "null", 
      "name": "batchnorm24_beta", 
      "attrs": {
        "eps": "2e-005", 
        "fix_gamma": "0", 
        "momentum": "0.95", 
        "use_global_stats": "0"
      }, 
      "inputs": []
    }, 
    {
      "op": "null", 
      "name": "batchnorm24_moving_mean", 
      "attrs": {
        "__init__": "[\"zero\", {}]", 
        "eps": "2e-005", 
        "fix_gamma": "0", 
        "momentum": "0.95", 
        "use_global_stats": "0"
      }, 
      "inputs": []
    }, 
    {
      "op": "null", 
      "name": "batchnorm24_moving_var", 
      "attrs": {
        "__init__": "[\"one\", {}]", 
        "eps": "2e-005", 
        "fix_gamma": "0", 
        "momentum": "0.95", 
        "use_global_stats": "0"
      }, 
      "inputs": []
    }, 
    {
      "op": "BatchNorm", 
      "name": "batchnorm24", 
      "attrs": {
        "eps": "2e-005", 
        "fix_gamma": "0", 
        "momentum": "0.95", 
        "use_global_stats": "0"
      }, 
      "inputs": [[293, 0, 0], [294, 0, 0], [295, 0, 0], [296, 0, 1], [297, 0, 1]]
    }, 
    {
      "op": "null", 
      "name": "convolution52_weight", 
      "attrs": {
        "dilate": "8", 
        "kernel": "3", 
        "no_bias": "1", 
        "num_filter": "128", 
        "pad": "8", 
        "stride": "1"
      }, 
      "inputs": []
    }, 
    {
      "op": "Convolution", 
      "name": "convolution52", 
      "attrs": {
        "dilate": "8", 
        "kernel": "3", 
        "no_bias": "1", 
        "num_filter": "128", 
        "pad": "8", 
        "stride": "1"
      }, 
      "inputs": [[298, 0, 0], [299, 0, 0]]
    }, 
    {
      "op": "Dropout", 
      "name": "dropout29", 
      "attrs": {
        "mode": "training", 
        "p": "0.0"
      }, 
      "inputs": [[300, 0, 0]]
    }, 
    {
      "op": "_random_uniform", 
      "name": "uniform30", 
      "attrs": {
        "high": "1", 
        "low": "-1"
      }, 
      "inputs": []
    }, 
    {
      "op": "mean", 
      "name": "mean58", 
      "attrs": {
        "axis": "1", 
        "exclude": "1", 
        "keepdims": "1"
      }, 
      "inputs": [[300, 0, 0]]
    }, 
    {
      "op": "zeros_like", 
      "name": "zeros_like29", 
      "inputs": [[300, 0, 0]]
    }, 
    {
      "op": "broadcast_add", 
      "name": "broadcast_add58", 
      "inputs": [[303, 0, 0], [304, 0, 0]]
    }, 
    {
      "op": "broadcast_sub", 
      "name": "broadcast_sub30", 
      "inputs": [[300, 0, 0], [305, 0, 0]]
    }, 
    {
      "op": "abs", 
      "name": "abs30", 
      "inputs": [[306, 0, 0]]
    }, 
    {
      "op": "mean", 
      "name": "mean59", 
      "attrs": {
        "axis": "1", 
        "exclude": "1", 
        "keepdims": "1"
      }, 
      "inputs": [[307, 0, 0]]
    }, 
    {
      "op": "broadcast_add", 
      "name": "broadcast_add59", 
      "inputs": [[308, 0, 0], [304, 0, 0]]
    }, 
    {
      "op": "elemwise_mul", 
      "name": "_mul31", 
      "inputs": [[302, 0, 0], [309, 0, 0]]
    }, 
    {
      "op": "elemwise_add", 
      "name": "_plus48", 
      "inputs": [[310, 0, 0], [305, 0, 0]]
    }, 
    {
      "op": "BlockGrad", 
      "name": "blockgrad31", 
      "inputs": [[311, 0, 0]]
    }, 
    {
      "op": "where", 
      "name": "where29", 
      "inputs": [[301, 0, 0], [300, 0, 0], [312, 0, 0]]
    }, 
    {
      "op": "LeakyReLU", 
      "name": "leakyrelu27", 
      "attrs": {
        "act_type": "elu", 
        "slope": "1"
      }, 
      "inputs": [[313, 0, 0]]
    }, 
    {
      "op": "null", 
      "name": "convolution53_weight", 
      "attrs": {
        "dilate": "8", 
        "kernel": "3", 
        "no_bias": "1", 
        "num_filter": "128", 
        "pad": "8", 
        "stride": "1"
      }, 
      "inputs": []
    }, 
    {
      "op": "Convolution", 
      "name": "convolution53", 
      "attrs": {
        "dilate": "8", 
        "kernel": "3", 
        "no_bias": "1", 
        "num_filter": "128", 
        "pad": "8", 
        "stride": "1"
      }, 
      "inputs": [[314, 0, 0], [315, 0, 0]]
    }, 
    {
      "op": "null", 
      "name": "batchnorm25_gamma", 
      "attrs": {
        "eps": "2e-005", 
        "fix_gamma": "0", 
        "momentum": "0.95", 
        "use_global_stats": "0"
      }, 
      "inputs": []
    }, 
    {
      "op": "null", 
      "name": "batchnorm25_beta", 
      "attrs": {
        "eps": "2e-005", 
        "fix_gamma": "0", 
        "momentum": "0.95", 
        "use_global_stats": "0"
      }, 
      "inputs": []
    }, 
    {
      "op": "null", 
      "name": "batchnorm25_moving_mean", 
      "attrs": {
        "__init__": "[\"zero\", {}]", 
        "eps": "2e-005", 
        "fix_gamma": "0", 
        "momentum": "0.95", 
        "use_global_stats": "0"
      }, 
      "inputs": []
    }, 
    {
      "op": "null", 
      "name": "batchnorm25_moving_var", 
      "attrs": {
        "__init__": "[\"one\", {}]", 
        "eps": "2e-005", 
        "fix_gamma": "0", 
        "momentum": "0.95", 
        "use_global_stats": "0"
      }, 
      "inputs": []
    }, 
    {
      "op": "BatchNorm", 
      "name": "batchnorm25", 
      "attrs": {
        "eps": "2e-005", 
        "fix_gamma": "0", 
        "momentum": "0.95", 
        "use_global_stats": "0"
      }, 
      "inputs": [[316, 0, 0], [317, 0, 0], [318, 0, 0], [319, 0, 1], [320, 0, 1]]
    }, 
    {
      "op": "elemwise_add", 
      "name": "_plus49", 
      "inputs": [[275, 0, 0], [321, 0, 0]]
    }, 
    {
      "op": "null", 
      "name": "convolution54_weight", 
      "attrs": {
        "dilate": "4", 
        "kernel": "3", 
        "no_bias": "1", 
        "num_filter": "128", 
        "pad": "4", 
        "stride": "1"
      }, 
      "inputs": []
    }, 
    {
      "op": "Convolution", 
      "name": "convolution54", 
      "attrs": {
        "dilate": "4", 
        "kernel": "3", 
        "no_bias": "1", 
        "num_filter": "128", 
        "pad": "4", 
        "stride": "1"
      }, 
      "inputs": [[322, 0, 0], [323, 0, 0]]
    }, 
    {
      "op": "Dropout", 
      "name": "dropout30", 
      "attrs": {
        "mode": "training", 
        "p": "0.0"
      }, 
      "inputs": [[324, 0, 0]]
    }, 
    {
      "op": "_random_uniform", 
      "name": "uniform31", 
      "attrs": {
        "high": "1", 
        "low": "-1"
      }, 
      "inputs": []
    }, 
    {
      "op": "mean", 
      "name": "mean60", 
      "attrs": {
        "axis": "1", 
        "exclude": "1", 
        "keepdims": "1"
      }, 
      "inputs": [[324, 0, 0]]
    }, 
    {
      "op": "zeros_like", 
      "name": "zeros_like30", 
      "inputs": [[324, 0, 0]]
    }, 
    {
      "op": "broadcast_add", 
      "name": "broadcast_add60", 
      "inputs": [[327, 0, 0], [328, 0, 0]]
    }, 
    {
      "op": "broadcast_sub", 
      "name": "broadcast_sub31", 
      "inputs": [[324, 0, 0], [329, 0, 0]]
    }, 
    {
      "op": "abs", 
      "name": "abs31", 
      "inputs": [[330, 0, 0]]
    }, 
    {
      "op": "mean", 
      "name": "mean61", 
      "attrs": {
        "axis": "1", 
        "exclude": "1", 
        "keepdims": "1"
      }, 
      "inputs": [[331, 0, 0]]
    }, 
    {
      "op": "broadcast_add", 
      "name": "broadcast_add61", 
      "inputs": [[332, 0, 0], [328, 0, 0]]
    }, 
    {
      "op": "elemwise_mul", 
      "name": "_mul32", 
      "inputs": [[326, 0, 0], [333, 0, 0]]
    }, 
    {
      "op": "elemwise_add", 
      "name": "_plus50", 
      "inputs": [[334, 0, 0], [329, 0, 0]]
    }, 
    {
      "op": "BlockGrad", 
      "name": "blockgrad32", 
      "inputs": [[335, 0, 0]]
    }, 
    {
      "op": "where", 
      "name": "where30", 
      "inputs": [[325, 0, 0], [324, 0, 0], [336, 0, 0]]
    }, 
    {
      "op": "LeakyReLU", 
      "name": "leakyrelu28", 
      "attrs": {
        "act_type": "elu", 
        "slope": "1"
      }, 
      "inputs": [[337, 0, 0]]
    }, 
    {
      "op": "null", 
      "name": "convolution55_weight", 
      "attrs": {
        "dilate": "2", 
        "kernel": "3", 
        "no_bias": "1", 
        "num_filter": "128", 
        "pad": "2", 
        "stride": "1"
      }, 
      "inputs": []
    }, 
    {
      "op": "Convolution", 
      "name": "convolution55", 
      "attrs": {
        "dilate": "2", 
        "kernel": "3", 
        "no_bias": "1", 
        "num_filter": "128", 
        "pad": "2", 
        "stride": "1"
      }, 
      "inputs": [[338, 0, 0], [339, 0, 0]]
    }, 
    {
      "op": "null", 
      "name": "batchnorm26_gamma", 
      "attrs": {
        "eps": "2e-005", 
        "fix_gamma": "0", 
        "momentum": "0.95", 
        "use_global_stats": "0"
      }, 
      "inputs": []
    }, 
    {
      "op": "null", 
      "name": "batchnorm26_beta", 
      "attrs": {
        "eps": "2e-005", 
        "fix_gamma": "0", 
        "momentum": "0.95", 
        "use_global_stats": "0"
      }, 
      "inputs": []
    }, 
    {
      "op": "null", 
      "name": "batchnorm26_moving_mean", 
      "attrs": {
        "__init__": "[\"zero\", {}]", 
        "eps": "2e-005", 
        "fix_gamma": "0", 
        "momentum": "0.95", 
        "use_global_stats": "0"
      }, 
      "inputs": []
    }, 
    {
      "op": "null", 
      "name": "batchnorm26_moving_var", 
      "attrs": {
        "__init__": "[\"one\", {}]", 
        "eps": "2e-005", 
        "fix_gamma": "0", 
        "momentum": "0.95", 
        "use_global_stats": "0"
      }, 
      "inputs": []
    }, 
    {
      "op": "BatchNorm", 
      "name": "batchnorm26", 
      "attrs": {
        "eps": "2e-005", 
        "fix_gamma": "0", 
        "momentum": "0.95", 
        "use_global_stats": "0"
      }, 
      "inputs": [[340, 0, 0], [341, 0, 0], [342, 0, 0], [343, 0, 1], [344, 0, 1]]
    }, 
    {
      "op": "elemwise_add", 
      "name": "_plus51", 
      "inputs": [[322, 0, 0], [345, 0, 0]]
    }, 
    {
      "op": "null", 
      "name": "convolution56_weight", 
      "attrs": {
        "dilate": "2", 
        "kernel": "3", 
        "no_bias": "1", 
        "num_filter": "128", 
        "pad": "2", 
        "stride": "1"
      }, 
      "inputs": []
    }, 
    {
      "op": "Convolution", 
      "name": "convolution56", 
      "attrs": {
        "dilate": "2", 
        "kernel": "3", 
        "no_bias": "1", 
        "num_filter": "128", 
        "pad": "2", 
        "stride": "1"
      }, 
      "inputs": [[346, 0, 0], [347, 0, 0]]
    }, 
    {
      "op": "Dropout", 
      "name": "dropout31", 
      "attrs": {
        "mode": "training", 
        "p": "0.0"
      }, 
      "inputs": [[348, 0, 0]]
    }, 
    {
      "op": "_random_uniform", 
      "name": "uniform32", 
      "attrs": {
        "high": "1", 
        "low": "-1"
      }, 
      "inputs": []
    }, 
    {
      "op": "mean", 
      "name": "mean62", 
      "attrs": {
        "axis": "1", 
        "exclude": "1", 
        "keepdims": "1"
      }, 
      "inputs": [[348, 0, 0]]
    }, 
    {
      "op": "zeros_like", 
      "name": "zeros_like31", 
      "inputs": [[348, 0, 0]]
    }, 
    {
      "op": "broadcast_add", 
      "name": "broadcast_add62", 
      "inputs": [[351, 0, 0], [352, 0, 0]]
    }, 
    {
      "op": "broadcast_sub", 
      "name": "broadcast_sub32", 
      "inputs": [[348, 0, 0], [353, 0, 0]]
    }, 
    {
      "op": "abs", 
      "name": "abs32", 
      "inputs": [[354, 0, 0]]
    }, 
    {
      "op": "mean", 
      "name": "mean63", 
      "attrs": {
        "axis": "1", 
        "exclude": "1", 
        "keepdims": "1"
      }, 
      "inputs": [[355, 0, 0]]
    }, 
    {
      "op": "broadcast_add", 
      "name": "broadcast_add63", 
      "inputs": [[356, 0, 0], [352, 0, 0]]
    }, 
    {
      "op": "elemwise_mul", 
      "name": "_mul33", 
      "inputs": [[350, 0, 0], [357, 0, 0]]
    }, 
    {
      "op": "elemwise_add", 
      "name": "_plus52", 
      "inputs": [[358, 0, 0], [353, 0, 0]]
    }, 
    {
      "op": "BlockGrad", 
      "name": "blockgrad33", 
      "inputs": [[359, 0, 0]]
    }, 
    {
      "op": "where", 
      "name": "where31", 
      "inputs": [[349, 0, 0], [348, 0, 0], [360, 0, 0]]
    }, 
    {
      "op": "LeakyReLU", 
      "name": "leakyrelu29", 
      "attrs": {
        "act_type": "elu", 
        "slope": "1"
      }, 
      "inputs": [[361, 0, 0]]
    }, 
    {
      "op": "null", 
      "name": "convolution57_weight", 
      "attrs": {
        "dilate": "1", 
        "kernel": "3", 
        "no_bias": "1", 
        "num_filter": "128", 
        "pad": "1", 
        "stride": "1"
      }, 
      "inputs": []
    }, 
    {
      "op": "Convolution", 
      "name": "convolution57", 
      "attrs": {
        "dilate": "1", 
        "kernel": "3", 
        "no_bias": "1", 
        "num_filter": "128", 
        "pad": "1", 
        "stride": "1"
      }, 
      "inputs": [[362, 0, 0], [363, 0, 0]]
    }, 
    {
      "op": "null", 
      "name": "batchnorm27_gamma", 
      "attrs": {
        "eps": "2e-005", 
        "fix_gamma": "0", 
        "momentum": "0.95", 
        "use_global_stats": "0"
      }, 
      "inputs": []
    }, 
    {
      "op": "null", 
      "name": "batchnorm27_beta", 
      "attrs": {
        "eps": "2e-005", 
        "fix_gamma": "0", 
        "momentum": "0.95", 
        "use_global_stats": "0"
      }, 
      "inputs": []
    }, 
    {
      "op": "null", 
      "name": "batchnorm27_moving_mean", 
      "attrs": {
        "__init__": "[\"zero\", {}]", 
        "eps": "2e-005", 
        "fix_gamma": "0", 
        "momentum": "0.95", 
        "use_global_stats": "0"
      }, 
      "inputs": []
    }, 
    {
      "op": "null", 
      "name": "batchnorm27_moving_var", 
      "attrs": {
        "__init__": "[\"one\", {}]", 
        "eps": "2e-005", 
        "fix_gamma": "0", 
        "momentum": "0.95", 
        "use_global_stats": "0"
      }, 
      "inputs": []
    }, 
    {
      "op": "BatchNorm", 
      "name": "batchnorm27", 
      "attrs": {
        "eps": "2e-005", 
        "fix_gamma": "0", 
        "momentum": "0.95", 
        "use_global_stats": "0"
      }, 
      "inputs": [[364, 0, 0], [365, 0, 0], [366, 0, 0], [367, 0, 1], [368, 0, 1]]
    }, 
    {
      "op": "elemwise_add", 
      "name": "_plus53", 
      "inputs": [[346, 0, 0], [369, 0, 0]]
    }, 
    {
      "op": "null", 
      "name": "nin_weight", 
      "attrs": {
        "kernel": "1", 
        "no_bias": "0", 
        "num_filter": "24", 
        "pad": "0", 
        "stride": "1"
      }, 
      "inputs": []
    }, 
    {
      "op": "null", 
      "name": "nin_bias", 
      "attrs": {
        "kernel": "1", 
        "no_bias": "0", 
        "num_filter": "24", 
        "pad": "0", 
        "stride": "1"
      }, 
      "inputs": []
    }, 
    {
      "op": "Convolution", 
      "name": "nin", 
      "attrs": {
        "kernel": "1", 
        "no_bias": "0", 
        "num_filter": "24", 
        "pad": "0", 
        "stride": "1"
      }, 
      "inputs": [[370, 0, 0], [371, 0, 0], [372, 0, 0]]
    }, 
    {
      "op": "Pooling", 
      "name": "poolFinal", 
      "attrs": {
        "global_pool": "1", 
        "kernel": "2", 
        "pool_type": "avg"
      }, 
      "inputs": [[373, 0, 0]]
    }, 
    {
      "op": "Flatten", 
      "name": "flatten", 
      "inputs": [[374, 0, 0]]
    }, 
    {
      "op": "null", 
      "name": "anchor_gamma", 
      "inputs": []
    }, 
    {
      "op": "Activation", 
      "name": "activation2", 
      "attrs": {"act_type": "softrelu"}, 
      "inputs": [[376, 0, 0]]
    }, 
    {
      "op": "sqrt", 
      "name": "sqrt4", 
      "inputs": [[377, 0, 0]]
    }, 
    {
      "op": "null", 
      "name": "anchor_beta", 
      "attrs": {
        "eps": "0.001", 
        "fix_gamma": "0", 
        "momentum": "0.9"
      }, 
      "inputs": []
    }, 
    {
      "op": "null", 
      "name": "anchor_moving_mean", 
      "attrs": {
        "__init__": "[\"zero\", {}]", 
        "eps": "0.001", 
        "fix_gamma": "0", 
        "momentum": "0.9"
      }, 
      "inputs": []
    }, 
    {
      "op": "null", 
      "name": "anchor_moving_var", 
      "attrs": {
        "__init__": "[\"one\", {}]", 
        "eps": "0.001", 
        "fix_gamma": "0", 
        "momentum": "0.9"
      }, 
      "inputs": []
    }, 
    {
      "op": "BatchNorm", 
      "name": "anchor", 
      "attrs": {
        "eps": "0.001", 
        "fix_gamma": "0", 
        "momentum": "0.9"
      }, 
      "inputs": [[375, 0, 0], [378, 0, 0], [379, 0, 0], [380, 0, 1], [381, 0, 1]]
    }
  ], 
  "arg_nodes": [
    0, 
    1, 
    2, 
    19, 
    20, 
    36, 
    37, 
    52, 
    53, 
    54, 
    55, 
    58, 
    74, 
    76, 
    77, 
    78, 
    79, 
    83, 
    99, 
    101, 
    102, 
    103, 
    104, 
    107, 
    123, 
    125, 
    126, 
    127, 
    128, 
    132, 
    148, 
    150, 
    151, 
    152, 
    153, 
    156, 
    158, 
    174, 
    176, 
    177, 
    178, 
    179, 
    182, 
    198, 
    200, 
    201, 
    202, 
    203, 
    205, 
    221, 
    223, 
    224, 
    225, 
    226, 
    229, 
    245, 
    247, 
    248, 
    249, 
    250, 
    252, 
    268, 
    270, 
    271, 
    272, 
    273, 
    276, 
    292, 
    294, 
    295, 
    296, 
    297, 
    299, 
    315, 
    317, 
    318, 
    319, 
    320, 
    323, 
    339, 
    341, 
    342, 
    343, 
    344, 
    347, 
    363, 
    365, 
    366, 
    367, 
    368, 
    371, 
    372, 
    376, 
    379, 
    380, 
    381
  ], 
  "node_row_ptr": [
    0, 
    1, 
    2, 
    3, 
    4, 
    5, 
    7, 
    8, 
    9, 
    10, 
    11, 
    12, 
    13, 
    14, 
    15, 
    16, 
    17, 
    18, 
    19, 
    20, 
    21, 
    22, 
    23, 
    25, 
    26, 
    27, 
    28, 
    29, 
    30, 
    31, 
    32, 
    33, 
    34, 
    35, 
    36, 
    37, 
    38, 
    39, 
    40, 
    41, 
    43, 
    44, 
    45, 
    46, 
    47, 
    48, 
    49, 
    50, 
    51, 
    52, 
    53, 
    54, 
    55, 
    56, 
    57, 
    58, 
    59, 
    62, 
    63, 
    64, 
    65, 
    67, 
    68, 
    69, 
    70, 
    71, 
    72, 
    73, 
    74, 
    75, 
    76, 
    77, 
    78, 
    79, 
    80, 
    81, 
    82, 
    83, 
    84, 
    85, 
    86, 
    89, 
    90, 
    91, 
    92, 
    93, 
    95, 
    96, 
    97, 
    98, 
    99, 
    100, 
    101, 
    102, 
    103, 
    104, 
    105, 
    106, 
    107, 
    108, 
    109, 
    110, 
    111, 
    112, 
    113, 
    114, 
    117, 
    118, 
    119, 
    120, 
    122, 
    123, 
    124, 
    125, 
    126, 
    127, 
    128, 
    129, 
    130, 
    131, 
    132, 
    133, 
    134, 
    135, 
    136, 
    137, 
    138, 
    139, 
    140, 
    141, 
    144, 
    145, 
    146, 
    147, 
    148, 
    150, 
    151, 
    152, 
    153, 
    154, 
    155, 
    156, 
    157, 
    158, 
    159, 
    160, 
    161, 
    162, 
    163, 
    164, 
    165, 
    166, 
    167, 
    168, 
    169, 
    172, 
    173, 
    174, 
    175, 
    176, 
    177, 
    179, 
    180, 
    181, 
    182, 
    183, 
    184, 
    185, 
    186, 
    187, 
    188, 
    189, 
    190, 
    191, 
    192, 
    193, 
    194, 
    195, 
    196, 
    197, 
    198, 
    201, 
    202, 
    203, 
    204, 
    206, 
    207, 
    208, 
    209, 
    210, 
    211, 
    212, 
    213, 
    214, 
    215, 
    216, 
    217, 
    218, 
    219, 
    220, 
    221, 
    222, 
    223, 
    224, 
    225, 
    228, 
    229, 
    230, 
    232, 
    233, 
    234, 
    235, 
    236, 
    237, 
    238, 
    239, 
    240, 
    241, 
    242, 
    243, 
    244, 
    245, 
    246, 
    247, 
    248, 
    249, 
    250, 
    251, 
    254, 
    255, 
    256, 
    257, 
    259, 
    260, 
    261, 
    262, 
    263, 
    264, 
    265, 
    266, 
    267, 
    268, 
    269, 
    270, 
    271, 
    272, 
    273, 
    274, 
    275, 
    276, 
    277, 
    278, 
    281, 
    282, 
    283, 
    285, 
    286, 
    287, 
    288, 
    289, 
    290, 
    291, 
    292, 
    293, 
    294, 
    295, 
    296, 
    297, 
    298, 
    299, 
    300, 
    301, 
    302, 
    303, 
    304, 
    307, 
    308, 
    309, 
    310, 
    312, 
    313, 
    314, 
    315, 
    316, 
    317, 
    318, 
    319, 
    320, 
    321, 
    322, 
    323, 
    324, 
    325, 
    326, 
    327, 
    328, 
    329, 
    330, 
    331, 
    334, 
    335, 
    336, 
    338, 
    339, 
    340, 
    341, 
    342, 
    343, 
    344, 
    345, 
    346, 
    347, 
    348, 
    349, 
    350, 
    351, 
    352, 
    353, 
    354, 
    355, 
    356, 
    357, 
    360, 
    361, 
    362, 
    363, 
    365, 
    366, 
    367, 
    368, 
    369, 
    370, 
    371, 
    372, 
    373, 
    374, 
    375, 
    376, 
    377, 
    378, 
    379, 
    380, 
    381, 
    382, 
    383, 
    384, 
    387, 
    388, 
    389, 
    390, 
    392, 
    393, 
    394, 
    395, 
    396, 
    397, 
    398, 
    399, 
    400, 
    401, 
    402, 
    403, 
    404, 
    405, 
    406, 
    407, 
    408, 
    409, 
    410, 
    411, 
    414, 
    415, 
    416, 
    417, 
    418, 
    419, 
    420, 
    421, 
    422, 
    423, 
    424, 
    425, 
    426, 
    429
  ], 
  "heads": [[382, 0, 0]], 
  "attrs": {"mxnet_version": ["int", 10600]}
}